2024-03-02 12:49:30,129 - train - INFO - PretrainedBaseline(
  (model): BertForSequenceClassification(
    (bert): BertModel(
      (embeddings): BertEmbeddings(
        (word_embeddings): Embedding(30522, 768, padding_idx=0)
        (position_embeddings): Embedding(512, 768)
        (token_type_embeddings): Embedding(2, 768)
        (LayerNorm): LayerNorm((768,), eps=1e-12, elementwise_affine=True)
        (dropout): Dropout(p=0.1, inplace=False)
      )
      (encoder): BertEncoder(
        (layer): ModuleList(
          (0): BertLayer(
            (attention): BertAttention(
              (self): BertSelfAttention(
                (query): Linear(in_features=768, out_features=768, bias=True)
                (key): Linear(in_features=768, out_features=768, bias=True)
                (value): Linear(in_features=768, out_features=768, bias=True)
                (dropout): Dropout(p=0.1, inplace=False)
              )
              (output): BertSelfOutput(
                (dense): Linear(in_features=768, out_features=768, bias=True)
                (LayerNorm): LayerNorm((768,), eps=1e-12, elementwise_affine=True)
                (dropout): Dropout(p=0.1, inplace=False)
              )
            )
            (intermediate): BertIntermediate(
              (dense): Linear(in_features=768, out_features=3072, bias=True)
              (intermediate_act_fn): GELUActivation()
            )
            (output): BertOutput(
              (dense): Linear(in_features=3072, out_features=768, bias=True)
              (LayerNorm): LayerNorm((768,), eps=1e-12, elementwise_affine=True)
              (dropout): Dropout(p=0.1, inplace=False)
            )
          )
        )
      )
      (pooler): BertPooler(
        (dense): Linear(in_features=768, out_features=768, bias=True)
        (activation): Tanh()
      )
    )
    (dropout): Dropout(p=0.1, inplace=False)
    (classifier): Linear(in_features=768, out_features=15, bias=True)
  )
)
Trainable params: 31,527,183
Freeze params: 0
2024-03-02 13:12:40,202 - trainer - INFO -     epoch          : 1
2024-03-02 13:12:40,202 - trainer - INFO -     loss           : 0.939644
2024-03-02 13:12:40,202 - trainer - INFO -     accuracy       : 0.700611
2024-03-02 13:12:40,202 - trainer - INFO -     macro_f        : 0.462227
2024-03-02 13:12:40,202 - trainer - INFO -     val_loss       : 0.727442
…
2024-03-02 13:37:17,923 - trainer - INFO -     loss           : 0.280397
2024-03-02 13:37:17,923 - trainer - INFO -     accuracy       : 0.900872
2024-03-02 13:37:17,923 - trainer - INFO -     macro_f        : 0.814806
2024-03-02 13:37:17,923 - trainer - INFO -     val_loss       : 0.973136
2024-03-02 13:37:17,923 - trainer - INFO -     val_accuracy   : 0.746127
2024-03-02 13:37:17,924 - trainer - INFO -     val_macro_f    : 0.544411
2024-03-02 14:00:27,690 - train - INFO - PretrainedBaseline(
  (model): DistilBertForSequenceClassification(
    (distilbert): DistilBertModel(
      (embeddings): Embeddings(
        (word_embeddings): Embedding(30522, 768, padding_idx=0)
        (position_embeddings): Embedding(512, 768)
        (LayerNorm): LayerNorm((768,), eps=1e-12, elementwise_affine=True)
        (dropout): Dropout(p=0.1, inplace=False)
      )
      (transformer): Transformer(
        (layer): ModuleList(
          (0): TransformerBlock(
            (attention): MultiHeadSelfAttention(
              (dropout): Dropout(p=0.1, inplace=False)
              (q_lin): Linear(in_features=768, out_features=768, bias=True)
              (k_lin): Linear(in_features=768, out_features=768, bias=True)
              (v_lin): Linear(in_features=768, out_features=768, bias=True)
              (out_lin): Linear(in_features=768, out_features=768, bias=True)
            )
            (sa_layer_norm): LayerNorm((768,), eps=1e-12, elementwise_affine=True)
            (ffn): FFN(
              (dropout): Dropout(p=0.1, inplace=False)
              (lin1): Linear(in_features=768, out_features=3072, bias=True)
              (lin2): Linear(in_features=3072, out_features=768, bias=True)
              (activation): GELUActivation()
            )
            (output_layer_norm): LayerNorm((768,), eps=1e-12, elementwise_affine=True)
          )
        )
      )
    )
    (pre_classifier): Linear(in_features=768, out_features=768, bias=True)
    (classifier): Linear(in_features=768, out_features=15, bias=True)
    (dropout): Dropout(p=0.2, inplace=False)
  )
)
Trainable params: 31,525,647
Freeze params: 0
2024-03-02 14:06:13,599 - trainer - INFO -     epoch          : 1
2024-03-02 14:06:13,599 - trainer - INFO -     loss           : 0.884844
2024-03-02 14:06:13,599 - trainer - INFO -     accuracy       : 0.716095
2024-03-02 14:06:13,599 - trainer - INFO -     macro_f        : 0.482622
…
2024-03-21 19:51:46,012 - sentence_transformers.SentenceTransformer - INFO - Load pretrained SentenceTransformer: D:\AI\model\roberta-base
2024-03-21 19:51:46,012 - sentence_transformers.SentenceTransformer - WARNING - No sentence-transformers model found with name D:\AI\model\roberta-base. Creating a new one with MEAN pooling.
2024-03-21 19:51:46,522 - sentence_transformers.SentenceTransformer - INFO - Use pytorch device_name: cuda
2024-03-21 19:52:03,760 - train - INFO - PretrainedBaseline(
  (model): BertForSequenceClassification(
    (bert): BertModel(
      (embeddings): BertEmbeddings(
        (word_embeddings): Embedding(30522, 768, padding_idx=0)
        (position_embeddings): Embedding(512, 768)
        (token_type_embeddings): Embedding(2, 768)
        (LayerNorm): LayerNorm((768,), eps=1e-12, elementwise_affine=True)
        (dropout): Dropout(p=0.1, inplace=False)
      )
      (encoder): BertEncoder(
        (layer): ModuleList(
          (0): BertLayer(
            (attention): BertAttention(
              (self): BertSelfAttention(
                (query): Linear(in_features=768, out_features=768, bias=True)
                (key): Linear(in_features=768, out_features=768, bias=True)
                (value): Linear(in_features=768, out_features=768, bias=True)
                (dropout): Dropout(p=0.1, inplace=False)
              )
              (output): BertSelfOutput(
                (dense): Linear(in_features=768, out_features=768, bias=True)
                (LayerNorm): LayerNorm((768,), eps=1e-12, elementwise_affine=True)
                (dropout): Dropout(p=0.1, inplace=False)
              )
            )
            (intermediate): BertIntermediate(
              (dense): Linear(in_features=768, out_features=3072, bias=True)
              (intermediate_act_fn): GELUActivation()
            )
            (output): BertOutput(
              (dense): Linear(in_features=3072, out_features=768, bias=True)
              (LayerNorm): LayerNorm((768,), eps=1e-12, elementwise_affine=True)
              (dropout): Dropout(p=0.1, inplace=False)
            )
          )
        )
      )
      (pooler): BertPooler(
        (dense): Linear(in_features=768, out_features=768, bias=True)
        (activation): Tanh()
      )
    )
    (dropout): Dropout(p=0.1, inplace=False)
    (classifier): Linear(in_features=768, out_features=15, bias=True)
  )
)
Trainable params: 31,527,183
Freeze params: 0
2024-03-21 20:00:28,543 - train - INFO - PretrainedBaseline(
  (model): BertForSequenceClassification(
    (bert): BertModel(
      (embeddings): BertEmbeddings(
        (word_embeddings): Embedding(30522, 768, padding_idx=0)
        (position_embeddings): Embedding(512, 768)
        (token_type_embeddings): Embedding(2, 768)
        (LayerNorm): LayerNorm((768,), eps=1e-12, elementwise_affine=True)
        (dropout): Dropout(p=0.1, inplace=False)
      )
      (encoder): BertEncoder(
        (layer): ModuleList(
          (0): BertLayer(
            (attention): BertAttention(
              (self): BertSelfAttention(
                (query): Linear(in_features=768, out_features=768, bias=True)
                (key): Linear(in_features=768, out_features=768, bias=True)
                (value): Linear(in_features=768, out_features=768, bias=True)
                (dropout): Dropout(p=0.1, inplace=False)
              )
              (output): BertSelfOutput(
                (dense): Linear(in_features=768, out_features=768, bias=True)
                (LayerNorm): LayerNorm((768,), eps=1e-12, elementwise_affine=True)
                (dropout): Dropout(p=0.1, inplace=False)
              )
            )
            (intermediate): BertIntermediate(
              (dense): Linear(in_features=768, out_features=3072, bias=True)
              (intermediate_act_fn): GELUActivation()
            )
            (output): BertOutput(
              (dense): Linear(in_features=3072, out_features=768, bias=True)
              (LayerNorm): LayerNorm((768,), eps=1e-12, elementwise_affine=True)
              (dropout): Dropout(p=0.1, inplace=False)
            )
          )
        )
      )
      (pooler): BertPooler(
        (dense): Linear(in_features=768, out_features=768, bias=True)
        (activation): Tanh()
      )
    )
    (dropout): Dropout(p=0.1, inplace=False)
    (classifier): Linear(in_features=768, out_features=15, bias=True)
  )
)
Trainable params: 31,527,183
Freeze params: 0
2024-03-21 20:03:32,354 - sentence_transformers.SentenceTransformer - INFO - Load pretrained SentenceTransformer: D:\AI\model\roberta-base
2024-03-21 20:03:32,354 - sentence_transformers.SentenceTransformer - WARNING - No sentence-transformers model found with name D:\AI\model\roberta-base. Creating a new one with MEAN pooling.
…
