2024-02-26 12:41:19,288 - train - INFO - PretrainedBaseline(
  (model): BertForSequenceClassification(
    (bert): BertModel(
      (embeddings): BertEmbeddings(
        (word_embeddings): Embedding(30522, 768, padding_idx=0)
        (position_embeddings): Embedding(512, 768)
        (token_type_embeddings): Embedding(2, 768)
        (LayerNorm): LayerNorm((768,), eps=1e-12, elementwise_affine=True)
        (dropout): Dropout(p=0.1, inplace=False)
      )
      (encoder): BertEncoder(
        (layer): ModuleList(
          (0): BertLayer(
            (attention): BertAttention(
              (self): BertSelfAttention(
                (query): Linear(in_features=768, out_features=768, bias=True)
                (key): Linear(in_features=768, out_features=768, bias=True)
                (value): Linear(in_features=768, out_features=768, bias=True)
                (dropout): Dropout(p=0.1, inplace=False)
              )
              (output): BertSelfOutput(
                (dense): Linear(in_features=768, out_features=768, bias=True)
                (LayerNorm): LayerNorm((768,), eps=1e-12, elementwise_affine=True)
                (dropout): Dropout(p=0.1, inplace=False)
              )
            )
            (intermediate): BertIntermediate(
              (dense): Linear(in_features=768, out_features=3072, bias=True)
              (intermediate_act_fn): GELUActivation()
            )
            (output): BertOutput(
              (dense): Linear(in_features=3072, out_features=768, bias=True)
              (LayerNorm): LayerNorm((768,), eps=1e-12, elementwise_affine=True)
              (dropout): Dropout(p=0.1, inplace=False)
            )
          )
        )
      )
      (pooler): BertPooler(
        (dense): Linear(in_features=768, out_features=768, bias=True)
        (activation): Tanh()
      )
    )
    (dropout): Dropout(p=0.1, inplace=False)
    (classifier): Linear(in_features=768, out_features=15, bias=True)
  )
)
Trainable params: 31,527,183
Freeze params: 0
2024-02-26 12:47:06,765 - trainer - INFO -     epoch          : 1
2024-02-26 12:47:06,767 - trainer - INFO -     loss           : 0.939644
2024-02-26 12:47:06,767 - trainer - INFO -     accuracy       : 0.700611
2024-02-26 12:47:06,767 - trainer - INFO -     macro_f        : 0.462227
2024-02-26 12:47:06,767 - trainer - INFO -     val_loss       : 0.727442
…
2024-02-26 12:58:38,975 - trainer - INFO -     loss           : 0.477439
2024-02-26 12:58:38,975 - trainer - INFO -     accuracy       : 0.83391
2024-02-26 12:58:38,975 - trainer - INFO -     macro_f        : 0.689491
2024-02-26 12:58:38,975 - trainer - INFO -     val_loss       : 0.762255
2024-02-26 12:58:38,976 - trainer - INFO -     val_accuracy   : 0.761697
2024-02-26 12:58:38,976 - trainer - INFO -     val_macro_f    : 0.568257
2024-02-26 13:04:00,658 - train - INFO - PretrainedBaseline(
  (model): DistilBertForSequenceClassification(
    (distilbert): DistilBertModel(
      (embeddings): Embeddings(
        (word_embeddings): Embedding(30522, 768, padding_idx=0)
        (position_embeddings): Embedding(512, 768)
        (LayerNorm): LayerNorm((768,), eps=1e-12, elementwise_affine=True)
        (dropout): Dropout(p=0.1, inplace=False)
      )
      (transformer): Transformer(
        (layer): ModuleList(
          (0): TransformerBlock(
            (attention): MultiHeadSelfAttention(
              (dropout): Dropout(p=0.1, inplace=False)
              (q_lin): Linear(in_features=768, out_features=768, bias=True)
              (k_lin): Linear(in_features=768, out_features=768, bias=True)
              (v_lin): Linear(in_features=768, out_features=768, bias=True)
              (out_lin): Linear(in_features=768, out_features=768, bias=True)
            )
            (sa_layer_norm): LayerNorm((768,), eps=1e-12, elementwise_affine=True)
            (ffn): FFN(
              (dropout): Dropout(p=0.1, inplace=False)
              (lin1): Linear(in_features=768, out_features=3072, bias=True)
              (lin2): Linear(in_features=3072, out_features=768, bias=True)
              (activation): GELUActivation()
            )
            (output_layer_norm): LayerNorm((768,), eps=1e-12, elementwise_affine=True)
          )
        )
      )
    )
    (pre_classifier): Linear(in_features=768, out_features=768, bias=True)
    (classifier): Linear(in_features=768, out_features=15, bias=True)
    (dropout): Dropout(p=0.2, inplace=False)
  )
)
Trainable params: 31,525,647
Freeze params: 0
2024-02-26 13:09:49,523 - trainer - INFO -     epoch          : 1
2024-02-26 13:09:49,525 - trainer - INFO -     loss           : 0.884844
2024-02-26 13:09:49,525 - trainer - INFO -     accuracy       : 0.716095
2024-02-26 13:09:49,525 - trainer - INFO -     macro_f        : 0.482622
…
2024-02-26 13:33:03,103 - trainer - INFO -     epoch          : 5
2024-02-26 13:33:03,103 - trainer - INFO -     loss           : 0.277788
2024-02-26 13:33:03,103 - trainer - INFO -     accuracy       : 0.902137
2024-02-26 13:33:03,103 - trainer - INFO -     macro_f        : 0.813428
2024-02-26 13:33:03,104 - trainer - INFO -     val_loss       : 1.026502
2024-02-26 13:33:03,104 - trainer - INFO -     val_accuracy   : 0.740221
2024-02-26 13:33:03,104 - trainer - INFO -     val_macro_f    : 0.545659
2024-02-26 13:42:32,087 - train - INFO - PretrainedBaseline(
  (model): XLNetForSequenceClassification(
    (transformer): XLNetModel(
      (word_embedding): Embedding(32000, 768)
      (layer): ModuleList(
        (0): XLNetLayer(
          (rel_attn): XLNetRelativeAttention(
            (layer_norm): LayerNorm((768,), eps=1e-12, elementwise_affine=True)
            (dropout): Dropout(p=0.1, inplace=False)
          )
          (ff): XLNetFeedForward(
            (layer_norm): LayerNorm((768,), eps=1e-12, elementwise_affine=True)
            (layer_1): Linear(in_features=768, out_features=3072, bias=True)
            (layer_2): Linear(in_features=3072, out_features=768, bias=True)
            (dropout): Dropout(p=0.1, inplace=False)
            (activation_function): GELUActivation()
          )
          (dropout): Dropout(p=0.1, inplace=False)
        )
      )
      (dropout): Dropout(p=0.1, inplace=False)
    )
    (sequence_summary): SequenceSummary(
      (summary): Linear(in_features=768, out_features=768, bias=True)
      (activation): Tanh()
      (first_dropout): Identity()
      (last_dropout): Dropout(p=0.1, inplace=False)
    )
    (logits_proj): Linear(in_features=768, out_features=15, bias=True)
  )
)
Trainable params: 32,857,359
Freeze params: 0
2024-02-26 13:51:06,867 - trainer - INFO -     epoch          : 1
2024-02-26 13:51:06,872 - trainer - INFO -     loss           : 0.870393
2024-02-26 13:51:06,872 - trainer - INFO -     accuracy       : 0.720371
2024-02-26 13:51:06,872 - trainer - INFO -     macro_f        : 0.493256
2024-02-26 13:51:06,872 - trainer - INFO -     val_loss       : 0.748322
…
2024-02-26 14:23:31,158 - trainer - INFO -     loss           : 0.219367
2024-02-26 14:23:31,159 - trainer - INFO -     accuracy       : 0.927133
2024-02-26 14:23:31,159 - trainer - INFO -     macro_f        : 0.856394
2024-02-26 14:23:31,159 - trainer - INFO -     val_loss       : 1.083076
2024-02-26 14:23:31,159 - trainer - INFO -     val_accuracy   : 0.747661
2024-02-26 14:23:31,160 - trainer - INFO -     val_macro_f    : 0.559152
2024-02-26 16:48:30,690 - train - INFO - PretrainedBaseline(
  (model): RobertaForSequenceClassification(
    (roberta): RobertaModel(
      (embeddings): RobertaEmbeddings(
        (word_embeddings): Embedding(50265, 768, padding_idx=0)
        (position_embeddings): Embedding(514, 768, padding_idx=0)
        (token_type_embeddings): Embedding(1, 768)
        (LayerNorm): LayerNorm((768,), eps=1e-05, elementwise_affine=True)
        (dropout): Dropout(p=0.1, inplace=False)
      )
      (encoder): RobertaEncoder(
        (layer): ModuleList(
          (0): RobertaLayer(
            (attention): RobertaAttention(
              (self): RobertaSelfAttention(
                (query): Linear(in_features=768, out_features=768, bias=True)
                (key): Linear(in_features=768, out_features=768, bias=True)
                (value): Linear(in_features=768, out_features=768, bias=True)
                (dropout): Dropout(p=0.1, inplace=False)
              )
              (output): RobertaSelfOutput(
                (dense): Linear(in_features=768, out_features=768, bias=True)
                (LayerNorm): LayerNorm((768,), eps=1e-05, elementwise_affine=True)
                (dropout): Dropout(p=0.1, inplace=False)
              )
            )
            (intermediate): RobertaIntermediate(
              (dense): Linear(in_features=768, out_features=3072, bias=True)
              (intermediate_act_fn): GELUActivation()
            )
            (output): RobertaOutput(
              (dense): Linear(in_features=3072, out_features=768, bias=True)
              (LayerNorm): LayerNorm((768,), eps=1e-05, elementwise_affine=True)
              (dropout): Dropout(p=0.1, inplace=False)
            )
          )
        )
      )
    )
    (classifier): RobertaClassificationHead(
      (dense): Linear(in_features=768, out_features=768, bias=True)
      (dropout): Dropout(p=0.1, inplace=False)
      (out_proj): Linear(in_features=768, out_features=15, bias=True)
    )
  )
)
Trainable params: 46,690,575
Freeze params: 0
2024-02-26 16:55:03,854 - trainer - INFO -     epoch          : 1
2024-02-26 16:55:03,857 - trainer - INFO -     loss           : 0.826596
2024-02-26 16:55:03,857 - trainer - INFO -     accuracy       : 0.730544
2024-02-26 16:55:03,858 - trainer - INFO -     macro_f        : 0.510677
2024-02-26 16:55:03,858 - trainer - INFO -     val_loss       : 0.706793
…
2024-02-26 17:20:12,230 - trainer - INFO -     loss           : 0.174536
2024-02-26 17:20:12,231 - trainer - INFO -     accuracy       : 0.942138
2024-02-26 17:20:12,231 - trainer - INFO -     macro_f        : 0.886419
2024-02-26 17:20:12,231 - trainer - INFO -     val_loss       : 1.143952
2024-02-26 17:20:12,231 - trainer - INFO -     val_accuracy   : 0.750959
2024-02-26 17:20:12,231 - trainer - INFO -     val_macro_f    : 0.557197
2024-02-26 17:36:28,424 - train - INFO - PretrainedBaseline(
  (model): LongformerForSequenceClassification(
    (longformer): LongformerModel(
      (embeddings): LongformerEmbeddings(
        (word_embeddings): Embedding(50265, 768, padding_idx=0)
        (token_type_embeddings): Embedding(1, 768)
        (LayerNorm): LayerNorm((768,), eps=1e-05, elementwise_affine=True)
        (dropout): Dropout(p=0.1, inplace=False)
        (position_embeddings): Embedding(4098, 768, padding_idx=0)
      )
      (encoder): LongformerEncoder(
        (layer): ModuleList(
          (0): LongformerLayer(
            (attention): LongformerAttention(
              (self): LongformerSelfAttention(
                (query): Linear(in_features=768, out_features=768, bias=True)
                (key): Linear(in_features=768, out_features=768, bias=True)
                (value): Linear(in_features=768, out_features=768, bias=True)
                (query_global): Linear(in_features=768, out_features=768, bias=True)
                (key_global): Linear(in_features=768, out_features=768, bias=True)
                (value_global): Linear(in_features=768, out_features=768, bias=True)
              )
              (output): LongformerSelfOutput(
                (dense): Linear(in_features=768, out_features=768, bias=True)
                (LayerNorm): LayerNorm((768,), eps=1e-05, elementwise_affine=True)
                (dropout): Dropout(p=0.1, inplace=False)
              )
            )
            (intermediate): LongformerIntermediate(
              (dense): Linear(in_features=768, out_features=3072, bias=True)
              (intermediate_act_fn): GELUActivation()
            )
            (output): LongformerOutput(
              (dense): Linear(in_features=3072, out_features=768, bias=True)
              (LayerNorm): LayerNorm((768,), eps=1e-05, elementwise_affine=True)
              (dropout): Dropout(p=0.1, inplace=False)
            )
          )
        )
      )
    )
    (classifier): LongformerClassificationHead(
      (dense): Linear(in_features=768, out_features=768, bias=True)
      (dropout): Dropout(p=0.1, inplace=False)
      (out_proj): Linear(in_features=768, out_features=15, bias=True)
    )
  )
)
Trainable params: 51,214,863
Freeze params: 0
2024-02-26 19:18:34,394 - trainer - INFO -     epoch          : 1
2024-02-26 19:18:34,396 - trainer - INFO -     loss           : 0.825771
2024-02-26 19:18:34,397 - trainer - INFO -     accuracy       : 0.730544
2024-02-26 19:18:34,397 - trainer - INFO -     macro_f        : 0.509622
2024-02-26 19:18:34,397 - trainer - INFO -     val_loss       : 0.706572
…
2024-03-21 22:07:29,948 - sentence_transformers.SentenceTransformer - INFO - Load pretrained SentenceTransformer: D:\AI\model\roberta-base
2024-03-21 22:07:29,948 - sentence_transformers.SentenceTransformer - WARNING - No sentence-transformers model found with name D:\AI\model\roberta-base. Creating a new one with MEAN pooling.
2024-03-21 22:07:30,385 - sentence_transformers.SentenceTransformer - INFO - Use pytorch device_name: cuda
2024-03-21 22:07:31,808 - train - INFO - PretrainedBaseline(
  (model): BertForSequenceClassification(
    (bert): BertModel(
      (embeddings): BertEmbeddings(
        (word_embeddings): Embedding(30522, 768, padding_idx=0)
        (position_embeddings): Embedding(512, 768)
        (token_type_embeddings): Embedding(2, 768)
        (LayerNorm): LayerNorm((768,), eps=1e-12, elementwise_affine=True)
        (dropout): Dropout(p=0.1, inplace=False)
      )
      (encoder): BertEncoder(
        (layer): ModuleList(
          (0): BertLayer(
            (attention): BertAttention(
              (self): BertSelfAttention(
                (query): Linear(in_features=768, out_features=768, bias=True)
                (key): Linear(in_features=768, out_features=768, bias=True)
                (value): Linear(in_features=768, out_features=768, bias=True)
                (dropout): Dropout(p=0.1, inplace=False)
              )
              (output): BertSelfOutput(
                (dense): Linear(in_features=768, out_features=768, bias=True)
                (LayerNorm): LayerNorm((768,), eps=1e-12, elementwise_affine=True)
                (dropout): Dropout(p=0.1, inplace=False)
              )
            )
            (intermediate): BertIntermediate(
              (dense): Linear(in_features=768, out_features=3072, bias=True)
              (intermediate_act_fn): GELUActivation()
            )
            (output): BertOutput(
              (dense): Linear(in_features=3072, out_features=768, bias=True)
              (LayerNorm): LayerNorm((768,), eps=1e-12, elementwise_affine=True)
              (dropout): Dropout(p=0.1, inplace=False)
            )
          )
        )
      )
      (pooler): BertPooler(
        (dense): Linear(in_features=768, out_features=768, bias=True)
        (activation): Tanh()
      )
    )
    (dropout): Dropout(p=0.1, inplace=False)
    (classifier): Linear(in_features=768, out_features=15, bias=True)
  )
)
Trainable params: 31,527,183
Freeze params: 0
2024-03-30 12:29:15,362 - train - INFO - PretrainedBaseline(
  (model): DistilBertForSequenceClassification(
    (distilbert): DistilBertModel(
      (embeddings): Embeddings(
        (word_embeddings): Embedding(30522, 768, padding_idx=0)
        (position_embeddings): Embedding(512, 768)
        (LayerNorm): LayerNorm((768,), eps=1e-12, elementwise_affine=True)
        (dropout): Dropout(p=0.1, inplace=False)
      )
      (transformer): Transformer(
        (layer): ModuleList(
          (0): TransformerBlock(
            (attention): MultiHeadSelfAttention(
              (dropout): Dropout(p=0.1, inplace=False)
              (q_lin): Linear(in_features=768, out_features=768, bias=True)
              (k_lin): Linear(in_features=768, out_features=768, bias=True)
              (v_lin): Linear(in_features=768, out_features=768, bias=True)
              (out_lin): Linear(in_features=768, out_features=768, bias=True)
            )
            (sa_layer_norm): LayerNorm((768,), eps=1e-12, elementwise_affine=True)
            (ffn): FFN(
              (dropout): Dropout(p=0.1, inplace=False)
              (lin1): Linear(in_features=768, out_features=3072, bias=True)
              (lin2): Linear(in_features=3072, out_features=768, bias=True)
              (activation): GELUActivation()
            )
            (output_layer_norm): LayerNorm((768,), eps=1e-12, elementwise_affine=True)
          )
        )
      )
    )
    (pre_classifier): Linear(in_features=768, out_features=768, bias=True)
    (classifier): Linear(in_features=768, out_features=15, bias=True)
    (dropout): Dropout(p=0.2, inplace=False)
  )
)
Trainable params: 31,525,647
Freeze params: 0
2024-03-30 12:39:26,944 - trainer - INFO -     epoch          : 1
2024-03-30 12:39:26,944 - trainer - INFO -     loss           : 0.901298
2024-03-30 12:39:26,944 - trainer - INFO -     accuracy       : 0.712164
2024-03-30 12:39:26,944 - trainer - INFO -     macro_f        : 0.691492
…
2024-03-30 14:36:32,731 - trainer - INFO -     val_recall     : 0.760163
2024-03-30 14:36:32,731 - trainer - INFO -     test_loss      : 0.746618
2024-03-30 14:36:32,731 - trainer - INFO -     test_accuracy  : 0.761083
2024-03-30 14:36:32,731 - trainer - INFO -     test_macro_f   : 0.750529
2024-03-30 14:36:32,731 - trainer - INFO -     test_precision : 0.772754
2024-03-30 14:36:32,731 - trainer - INFO -     test_recall    : 0.761083
2024-03-30 14:38:13,442 - train - INFO - PretrainedBaseline(
  (model): DistilBertForSequenceClassification(
    (distilbert): DistilBertModel(
      (embeddings): Embeddings(
        (word_embeddings): Embedding(30522, 768, padding_idx=0)
        (position_embeddings): Embedding(512, 768)
        (LayerNorm): LayerNorm((768,), eps=1e-12, elementwise_affine=True)
        (dropout): Dropout(p=0.1, inplace=False)
      )
      (transformer): Transformer(
        (layer): ModuleList(
          (0): TransformerBlock(
            (attention): MultiHeadSelfAttention(
              (dropout): Dropout(p=0.1, inplace=False)
              (q_lin): Linear(in_features=768, out_features=768, bias=True)
              (k_lin): Linear(in_features=768, out_features=768, bias=True)
              (v_lin): Linear(in_features=768, out_features=768, bias=True)
              (out_lin): Linear(in_features=768, out_features=768, bias=True)
            )
            (sa_layer_norm): LayerNorm((768,), eps=1e-12, elementwise_affine=True)
            (ffn): FFN(
              (dropout): Dropout(p=0.1, inplace=False)
              (lin1): Linear(in_features=768, out_features=3072, bias=True)
              (lin2): Linear(in_features=3072, out_features=768, bias=True)
              (activation): GELUActivation()
            )
            (output_layer_norm): LayerNorm((768,), eps=1e-12, elementwise_affine=True)
          )
        )
      )
    )
    (pre_classifier): Linear(in_features=768, out_features=768, bias=True)
    (classifier): Linear(in_features=768, out_features=15, bias=True)
    (dropout): Dropout(p=0.2, inplace=False)
  )
)
Trainable params: 31,525,647
Freeze params: 0
2024-03-30 14:46:27,427 - train - INFO - PretrainedBaseline(
  (model): DistilBertForSequenceClassification(
    (distilbert): DistilBertModel(
      (embeddings): Embeddings(
        (word_embeddings): Embedding(30522, 768, padding_idx=0)
        (position_embeddings): Embedding(512, 768)
        (LayerNorm): LayerNorm((768,), eps=1e-12, elementwise_affine=True)
        (dropout): Dropout(p=0.1, inplace=False)
      )
      (transformer): Transformer(
        (layer): ModuleList(
          (0): TransformerBlock(
            (attention): MultiHeadSelfAttention(
              (dropout): Dropout(p=0.1, inplace=False)
              (q_lin): Linear(in_features=768, out_features=768, bias=True)
              (k_lin): Linear(in_features=768, out_features=768, bias=True)
              (v_lin): Linear(in_features=768, out_features=768, bias=True)
              (out_lin): Linear(in_features=768, out_features=768, bias=True)
            )
            (sa_layer_norm): LayerNorm((768,), eps=1e-12, elementwise_affine=True)
            (ffn): FFN(
              (dropout): Dropout(p=0.1, inplace=False)
              (lin1): Linear(in_features=768, out_features=3072, bias=True)
              (lin2): Linear(in_features=3072, out_features=768, bias=True)
              (activation): GELUActivation()
            )
            (output_layer_norm): LayerNorm((768,), eps=1e-12, elementwise_affine=True)
          )
        )
      )
    )
    (pre_classifier): Linear(in_features=768, out_features=768, bias=True)
    (classifier): Linear(in_features=768, out_features=15, bias=True)
    (dropout): Dropout(p=0.2, inplace=False)
  )
)
Trainable params: 31,525,647
Freeze params: 0
2024-03-30 14:56:46,537 - trainer - INFO -     epoch          : 1
2024-03-30 14:56:46,537 - trainer - INFO -     loss           : 0.786625
2024-03-30 14:56:46,537 - trainer - INFO -     accuracy       : 0.739489
2024-03-30 14:56:46,537 - trainer - INFO -     macro_f        : 0.724906
…
2024-03-30 22:50:35,142 - trainer - INFO -     val_recall     : 0.790459
2024-03-30 22:50:35,142 - trainer - INFO -     test_loss      : 0.652703
2024-03-30 22:50:35,142 - trainer - INFO -     test_accuracy  : 0.795444
2024-03-30 22:50:35,142 - trainer - INFO -     test_macro_f   : 0.794994
2024-03-30 22:50:35,142 - trainer - INFO -     test_precision : 0.823737
2024-03-30 22:50:35,142 - trainer - INFO -     test_recall    : 0.795444
2024-03-31 21:47:32,982 - train - INFO - PretrainedBaseline(
  (model): BertForSequenceClassification(
    (bert): BertModel(
      (embeddings): BertEmbeddings(
        (word_embeddings): Embedding(30522, 768, padding_idx=0)
        (position_embeddings): Embedding(512, 768)
        (token_type_embeddings): Embedding(2, 768)
        (LayerNorm): LayerNorm((768,), eps=1e-12, elementwise_affine=True)
        (dropout): Dropout(p=0.1, inplace=False)
      )
      (encoder): BertEncoder(
        (layer): ModuleList(
          (0): BertLayer(
            (attention): BertAttention(
              (self): BertSelfAttention(
                (query): Linear(in_features=768, out_features=768, bias=True)
                (key): Linear(in_features=768, out_features=768, bias=True)
                (value): Linear(in_features=768, out_features=768, bias=True)
                (dropout): Dropout(p=0.1, inplace=False)
              )
              (output): BertSelfOutput(
                (dense): Linear(in_features=768, out_features=768, bias=True)
                (LayerNorm): LayerNorm((768,), eps=1e-12, elementwise_affine=True)
                (dropout): Dropout(p=0.1, inplace=False)
              )
            )
            (intermediate): BertIntermediate(
              (dense): Linear(in_features=768, out_features=3072, bias=True)
              (intermediate_act_fn): GELUActivation()
            )
            (output): BertOutput(
              (dense): Linear(in_features=3072, out_features=768, bias=True)
              (LayerNorm): LayerNorm((768,), eps=1e-12, elementwise_affine=True)
              (dropout): Dropout(p=0.1, inplace=False)
            )
          )
        )
      )
      (pooler): BertPooler(
        (dense): Linear(in_features=768, out_features=768, bias=True)
        (activation): Tanh()
      )
    )
    (dropout): Dropout(p=0.1, inplace=False)
    (classifier): Linear(in_features=768, out_features=15, bias=True)
  )
)
Trainable params: 31,527,183
Freeze params: 0
2024-03-31 21:48:04,323 - train - INFO - PretrainedBaseline(
  (model): BertForSequenceClassification(
    (bert): BertModel(
      (embeddings): BertEmbeddings(
        (word_embeddings): Embedding(30522, 768, padding_idx=0)
        (position_embeddings): Embedding(512, 768)
        (token_type_embeddings): Embedding(2, 768)
        (LayerNorm): LayerNorm((768,), eps=1e-12, elementwise_affine=True)
        (dropout): Dropout(p=0.1, inplace=False)
      )
      (encoder): BertEncoder(
        (layer): ModuleList(
          (0): BertLayer(
            (attention): BertAttention(
              (self): BertSelfAttention(
                (query): Linear(in_features=768, out_features=768, bias=True)
                (key): Linear(in_features=768, out_features=768, bias=True)
                (value): Linear(in_features=768, out_features=768, bias=True)
                (dropout): Dropout(p=0.1, inplace=False)
              )
              (output): BertSelfOutput(
                (dense): Linear(in_features=768, out_features=768, bias=True)
                (LayerNorm): LayerNorm((768,), eps=1e-12, elementwise_affine=True)
                (dropout): Dropout(p=0.1, inplace=False)
              )
            )
            (intermediate): BertIntermediate(
              (dense): Linear(in_features=768, out_features=3072, bias=True)
              (intermediate_act_fn): GELUActivation()
            )
            (output): BertOutput(
              (dense): Linear(in_features=3072, out_features=768, bias=True)
              (LayerNorm): LayerNorm((768,), eps=1e-12, elementwise_affine=True)
              (dropout): Dropout(p=0.1, inplace=False)
            )
          )
        )
      )
      (pooler): BertPooler(
        (dense): Linear(in_features=768, out_features=768, bias=True)
        (activation): Tanh()
      )
    )
    (dropout): Dropout(p=0.1, inplace=False)
    (classifier): Linear(in_features=768, out_features=15, bias=True)
  )
)
Trainable params: 31,527,183
Freeze params: 0
2024-03-31 21:48:30,089 - train - INFO - PretrainedBaseline(
  (model): BertForSequenceClassification(
    (bert): BertModel(
      (embeddings): BertEmbeddings(
        (word_embeddings): Embedding(30522, 768, padding_idx=0)
        (position_embeddings): Embedding(512, 768)
        (token_type_embeddings): Embedding(2, 768)
        (LayerNorm): LayerNorm((768,), eps=1e-12, elementwise_affine=True)
        (dropout): Dropout(p=0.1, inplace=False)
      )
      (encoder): BertEncoder(
        (layer): ModuleList(
          (0): BertLayer(
            (attention): BertAttention(
              (self): BertSelfAttention(
                (query): Linear(in_features=768, out_features=768, bias=True)
                (key): Linear(in_features=768, out_features=768, bias=True)
                (value): Linear(in_features=768, out_features=768, bias=True)
                (dropout): Dropout(p=0.1, inplace=False)
              )
              (output): BertSelfOutput(
                (dense): Linear(in_features=768, out_features=768, bias=True)
                (LayerNorm): LayerNorm((768,), eps=1e-12, elementwise_affine=True)
                (dropout): Dropout(p=0.1, inplace=False)
              )
            )
            (intermediate): BertIntermediate(
              (dense): Linear(in_features=768, out_features=3072, bias=True)
              (intermediate_act_fn): GELUActivation()
            )
            (output): BertOutput(
              (dense): Linear(in_features=3072, out_features=768, bias=True)
              (LayerNorm): LayerNorm((768,), eps=1e-12, elementwise_affine=True)
              (dropout): Dropout(p=0.1, inplace=False)
            )
          )
        )
      )
      (pooler): BertPooler(
        (dense): Linear(in_features=768, out_features=768, bias=True)
        (activation): Tanh()
      )
    )
    (dropout): Dropout(p=0.1, inplace=False)
    (classifier): Linear(in_features=768, out_features=15, bias=True)
  )
)
Trainable params: 31,527,183
Freeze params: 0
2024-03-31 21:58:53,963 - trainer - INFO -     epoch          : 1
2024-03-31 21:58:53,963 - trainer - INFO -     loss           : 0.968096
2024-03-31 21:58:53,963 - trainer - INFO -     accuracy       : 0.69016
2024-03-31 21:58:53,963 - trainer - INFO -     macro_f        : 0.667128
2024-03-31 21:58:53,963 - trainer - INFO -     precision      : 0.682725
…
2024-05-01 23:32:48,062 - trainer - INFO -     val_recall     : 0.806182
2024-05-01 23:32:48,062 - trainer - INFO -     test_loss      : 0.564322
2024-05-01 23:32:48,062 - trainer - INFO -     test_accuracy  : 0.813929
2024-05-01 23:32:48,062 - trainer - INFO -     test_macro_f   : 0.814193
2024-05-01 23:32:48,062 - trainer - INFO -     test_precision : 0.842382
2024-05-01 23:32:48,062 - trainer - INFO -     test_recall    : 0.813929
2024-05-01 23:34:56,589 - train - INFO - PretrainedBaseline(
  (model): RobertaForSequenceClassification(
    (roberta): RobertaModel(
      (embeddings): RobertaEmbeddings(
        (word_embeddings): Embedding(50265, 768, padding_idx=0)
        (position_embeddings): Embedding(514, 768, padding_idx=0)
        (token_type_embeddings): Embedding(1, 768)
        (LayerNorm): LayerNorm((768,), eps=1e-05, elementwise_affine=True)
        (dropout): Dropout(p=0.1, inplace=False)
      )
      (encoder): RobertaEncoder(
        (layer): ModuleList(
          (0): RobertaLayer(
            (attention): RobertaAttention(
              (self): RobertaSelfAttention(
                (query): Linear(in_features=768, out_features=768, bias=True)
                (key): Linear(in_features=768, out_features=768, bias=True)
                (value): Linear(in_features=768, out_features=768, bias=True)
                (dropout): Dropout(p=0.1, inplace=False)
              )
              (output): RobertaSelfOutput(
                (dense): Linear(in_features=768, out_features=768, bias=True)
                (LayerNorm): LayerNorm((768,), eps=1e-05, elementwise_affine=True)
                (dropout): Dropout(p=0.1, inplace=False)
              )
            )
            (intermediate): RobertaIntermediate(
              (dense): Linear(in_features=768, out_features=3072, bias=True)
              (intermediate_act_fn): GELUActivation()
            )
            (output): RobertaOutput(
              (dense): Linear(in_features=3072, out_features=768, bias=True)
              (LayerNorm): LayerNorm((768,), eps=1e-05, elementwise_affine=True)
              (dropout): Dropout(p=0.1, inplace=False)
            )
          )
        )
      )
    )
    (classifier): RobertaClassificationHead(
      (dense): Linear(in_features=768, out_features=768, bias=True)
      (dropout): Dropout(p=0.1, inplace=False)
      (out_proj): Linear(in_features=768, out_features=15, bias=True)
    )
  )
)
Trainable params: 46,690,575
Freeze params: 0
2024-05-01 23:39:04,944 - train - INFO - PretrainedBaseline(
  (model): RobertaForSequenceClassification(
    (roberta): RobertaModel(
      (embeddings): RobertaEmbeddings(
        (word_embeddings): Embedding(50265, 768, padding_idx=0)
        (position_embeddings): Embedding(514, 768, padding_idx=0)
        (token_type_embeddings): Embedding(1, 768)
        (LayerNorm): LayerNorm((768,), eps=1e-05, elementwise_affine=True)
        (dropout): Dropout(p=0.1, inplace=False)
      )
      (encoder): RobertaEncoder(
        (layer): ModuleList(
          (0): RobertaLayer(
            (attention): RobertaAttention(
              (self): RobertaSelfAttention(
                (query): Linear(in_features=768, out_features=768, bias=True)
                (key): Linear(in_features=768, out_features=768, bias=True)
                (value): Linear(in_features=768, out_features=768, bias=True)
                (dropout): Dropout(p=0.1, inplace=False)
              )
              (output): RobertaSelfOutput(
                (dense): Linear(in_features=768, out_features=768, bias=True)
                (LayerNorm): LayerNorm((768,), eps=1e-05, elementwise_affine=True)
                (dropout): Dropout(p=0.1, inplace=False)
              )
            )
            (intermediate): RobertaIntermediate(
              (dense): Linear(in_features=768, out_features=3072, bias=True)
              (intermediate_act_fn): GELUActivation()
            )
            (output): RobertaOutput(
              (dense): Linear(in_features=3072, out_features=768, bias=True)
              (LayerNorm): LayerNorm((768,), eps=1e-05, elementwise_affine=True)
              (dropout): Dropout(p=0.1, inplace=False)
            )
          )
        )
      )
    )
    (classifier): RobertaClassificationHead(
      (dense): Linear(in_features=768, out_features=768, bias=True)
      (dropout): Dropout(p=0.1, inplace=False)
      (out_proj): Linear(in_features=768, out_features=15, bias=True)
    )
  )
)
Trainable params: 46,690,575
Freeze params: 0
2024-05-01 23:56:11,320 - trainer - INFO -     epoch          : 1
2024-05-01 23:56:11,320 - trainer - INFO -     loss           : 0.726696
2024-05-01 23:56:11,320 - trainer - INFO -     accuracy       : 0.754533
2024-05-01 23:56:11,320 - trainer - INFO -     macro_f        : 0.741514
2024-05-01 23:56:11,320 - trainer - INFO -     precision      : 0.762361
…
