2024-03-02 19:51:39,020 - train - INFO - BiAttentionClassifyModel(
  (embedding): DistilBertModel(
    (embeddings): Embeddings(
      (word_embeddings): Embedding(30522, 768, padding_idx=0)
      (position_embeddings): Embedding(512, 768)
      (LayerNorm): LayerNorm((768,), eps=1e-12, elementwise_affine=True)
      (dropout): Dropout(p=0.1, inplace=False)
    )
    (transformer): Transformer(
      (layer): ModuleList(
        (0): TransformerBlock(
          (attention): MultiHeadSelfAttention(
            (dropout): Dropout(p=0.1, inplace=False)
            (q_lin): Linear(in_features=768, out_features=768, bias=True)
            (k_lin): Linear(in_features=768, out_features=768, bias=True)
            (v_lin): Linear(in_features=768, out_features=768, bias=True)
            (out_lin): Linear(in_features=768, out_features=768, bias=True)
          )
          (sa_layer_norm): LayerNorm((768,), eps=1e-12, elementwise_affine=True)
          (ffn): FFN(
            (dropout): Dropout(p=0.1, inplace=False)
            (lin1): Linear(in_features=768, out_features=3072, bias=True)
            (lin2): Linear(in_features=3072, out_features=768, bias=True)
            (activation): GELUActivation()
          )
          (output_layer_norm): LayerNorm((768,), eps=1e-12, elementwise_affine=True)
        )
      )
    )
  )
  (classifier): Linear(in_features=768, out_features=26, bias=True)
  (final): Linear(in_features=768, out_features=768, bias=True)
  (topic_layer): Sequential(
    (0): Linear(in_features=768, out_features=600, bias=True)
    (1): Tanh()
    (2): Linear(in_features=600, out_features=30, bias=True)
  )
  (projection): AttLayer(
    (attention): Sequential(
      (0): Linear(in_features=768, out_features=128, bias=True)
      (1): Tanh()
      (2): Linear(in_features=128, out_features=1, bias=True)
      (3): Flatten(start_dim=1, end_dim=-1)
      (4): Softmax(dim=-1)
    )
  )
)
Trainable params: 32,112,097
Freeze params: 0
2024-03-02 20:01:08,537 - trainer - INFO -     epoch          : 1
2024-03-02 20:01:08,537 - trainer - INFO -     loss           : 1.330269
2024-03-02 20:01:08,537 - trainer - INFO -     accuracy       : 0.631376
2024-03-02 20:01:08,537 - trainer - INFO -     macro_f        : 0.474785
…
2024-03-02 22:19:14,546 - trainer - INFO -     loss           : 0.828781
2024-03-02 22:19:14,546 - trainer - INFO -     accuracy       : 0.751712
2024-03-02 22:19:14,546 - trainer - INFO -     macro_f        : 0.623297
2024-03-02 22:19:14,546 - trainer - INFO -     doc_entropy    : 2.957893
2024-03-02 22:19:14,546 - trainer - INFO -     val_loss       : 1.206352
2024-03-02 22:19:14,546 - trainer - INFO -     val_accuracy   : 0.664841
2024-03-02 22:19:14,546 - trainer - INFO -     val_macro_f    : 0.51404
2024-03-02 22:19:14,546 - trainer - INFO -     val_doc_entropy: 2.99831
2024-04-01 17:37:52,386 - train - INFO - BiAttentionClassifyModel(
  (embedding): Embedding(84503, 300)
  (classifier): Linear(in_features=300, out_features=26, bias=True)
  (final): Linear(in_features=300, out_features=300, bias=True)
  (topic_layer): Sequential(
    (0): Linear(in_features=300, out_features=800, bias=True)
    (1): Tanh()
    (2): Linear(in_features=800, out_features=40, bias=True)
  )
  (projection): AttLayer(
    (attention): Sequential(
      (0): Linear(in_features=300, out_features=128, bias=True)
      (1): Tanh()
      (2): Linear(in_features=128, out_features=1, bias=True)
      (3): Flatten(start_dim=1, end_dim=-1)
      (4): Softmax(dim=-1)
    )
  )
)
Trainable params: 25,760,523
Freeze params: 0
2024-04-01 17:41:00,171 - trainer - INFO -     epoch          : 1
2024-04-01 17:41:00,171 - trainer - INFO -     loss           : 1.217016
2024-04-01 17:41:00,171 - trainer - INFO -     accuracy       : 0.654086
2024-04-01 17:41:00,171 - trainer - INFO -     macro_f        : 0.634204
…
2024-04-01 18:24:39,360 - trainer - INFO -     val_recall     : 0.680225
2024-04-01 18:24:39,360 - trainer - INFO -     val_doc_entropy: 2.09085
2024-04-01 18:24:39,360 - trainer - INFO -     test_loss      : 1.163438
2024-04-01 18:24:39,360 - trainer - INFO -     test_accuracy  : 0.676989
2024-04-01 18:24:39,360 - trainer - INFO -     test_macro_f   : 0.66643
2024-04-01 18:24:39,360 - trainer - INFO -     test_precision : 0.703183
2024-04-01 18:24:39,360 - trainer - INFO -     test_recall    : 0.676989
2024-04-01 18:24:39,360 - trainer - INFO -     test_doc_entropy: 2.093436
2024-04-01 18:25:28,088 - train - INFO - BiAttentionClassifyModel(
  (embedding): Embedding(84503, 300)
  (classifier): Linear(in_features=300, out_features=26, bias=True)
  (final): Linear(in_features=300, out_features=300, bias=True)
  (topic_layer): Sequential(
    (0): Linear(in_features=300, out_features=800, bias=True)
    (1): Tanh()
    (2): Linear(in_features=800, out_features=40, bias=True)
  )
  (projection): AttLayer(
    (attention): Sequential(
      (0): Linear(in_features=300, out_features=128, bias=True)
      (1): Tanh()
      (2): Linear(in_features=128, out_features=1, bias=True)
      (3): Flatten(start_dim=1, end_dim=-1)
      (4): Softmax(dim=-1)
    )
  )
)
Trainable params: 25,760,523
Freeze params: 0
2024-04-01 19:06:42,294 - train - INFO - BiAttentionClassifyModel(
  (embedding): Embedding(84503, 300)
  (classifier): Linear(in_features=300, out_features=26, bias=True)
  (final): Linear(in_features=300, out_features=300, bias=True)
  (topic_layer): Sequential(
    (0): Linear(in_features=300, out_features=400, bias=True)
    (1): Tanh()
    (2): Linear(in_features=400, out_features=20, bias=True)
  )
  (projection): AttLayer(
    (attention): Sequential(
      (0): Linear(in_features=300, out_features=128, bias=True)
      (1): Tanh()
      (2): Linear(in_features=128, out_features=1, bias=True)
      (3): Flatten(start_dim=1, end_dim=-1)
      (4): Softmax(dim=-1)
    )
  )
)
Trainable params: 25,616,103
Freeze params: 0
2024-04-01 19:09:33,801 - trainer - INFO -     epoch          : 1
2024-04-01 19:09:33,801 - trainer - INFO -     loss           : 1.211495
2024-04-01 19:09:33,801 - trainer - INFO -     accuracy       : 0.654454
2024-04-01 19:09:33,801 - trainer - INFO -     macro_f        : 0.635245
…
2024-04-01 19:15:17,243 - trainer - INFO -     val_recall     : 0.682416
2024-04-01 19:15:17,243 - trainer - INFO -     val_doc_entropy: 2.343915
2024-04-01 19:15:17,243 - trainer - INFO -     test_loss      : 1.166381
2024-04-01 19:15:17,243 - trainer - INFO -     test_accuracy  : 0.684208
2024-04-01 19:15:17,243 - trainer - INFO -     test_macro_f   : 0.677038
2024-04-01 19:15:17,243 - trainer - INFO -     test_precision : 0.717765
2024-04-01 19:15:17,243 - trainer - INFO -     test_recall    : 0.684208
2024-04-01 19:15:17,243 - trainer - INFO -     test_doc_entropy: 2.347682
2024-04-01 19:15:53,169 - train - INFO - BiAttentionClassifyModel(
  (embedding): Embedding(84503, 300)
  (classifier): Linear(in_features=300, out_features=26, bias=True)
  (final): Linear(in_features=300, out_features=300, bias=True)
  (topic_layer): Sequential(
    (0): Linear(in_features=300, out_features=400, bias=True)
    (1): Tanh()
    (2): Linear(in_features=400, out_features=20, bias=True)
  )
  (projection): AttLayer(
    (attention): Sequential(
      (0): Linear(in_features=300, out_features=128, bias=True)
      (1): Tanh()
      (2): Linear(in_features=128, out_features=1, bias=True)
      (3): Flatten(start_dim=1, end_dim=-1)
      (4): Softmax(dim=-1)
    )
  )
)
Trainable params: 25,616,103
Freeze params: 0
2024-04-01 19:18:46,160 - trainer - INFO -     epoch          : 1
2024-04-01 19:18:46,160 - trainer - INFO -     loss           : 1.211641
2024-04-01 19:18:46,160 - trainer - INFO -     accuracy       : 0.655898
2024-04-01 19:18:46,160 - trainer - INFO -     macro_f        : 0.636326
…
2024-04-01 19:54:28,785 - trainer - INFO -     val_recall     : 0.673753
2024-04-01 19:54:28,785 - trainer - INFO -     val_doc_entropy: 2.321017
2024-04-01 19:54:28,785 - trainer - INFO -     test_loss      : 1.176091
2024-04-01 19:54:28,785 - trainer - INFO -     test_accuracy  : 0.67669
2024-04-01 19:54:28,785 - trainer - INFO -     test_macro_f   : 0.670926
2024-04-01 19:54:28,785 - trainer - INFO -     test_precision : 0.714782
2024-04-01 19:54:28,785 - trainer - INFO -     test_recall    : 0.67669
2024-04-01 19:54:28,785 - trainer - INFO -     test_doc_entropy: 2.323268
2024-04-01 20:06:57,784 - train - INFO - BiAttentionClassifyModel(
  (embedding): Embedding(84503, 300)
  (classifier): Linear(in_features=300, out_features=26, bias=True)
  (final): Linear(in_features=300, out_features=300, bias=True)
  (topic_layer): Sequential(
    (0): Linear(in_features=300, out_features=1200, bias=True)
    (1): Tanh()
    (2): Linear(in_features=1200, out_features=60, bias=True)
  )
  (projection): AttLayer(
    (attention): Sequential(
      (0): Linear(in_features=300, out_features=128, bias=True)
      (1): Tanh()
      (2): Linear(in_features=128, out_features=1, bias=True)
      (3): Flatten(start_dim=1, end_dim=-1)
      (4): Softmax(dim=-1)
    )
  )
)
Trainable params: 25,920,943
Freeze params: 0
2024-04-01 20:10:00,640 - trainer - INFO -     epoch          : 1
2024-04-01 20:10:00,640 - trainer - INFO -     loss           : 1.222514
2024-04-01 20:10:00,640 - trainer - INFO -     accuracy       : 0.651697
2024-04-01 20:10:00,640 - trainer - INFO -     macro_f        : 0.631997
…
2024-04-01 21:00:04,007 - trainer - INFO -     val_recall     : 0.675894
2024-04-01 21:00:04,007 - trainer - INFO -     val_doc_entropy: 1.919921
2024-04-01 21:00:04,007 - trainer - INFO -     test_loss      : 1.169134
2024-04-01 21:00:04,008 - trainer - INFO -     test_accuracy  : 0.671911
2024-04-01 21:00:04,008 - trainer - INFO -     test_macro_f   : 0.663766
2024-04-01 21:00:04,008 - trainer - INFO -     test_precision : 0.706257
2024-04-01 21:00:04,008 - trainer - INFO -     test_recall    : 0.671911
2024-04-01 21:00:04,008 - trainer - INFO -     test_doc_entropy: 1.923122
2024-04-01 21:01:52,384 - train - INFO - BiAttentionClassifyModel(
  (embedding): Embedding(84503, 300)
  (classifier): Linear(in_features=300, out_features=26, bias=True)
  (final): Linear(in_features=300, out_features=300, bias=True)
  (topic_layer): Sequential(
    (0): Linear(in_features=300, out_features=1600, bias=True)
    (1): Tanh()
    (2): Linear(in_features=1600, out_features=80, bias=True)
  )
  (projection): AttLayer(
    (attention): Sequential(
      (0): Linear(in_features=300, out_features=128, bias=True)
      (1): Tanh()
      (2): Linear(in_features=128, out_features=1, bias=True)
      (3): Flatten(start_dim=1, end_dim=-1)
      (4): Softmax(dim=-1)
    )
  )
)
Trainable params: 26,097,363
Freeze params: 0
2024-04-01 21:06:02,408 - trainer - INFO -     epoch          : 1
2024-04-01 21:06:02,408 - trainer - INFO -     loss           : 1.232311
2024-04-01 21:06:02,409 - trainer - INFO -     accuracy       : 0.650041
2024-04-01 21:06:02,409 - trainer - INFO -     macro_f        : 0.630389
…
2024-04-01 22:01:38,804 - trainer - INFO -     val_recall     : 0.670815
2024-04-01 22:01:38,804 - trainer - INFO -     val_doc_entropy: 1.460119
2024-04-01 22:01:38,804 - trainer - INFO -     test_loss      : 1.185093
2024-04-01 22:01:38,804 - trainer - INFO -     test_accuracy  : 0.672857
2024-04-01 22:01:38,804 - trainer - INFO -     test_macro_f   : 0.664274
2024-04-01 22:01:38,804 - trainer - INFO -     test_precision : 0.703557
2024-04-01 22:01:38,804 - trainer - INFO -     test_recall    : 0.672857
2024-04-01 22:01:38,804 - trainer - INFO -     test_doc_entropy: 1.46299
2024-04-01 22:02:38,327 - train - INFO - BiAttentionClassifyModel(
  (embedding): Embedding(84503, 300)
  (classifier): Linear(in_features=300, out_features=26, bias=True)
  (final): Linear(in_features=300, out_features=300, bias=True)
  (topic_layer): Sequential(
    (0): Linear(in_features=300, out_features=2000, bias=True)
    (1): Tanh()
    (2): Linear(in_features=2000, out_features=100, bias=True)
  )
  (projection): AttLayer(
    (attention): Sequential(
      (0): Linear(in_features=300, out_features=128, bias=True)
      (1): Tanh()
      (2): Linear(in_features=128, out_features=1, bias=True)
      (3): Flatten(start_dim=1, end_dim=-1)
      (4): Softmax(dim=-1)
    )
  )
)
Trainable params: 26,289,783
Freeze params: 0
2024-04-01 22:07:03,565 - trainer - INFO -     epoch          : 1
2024-04-01 22:07:03,566 - trainer - INFO -     loss           : 1.239433
2024-04-01 22:07:03,566 - trainer - INFO -     accuracy       : 0.647564
2024-04-01 22:07:03,566 - trainer - INFO -     macro_f        : 0.62838
…
2024-04-01 23:13:11,320 - trainer - INFO -     val_recall     : 0.668625
2024-04-01 23:13:11,320 - trainer - INFO -     val_doc_entropy: 0.721123
2024-04-01 23:13:11,320 - trainer - INFO -     test_loss      : 1.194037
2024-04-01 23:13:11,336 - trainer - INFO -     test_accuracy  : 0.671313
2024-04-01 23:13:11,336 - trainer - INFO -     test_macro_f   : 0.661973
2024-04-01 23:13:11,336 - trainer - INFO -     test_precision : 0.70321
2024-04-01 23:13:11,336 - trainer - INFO -     test_recall    : 0.671313
2024-04-01 23:13:11,336 - trainer - INFO -     test_doc_entropy: 0.722005
2024-04-01 23:57:59,668 - train - INFO - BiAttentionClassifyModel(
  (embedding): Embedding(84503, 300)
  (classifier): Linear(in_features=300, out_features=26, bias=True)
  (final): Linear(in_features=300, out_features=300, bias=True)
  (topic_layer): Sequential(
    (0): Linear(in_features=300, out_features=2400, bias=True)
    (1): Tanh()
    (2): Linear(in_features=2400, out_features=120, bias=True)
  )
  (projection): AttLayer(
    (attention): Sequential(
      (0): Linear(in_features=300, out_features=128, bias=True)
      (1): Tanh()
      (2): Linear(in_features=128, out_features=1, bias=True)
      (3): Flatten(start_dim=1, end_dim=-1)
      (4): Softmax(dim=-1)
    )
  )
)
Trainable params: 26,498,203
Freeze params: 0
2024-04-02 00:01:44,443 - trainer - INFO -     epoch          : 1
2024-04-02 00:01:44,443 - trainer - INFO -     loss           : 1.250872
2024-04-02 00:01:44,443 - trainer - INFO -     accuracy       : 0.645772
2024-04-02 00:01:44,443 - trainer - INFO -     macro_f        : 0.625237
…
2024-04-02 00:57:38,526 - trainer - INFO -     val_recall     : 0.66738
2024-04-02 00:57:38,526 - trainer - INFO -     val_doc_entropy: 0.245089
2024-04-02 00:57:38,526 - trainer - INFO -     test_loss      : 1.175571
2024-04-02 00:57:38,526 - trainer - INFO -     test_accuracy  : 0.671662
2024-04-02 00:57:38,526 - trainer - INFO -     test_macro_f   : 0.665663
2024-04-02 00:57:38,526 - trainer - INFO -     test_precision : 0.709632
2024-04-02 00:57:38,526 - trainer - INFO -     test_recall    : 0.671662
2024-04-02 00:57:38,526 - trainer - INFO -     test_doc_entropy: 0.244896
2024-04-02 00:59:03,277 - train - INFO - BiAttentionClassifyModel(
  (embedding): Embedding(84503, 300)
  (classifier): Linear(in_features=300, out_features=26, bias=True)
  (final): Linear(in_features=300, out_features=300, bias=True)
  (topic_layer): Sequential(
    (0): Linear(in_features=300, out_features=2800, bias=True)
    (1): Tanh()
    (2): Linear(in_features=2800, out_features=140, bias=True)
  )
  (projection): AttLayer(
    (attention): Sequential(
      (0): Linear(in_features=300, out_features=128, bias=True)
      (1): Tanh()
      (2): Linear(in_features=128, out_features=1, bias=True)
      (3): Flatten(start_dim=1, end_dim=-1)
      (4): Softmax(dim=-1)
    )
  )
)
Trainable params: 26,722,623
Freeze params: 0
2024-04-02 01:03:02,063 - trainer - INFO -     epoch          : 1
2024-04-02 01:03:02,063 - trainer - INFO -     loss           : 1.262138
2024-04-02 01:03:02,063 - trainer - INFO -     accuracy       : 0.641359
2024-04-02 01:03:02,063 - trainer - INFO -     macro_f        : 0.621539
…
2024-04-02 02:01:59,166 - trainer - INFO -     val_recall     : 0.669621
2024-04-02 02:01:59,166 - trainer - INFO -     val_doc_entropy: 0.170165
2024-04-02 02:01:59,166 - trainer - INFO -     test_loss      : 1.17767
2024-04-02 02:01:59,166 - trainer - INFO -     test_accuracy  : 0.671562
2024-04-02 02:01:59,166 - trainer - INFO -     test_macro_f   : 0.66122
2024-04-02 02:01:59,166 - trainer - INFO -     test_precision : 0.701651
2024-04-02 02:01:59,166 - trainer - INFO -     test_recall    : 0.671562
2024-04-02 02:01:59,166 - trainer - INFO -     test_doc_entropy: 0.169616
2024-04-02 08:15:15,947 - train - INFO - BiAttentionClassifyModel(
  (embedding): Embedding(84503, 300)
  (classifier): Linear(in_features=300, out_features=26, bias=True)
  (final): Linear(in_features=300, out_features=300, bias=True)
  (topic_layer): Sequential(
    (0): Linear(in_features=300, out_features=3200, bias=True)
    (1): Tanh()
    (2): Linear(in_features=3200, out_features=160, bias=True)
  )
  (projection): AttLayer(
    (attention): Sequential(
      (0): Linear(in_features=300, out_features=128, bias=True)
      (1): Tanh()
      (2): Linear(in_features=128, out_features=1, bias=True)
      (3): Flatten(start_dim=1, end_dim=-1)
      (4): Softmax(dim=-1)
    )
  )
)
Trainable params: 26,963,043
Freeze params: 0
2024-04-02 08:19:31,775 - trainer - INFO -     epoch          : 1
2024-04-02 08:19:31,775 - trainer - INFO -     loss           : 1.268316
2024-04-02 08:19:31,775 - trainer - INFO -     accuracy       : 0.638807
2024-04-02 08:19:31,775 - trainer - INFO -     macro_f        : 0.618796
…
2024-04-02 09:24:42,282 - trainer - INFO -     val_recall     : 0.677039
2024-04-02 09:24:42,282 - trainer - INFO -     val_doc_entropy: 0.154695
2024-04-02 09:24:42,297 - trainer - INFO -     test_loss      : 1.154479
2024-04-02 09:24:42,297 - trainer - INFO -     test_accuracy  : 0.676192
2024-04-02 09:24:42,297 - trainer - INFO -     test_macro_f   : 0.666517
2024-04-02 09:24:42,297 - trainer - INFO -     test_precision : 0.705487
2024-04-02 09:24:42,297 - trainer - INFO -     test_recall    : 0.676192
2024-04-02 09:24:42,297 - trainer - INFO -     test_doc_entropy: 0.154784
2024-04-02 09:26:07,151 - train - INFO - BiAttentionClassifyModel(
  (embedding): Embedding(84503, 300)
  (classifier): Linear(in_features=300, out_features=26, bias=True)
  (final): Linear(in_features=300, out_features=300, bias=True)
  (topic_layer): Sequential(
    (0): Linear(in_features=300, out_features=3600, bias=True)
    (1): Tanh()
    (2): Linear(in_features=3600, out_features=180, bias=True)
  )
  (projection): AttLayer(
    (attention): Sequential(
      (0): Linear(in_features=300, out_features=128, bias=True)
      (1): Tanh()
      (2): Linear(in_features=128, out_features=1, bias=True)
      (3): Flatten(start_dim=1, end_dim=-1)
      (4): Softmax(dim=-1)
    )
  )
)
Trainable params: 27,219,463
Freeze params: 0
2024-04-02 09:30:50,209 - trainer - INFO -     epoch          : 1
2024-04-02 09:30:50,209 - trainer - INFO -     loss           : 1.263997
2024-04-02 09:30:50,209 - trainer - INFO -     accuracy       : 0.640656
2024-04-02 09:30:50,209 - trainer - INFO -     macro_f        : 0.620756
…
2024-04-02 10:40:45,015 - trainer - INFO -     val_recall     : 0.670865
2024-04-02 10:40:45,015 - trainer - INFO -     val_doc_entropy: 0.128993
2024-04-02 10:40:45,015 - trainer - INFO -     test_loss      : 1.160981
2024-04-02 10:40:45,015 - trainer - INFO -     test_accuracy  : 0.66987
2024-04-02 10:40:45,015 - trainer - INFO -     test_macro_f   : 0.664114
2024-04-02 10:40:45,015 - trainer - INFO -     test_precision : 0.707697
2024-04-02 10:40:45,015 - trainer - INFO -     test_recall    : 0.66987
2024-04-02 10:40:45,015 - trainer - INFO -     test_doc_entropy: 0.128799
2024-04-02 10:42:50,549 - train - INFO - BiAttentionClassifyModel(
  (embedding): Embedding(84503, 300)
  (classifier): Linear(in_features=300, out_features=26, bias=True)
  (final): Linear(in_features=300, out_features=300, bias=True)
  (topic_layer): Sequential(
    (0): Linear(in_features=300, out_features=4000, bias=True)
    (1): Tanh()
    (2): Linear(in_features=4000, out_features=200, bias=True)
  )
  (projection): AttLayer(
    (attention): Sequential(
      (0): Linear(in_features=300, out_features=128, bias=True)
      (1): Tanh()
      (2): Linear(in_features=128, out_features=1, bias=True)
      (3): Flatten(start_dim=1, end_dim=-1)
      (4): Softmax(dim=-1)
    )
  )
)
Trainable params: 27,491,883
Freeze params: 0
2024-04-02 10:47:38,221 - trainer - INFO -     epoch          : 1
2024-04-02 10:47:38,221 - trainer - INFO -     loss           : 1.271369
2024-04-02 10:47:38,221 - trainer - INFO -     accuracy       : 0.638621
2024-04-02 10:47:38,221 - trainer - INFO -     macro_f        : 0.619034
…
2024-04-06 10:49:05,396 - trainer - INFO -     val_doc_entropy: 2.103833
2024-04-06 10:49:05,396 - trainer - INFO -     test_loss      : 1.162443
2024-04-06 10:49:05,396 - trainer - INFO -     test_accuracy  : 0.678483
2024-04-06 10:49:05,396 - trainer - INFO -     test_macro_f   : 0.666766
2024-04-06 10:49:05,396 - trainer - INFO -     test_precision : 0.70257
2024-04-06 10:49:05,396 - trainer - INFO -     test_recall    : 0.678483
2024-04-06 10:49:05,396 - trainer - INFO -     test_doc_entropy: 2.108864
2024-04-06 12:37:26,142 - train - INFO - BiAttentionClassifyModel(
  (embedding): DistilBertModel(
    (embeddings): Embeddings(
      (word_embeddings): Embedding(30522, 768, padding_idx=0)
      (position_embeddings): Embedding(512, 768)
      (LayerNorm): LayerNorm((768,), eps=1e-12, elementwise_affine=True)
      (dropout): Dropout(p=0.1, inplace=False)
    )
    (transformer): Transformer(
      (layer): ModuleList(
        (0): TransformerBlock(
          (attention): MultiHeadSelfAttention(
            (dropout): Dropout(p=0.1, inplace=False)
            (q_lin): Linear(in_features=768, out_features=768, bias=True)
            (k_lin): Linear(in_features=768, out_features=768, bias=True)
            (v_lin): Linear(in_features=768, out_features=768, bias=True)
            (out_lin): Linear(in_features=768, out_features=768, bias=True)
          )
          (sa_layer_norm): LayerNorm((768,), eps=1e-12, elementwise_affine=True)
          (ffn): FFN(
            (dropout): Dropout(p=0.1, inplace=False)
            (lin1): Linear(in_features=768, out_features=3072, bias=True)
            (lin2): Linear(in_features=3072, out_features=768, bias=True)
            (activation): GELUActivation()
          )
          (output_layer_norm): LayerNorm((768,), eps=1e-12, elementwise_affine=True)
        )
      )
    )
  )
  (classifier): Linear(in_features=768, out_features=26, bias=True)
  (final): Linear(in_features=768, out_features=768, bias=True)
  (topic_layer): Sequential(
    (0): Linear(in_features=768, out_features=800, bias=True)
    (1): Tanh()
    (2): Linear(in_features=800, out_features=40, bias=True)
  )
  (projection): AttLayer(
    (attention): Sequential(
      (0): Linear(in_features=768, out_features=128, bias=True)
      (1): Tanh()
      (2): Linear(in_features=128, out_features=1, bias=True)
      (3): Flatten(start_dim=1, end_dim=-1)
      (4): Softmax(dim=-1)
    )
  )
)
Trainable params: 32,279,907
Freeze params: 0
2024-04-06 12:48:22,479 - trainer - INFO -     epoch          : 1
2024-04-06 12:48:22,479 - trainer - INFO -     loss           : 1.354896
2024-04-06 12:48:22,479 - trainer - INFO -     accuracy       : 0.624231
2024-04-06 12:48:22,479 - trainer - INFO -     macro_f        : 0.603163
…
2024-04-06 19:00:07,878 - trainer - INFO -     val_doc_entropy: 2.015901
2024-04-06 19:00:07,878 - trainer - INFO -     test_loss      : 1.021068
2024-04-06 19:00:07,878 - trainer - INFO -     test_accuracy  : 0.718958
2024-04-06 19:00:07,878 - trainer - INFO -     test_macro_f   : 0.718501
2024-04-06 19:00:07,878 - trainer - INFO -     test_precision : 0.763729
2024-04-06 19:00:07,878 - trainer - INFO -     test_recall    : 0.718958
2024-04-06 19:00:07,878 - trainer - INFO -     test_doc_entropy: 2.011156
2024-04-06 19:04:02,938 - train - INFO - BiAttentionClassifyModel(
  (embedding): RobertaModel(
    (embeddings): RobertaEmbeddings(
      (word_embeddings): Embedding(50265, 768, padding_idx=1)
      (position_embeddings): Embedding(514, 768, padding_idx=1)
      (token_type_embeddings): Embedding(1, 768)
      (LayerNorm): LayerNorm((768,), eps=1e-05, elementwise_affine=True)
      (dropout): Dropout(p=0.1, inplace=False)
    )
    (encoder): RobertaEncoder(
      (layer): ModuleList(
        (0): RobertaLayer(
          (attention): RobertaAttention(
            (self): RobertaSelfAttention(
              (query): Linear(in_features=768, out_features=768, bias=True)
              (key): Linear(in_features=768, out_features=768, bias=True)
              (value): Linear(in_features=768, out_features=768, bias=True)
              (dropout): Dropout(p=0.1, inplace=False)
            )
            (output): RobertaSelfOutput(
              (dense): Linear(in_features=768, out_features=768, bias=True)
              (LayerNorm): LayerNorm((768,), eps=1e-05, elementwise_affine=True)
              (dropout): Dropout(p=0.1, inplace=False)
            )
          )
          (intermediate): RobertaIntermediate(
            (dense): Linear(in_features=768, out_features=3072, bias=True)
            (intermediate_act_fn): GELUActivation()
          )
          (output): RobertaOutput(
            (dense): Linear(in_features=3072, out_features=768, bias=True)
            (LayerNorm): LayerNorm((768,), eps=1e-05, elementwise_affine=True)
            (dropout): Dropout(p=0.1, inplace=False)
          )
        )
      )
    )
    (pooler): RobertaPooler(
      (dense): Linear(in_features=768, out_features=768, bias=True)
      (activation): Tanh()
    )
  )
  (classifier): Linear(in_features=768, out_features=26, bias=True)
  (final): Linear(in_features=768, out_features=768, bias=True)
  (topic_layer): Sequential(
    (0): Linear(in_features=768, out_features=800, bias=True)
    (1): Tanh()
    (2): Linear(in_features=800, out_features=40, bias=True)
  )
  (projection): AttLayer(
    (attention): Sequential(
      (0): Linear(in_features=768, out_features=128, bias=True)
      (1): Tanh()
      (2): Linear(in_features=128, out_features=1, bias=True)
      (3): Flatten(start_dim=1, end_dim=-1)
      (4): Softmax(dim=-1)
    )
  )
)
Trainable params: 48,035,427
Freeze params: 0
2024-04-09 22:05:09,114 - train - INFO - BiAttentionClassifyModel(
  (embedding): Embedding(84503, 300)
  (classifier): Linear(in_features=300, out_features=26, bias=True)
  (final): Linear(in_features=300, out_features=300, bias=True)
  (topic_layer): Sequential(
    (0): Linear(in_features=300, out_features=800, bias=True)
    (1): Tanh()
    (2): Linear(in_features=800, out_features=40, bias=True)
  )
  (projection): AttLayer(
    (attention): Sequential(
      (0): Linear(in_features=300, out_features=128, bias=True)
      (1): Tanh()
      (2): Linear(in_features=128, out_features=1, bias=True)
      (3): Flatten(start_dim=1, end_dim=-1)
      (4): Softmax(dim=-1)
    )
  )
)
Trainable params: 25,760,523
Freeze params: 0
2024-04-09 22:08:25,668 - trainer - INFO -     epoch          : 1
2024-04-09 22:08:25,668 - trainer - INFO -     loss           : 1.218709
2024-04-09 22:08:25,668 - trainer - INFO -     accuracy       : 0.653315
2024-04-09 22:08:25,668 - trainer - INFO -     macro_f        : 0.633676
…
t (AMD64)]', 'platform': 'Windows-10-10.0.22631-SP0', 'event': 'created'}
2024-04-09 22:42:05,646 - gensim.topic_coherence.probability_estimation - INFO - using ParallelWordOccurrenceAccumulator<processes=11, batch_size=64> to estimate probabilities from sliding windows
2024-04-09 22:42:59,415 - gensim.topic_coherence.text_analysis - INFO - 11 accumulators retrieved from output queue
2024-04-09 22:42:59,524 - gensim.topic_coherence.text_analysis - INFO - accumulated word occurrence stats for 21620 virtual documents
2024-04-09 22:43:03,854 - train - INFO - BiAttentionClassifyModel(
  (embedding): Embedding(84503, 300)
  (classifier): Linear(in_features=300, out_features=26, bias=True)
  (final): Linear(in_features=300, out_features=300, bias=True)
  (topic_layer): Sequential(
    (0): Linear(in_features=300, out_features=800, bias=True)
    (1): Tanh()
    (2): Linear(in_features=800, out_features=40, bias=True)
  )
  (projection): AttLayer(
    (attention): Sequential(
      (0): Linear(in_features=300, out_features=128, bias=True)
      (1): Tanh()
      (2): Linear(in_features=128, out_features=1, bias=True)
      (3): Flatten(start_dim=1, end_dim=-1)
      (4): Softmax(dim=-1)
    )
  )
)
Trainable params: 25,760,523
Freeze params: 0
2024-04-27 17:26:20,488 - train - INFO - BiAttentionClassifyModel(
  (embedding): RobertaModel(
    (embeddings): RobertaEmbeddings(
      (word_embeddings): Embedding(50265, 768, padding_idx=1)
      (position_embeddings): Embedding(514, 768, padding_idx=1)
      (token_type_embeddings): Embedding(1, 768)
      (LayerNorm): LayerNorm((768,), eps=1e-05, elementwise_affine=True)
      (dropout): Dropout(p=0.1, inplace=False)
    )
    (encoder): RobertaEncoder(
      (layer): ModuleList(
        (0): RobertaLayer(
          (attention): RobertaAttention(
            (self): RobertaSelfAttention(
              (query): Linear(in_features=768, out_features=768, bias=True)
              (key): Linear(in_features=768, out_features=768, bias=True)
              (value): Linear(in_features=768, out_features=768, bias=True)
              (dropout): Dropout(p=0.1, inplace=False)
            )
            (output): RobertaSelfOutput(
              (dense): Linear(in_features=768, out_features=768, bias=True)
              (LayerNorm): LayerNorm((768,), eps=1e-05, elementwise_affine=True)
              (dropout): Dropout(p=0.1, inplace=False)
            )
          )
          (intermediate): RobertaIntermediate(
            (dense): Linear(in_features=768, out_features=3072, bias=True)
            (intermediate_act_fn): GELUActivation()
          )
          (output): RobertaOutput(
            (dense): Linear(in_features=3072, out_features=768, bias=True)
            (LayerNorm): LayerNorm((768,), eps=1e-05, elementwise_affine=True)
            (dropout): Dropout(p=0.1, inplace=False)
          )
        )
      )
    )
    (pooler): RobertaPooler(
      (dense): Linear(in_features=768, out_features=768, bias=True)
      (activation): Tanh()
    )
  )
  (classifier): Linear(in_features=768, out_features=26, bias=True)
  (final): Linear(in_features=768, out_features=768, bias=True)
  (topic_layer): Sequential(
    (0): Linear(in_features=768, out_features=800, bias=True)
    (1): Tanh()
    (2): Linear(in_features=800, out_features=40, bias=True)
  )
  (projection): AttLayer(
    (attention): Sequential(
      (0): Linear(in_features=768, out_features=128, bias=True)
      (1): Tanh()
      (2): Linear(in_features=128, out_features=1, bias=True)
      (3): Flatten(start_dim=1, end_dim=-1)
      (4): Softmax(dim=-1)
    )
  )
)
Trainable params: 48,035,427
Freeze params: 0
2024-04-27 17:38:20,856 - trainer - INFO -     epoch          : 1
2024-04-27 17:38:20,856 - trainer - INFO -     loss           : 1.190042
2024-04-27 17:38:20,856 - trainer - INFO -     accuracy       : 0.658095
2024-04-27 17:38:20,856 - trainer - INFO -     macro_f        : 0.636703
…
2024-04-27 18:02:43,332 - trainer - INFO -     val_doc_entropy: 2.258008
2024-04-27 18:02:43,332 - trainer - INFO -     test_loss      : 0.976036
2024-04-27 18:02:43,332 - trainer - INFO -     test_accuracy  : 0.72334
2024-04-27 18:02:43,332 - trainer - INFO -     test_macro_f   : 0.719352
2024-04-27 18:02:43,332 - trainer - INFO -     test_precision : 0.761126
2024-04-27 18:02:43,332 - trainer - INFO -     test_recall    : 0.72334
2024-04-27 18:02:43,332 - trainer - INFO -     test_doc_entropy: 2.254934
2024-04-27 18:04:01,400 - train - INFO - BiAttentionClassifyModel(
  (embedding): RobertaModel(
    (embeddings): RobertaEmbeddings(
      (word_embeddings): Embedding(50265, 768, padding_idx=1)
      (position_embeddings): Embedding(514, 768, padding_idx=1)
      (token_type_embeddings): Embedding(1, 768)
      (LayerNorm): LayerNorm((768,), eps=1e-05, elementwise_affine=True)
      (dropout): Dropout(p=0.1, inplace=False)
    )
    (encoder): RobertaEncoder(
      (layer): ModuleList(
        (0): RobertaLayer(
          (attention): RobertaAttention(
            (self): RobertaSelfAttention(
              (query): Linear(in_features=768, out_features=768, bias=True)
              (key): Linear(in_features=768, out_features=768, bias=True)
              (value): Linear(in_features=768, out_features=768, bias=True)
              (dropout): Dropout(p=0.1, inplace=False)
            )
            (output): RobertaSelfOutput(
              (dense): Linear(in_features=768, out_features=768, bias=True)
              (LayerNorm): LayerNorm((768,), eps=1e-05, elementwise_affine=True)
              (dropout): Dropout(p=0.1, inplace=False)
            )
          )
          (intermediate): RobertaIntermediate(
            (dense): Linear(in_features=768, out_features=3072, bias=True)
            (intermediate_act_fn): GELUActivation()
          )
          (output): RobertaOutput(
            (dense): Linear(in_features=3072, out_features=768, bias=True)
            (LayerNorm): LayerNorm((768,), eps=1e-05, elementwise_affine=True)
            (dropout): Dropout(p=0.1, inplace=False)
          )
        )
      )
    )
    (pooler): RobertaPooler(
      (dense): Linear(in_features=768, out_features=768, bias=True)
      (activation): Tanh()
    )
  )
  (classifier): Linear(in_features=768, out_features=26, bias=True)
  (final): Linear(in_features=768, out_features=768, bias=True)
  (topic_layer): Sequential(
    (0): Linear(in_features=768, out_features=800, bias=True)
    (1): Tanh()
    (2): Linear(in_features=800, out_features=40, bias=True)
  )
  (projection): AttLayer(
    (attention): Sequential(
      (0): Linear(in_features=768, out_features=128, bias=True)
      (1): Tanh()
      (2): Linear(in_features=128, out_features=1, bias=True)
      (3): Flatten(start_dim=1, end_dim=-1)
      (4): Softmax(dim=-1)
    )
  )
)
Trainable params: 48,035,427
Freeze params: 0
2024-04-27 18:16:19,726 - trainer - INFO -     epoch          : 1
2024-04-27 18:16:20,586 - trainer - INFO -     loss           : 1.193257
2024-04-27 18:16:20,586 - trainer - INFO -     accuracy       : 0.656788
2024-04-27 18:16:20,586 - trainer - INFO -     macro_f        : 0.635895
…
2024-04-27 20:52:20,141 - trainer - INFO -     val_recall     : 0.725281
2024-04-27 20:52:20,141 - trainer - INFO -     val_doc_entropy: 2.229994
2024-04-27 20:52:20,141 - trainer - INFO -     test_loss      : 0.977417
2024-04-27 20:52:20,145 - trainer - INFO -     test_accuracy  : 0.725729
2024-04-27 20:52:20,145 - trainer - INFO -     test_macro_f   : 0.719725
2024-04-27 20:52:20,145 - trainer - INFO -     test_precision : 0.758319
2024-04-27 20:52:20,145 - trainer - INFO -     test_recall    : 0.725729
2024-04-27 20:52:20,145 - trainer - INFO -     test_doc_entropy: 2.222329
2024-04-29 13:54:52,647 - train - INFO - BiAttentionClassifyModel(
  (embedding): Embedding(84503, 300)
  (classifier): Linear(in_features=300, out_features=26, bias=True)
  (final): Linear(in_features=300, out_features=300, bias=True)
  (topic_layer): Sequential(
    (0): Linear(in_features=300, out_features=800, bias=True)
    (1): Tanh()
    (2): Linear(in_features=800, out_features=40, bias=True)
  )
  (rnn): GRUWithAttention(
    (gru): GRU(300, 300)
    (lstm): LSTM(300, 300)
  )
  (W_k): Linear(in_features=300, out_features=40, bias=False)
  (W_q): Linear(in_features=300, out_features=40, bias=False)
  (W_v): Linear(in_features=300, out_features=40, bias=False)
  (droputout1): Dropout(p=0.2, inplace=False)
  (pooling): MaxPool1d(kernel_size=3, stride=1, padding=1, dilation=1, ceil_mode=False)
  (add_norm1): AddNorm(
    (dropout1): Dropout(p=0.2, inplace=False)
    (dropout2): Dropout(p=0.2, inplace=False)
    (ln): LayerNorm((40, 100), eps=1e-05, elementwise_affine=True)
  )
  (projection): AttLayer(
    (attention): Sequential(
      (0): Linear(in_features=300, out_features=64, bias=True)
      (1): Tanh()
      (2): Linear(in_features=64, out_features=1, bias=True)
      (3): Flatten(start_dim=1, end_dim=-1)
      (4): Softmax(dim=-1)
    )
  )
)
Trainable params: 27,049,395
Freeze params: 0
2024-04-29 13:55:16,310 - train - INFO - BiAttentionClassifyModel(
  (embedding): Embedding(84503, 300)
  (classifier): Linear(in_features=300, out_features=26, bias=True)
  (final): Linear(in_features=300, out_features=300, bias=True)
  (topic_layer): Sequential(
    (0): Linear(in_features=300, out_features=800, bias=True)
    (1): Tanh()
    (2): Linear(in_features=800, out_features=40, bias=True)
  )
  (rnn): GRUWithAttention(
    (gru): GRU(300, 300)
    (lstm): LSTM(300, 300)
  )
  (W_k): Linear(in_features=300, out_features=40, bias=False)
  (W_q): Linear(in_features=300, out_features=40, bias=False)
  (W_v): Linear(in_features=300, out_features=40, bias=False)
  (droputout1): Dropout(p=0.2, inplace=False)
  (pooling): MaxPool1d(kernel_size=3, stride=1, padding=1, dilation=1, ceil_mode=False)
  (add_norm1): AddNorm(
    (dropout1): Dropout(p=0.2, inplace=False)
    (dropout2): Dropout(p=0.2, inplace=False)
    (ln): LayerNorm((40, 100), eps=1e-05, elementwise_affine=True)
  )
  (projection): AttLayer(
    (attention): Sequential(
      (0): Linear(in_features=300, out_features=64, bias=True)
      (1): Tanh()
      (2): Linear(in_features=64, out_features=1, bias=True)
      (3): Flatten(start_dim=1, end_dim=-1)
      (4): Softmax(dim=-1)
    )
  )
)
Trainable params: 27,049,395
Freeze params: 0
2024-04-29 13:56:02,902 - train - INFO - BiAttentionClassifyModel(
  (embedding): Embedding(84503, 300)
  (classifier): Linear(in_features=300, out_features=26, bias=True)
  (final): Linear(in_features=300, out_features=300, bias=True)
  (topic_layer): Sequential(
    (0): Linear(in_features=300, out_features=400, bias=True)
    (1): Tanh()
    (2): Linear(in_features=400, out_features=20, bias=True)
  )
  (rnn): GRUWithAttention(
    (gru): GRU(300, 300)
    (lstm): LSTM(300, 300)
  )
  (W_k): Linear(in_features=300, out_features=20, bias=False)
  (W_q): Linear(in_features=300, out_features=20, bias=False)
  (W_v): Linear(in_features=300, out_features=20, bias=False)
  (droputout1): Dropout(p=0.2, inplace=False)
  (pooling): MaxPool1d(kernel_size=3, stride=1, padding=1, dilation=1, ceil_mode=False)
  (add_norm1): AddNorm(
    (dropout1): Dropout(p=0.2, inplace=False)
    (dropout2): Dropout(p=0.2, inplace=False)
    (ln): LayerNorm((20, 100), eps=1e-05, elementwise_affine=True)
  )
  (projection): AttLayer(
    (attention): Sequential(
      (0): Linear(in_features=300, out_features=64, bias=True)
      (1): Tanh()
      (2): Linear(in_features=64, out_features=1, bias=True)
      (3): Flatten(start_dim=1, end_dim=-1)
      (4): Softmax(dim=-1)
    )
  )
)
Trainable params: 26,882,975
Freeze params: 0
2024-04-29 13:59:48,686 - trainer - INFO -     epoch          : 1
2024-04-29 13:59:48,686 - trainer - INFO -     loss           : 1.156639
2024-04-29 13:59:48,686 - trainer - INFO -     accuracy       : 0.668214
2024-04-29 13:59:48,686 - trainer - INFO -     macro_f        : 0.64952
…
2024-04-29 13:59:48,686 - trainer - INFO -     val_recall     : 0.700388
2024-04-29 13:59:48,686 - trainer - INFO -     val_doc_entropy: 2.81034
2024-04-29 13:59:48,686 - trainer - INFO -     test_loss      : 1.010235
2024-04-29 13:59:48,686 - trainer - INFO -     test_accuracy  : 0.703674
2024-04-29 13:59:48,686 - trainer - INFO -     test_macro_f   : 0.691504
2024-04-29 13:59:48,686 - trainer - INFO -     test_precision : 0.723031
2024-04-29 13:59:48,686 - trainer - INFO -     test_recall    : 0.703674
2024-04-29 13:59:48,686 - trainer - INFO -     test_doc_entropy: 2.813979
2024-04-29 14:03:52,886 - train - INFO - BiAttentionClassifyModel(
  (embedding): Embedding(84503, 300)
  (classifier): Linear(in_features=300, out_features=26, bias=True)
  (final): Linear(in_features=300, out_features=300, bias=True)
  (topic_layer): Sequential(
    (0): Linear(in_features=300, out_features=400, bias=True)
    (1): Tanh()
    (2): Linear(in_features=400, out_features=20, bias=True)
  )
  (rnn): GRUWithAttention(
    (gru): GRU(300, 300)
    (lstm): LSTM(300, 300)
  )
  (W_k): Linear(in_features=300, out_features=20, bias=False)
  (W_q): Linear(in_features=300, out_features=20, bias=False)
  (W_v): Linear(in_features=300, out_features=20, bias=False)
  (droputout1): Dropout(p=0.2, inplace=False)
  (pooling): MaxPool1d(kernel_size=3, stride=1, padding=1, dilation=1, ceil_mode=False)
  (add_norm1): AddNorm(
    (dropout1): Dropout(p=0.2, inplace=False)
    (dropout2): Dropout(p=0.2, inplace=False)
    (ln): LayerNorm((20, 100), eps=1e-05, elementwise_affine=True)
  )
  (projection): AttLayer(
    (attention): Sequential(
      (0): Linear(in_features=300, out_features=64, bias=True)
      (1): Tanh()
      (2): Linear(in_features=64, out_features=1, bias=True)
      (3): Flatten(start_dim=1, end_dim=-1)
      (4): Softmax(dim=-1)
    )
  )
)
Trainable params: 26,882,975
Freeze params: 0
2024-04-29 14:07:50,117 - trainer - INFO -     epoch          : 1
2024-04-29 14:07:50,117 - trainer - INFO -     loss           : 1.156639
2024-04-29 14:07:50,117 - trainer - INFO -     accuracy       : 0.668214
2024-04-29 14:07:50,117 - trainer - INFO -     macro_f        : 0.64952
…
2024-04-29 15:08:21,130 - trainer - INFO -     val_recall     : 0.6976
2024-04-29 15:08:21,130 - trainer - INFO -     val_doc_entropy: 2.732404
2024-04-29 15:08:21,131 - trainer - INFO -     test_loss      : 1.076951
2024-04-29 15:08:21,131 - trainer - INFO -     test_accuracy  : 0.701235
2024-04-29 15:08:21,131 - trainer - INFO -     test_macro_f   : 0.694672
2024-04-29 15:08:21,131 - trainer - INFO -     test_precision : 0.733213
2024-04-29 15:08:21,131 - trainer - INFO -     test_recall    : 0.701235
2024-04-29 15:08:21,132 - trainer - INFO -     test_doc_entropy: 2.735013
2024-04-29 15:16:09,221 - train - INFO - BiAttentionClassifyModel(
  (embedding): Embedding(84503, 300)
  (classifier): Linear(in_features=300, out_features=26, bias=True)
  (final): Linear(in_features=300, out_features=300, bias=True)
  (topic_layer): Sequential(
    (0): Linear(in_features=300, out_features=800, bias=True)
    (1): Tanh()
    (2): Linear(in_features=800, out_features=40, bias=True)
  )
  (rnn): GRUWithAttention(
    (gru): GRU(300, 300)
    (lstm): LSTM(300, 300)
  )
  (W_k): Linear(in_features=300, out_features=40, bias=False)
  (W_q): Linear(in_features=300, out_features=40, bias=False)
  (W_v): Linear(in_features=300, out_features=40, bias=False)
  (droputout1): Dropout(p=0.2, inplace=False)
  (pooling): MaxPool1d(kernel_size=3, stride=1, padding=1, dilation=1, ceil_mode=False)
  (add_norm1): AddNorm(
    (dropout1): Dropout(p=0.2, inplace=False)
    (dropout2): Dropout(p=0.2, inplace=False)
    (ln): LayerNorm((40, 100), eps=1e-05, elementwise_affine=True)
  )
  (projection): AttLayer(
    (attention): Sequential(
      (0): Linear(in_features=300, out_features=64, bias=True)
      (1): Tanh()
      (2): Linear(in_features=64, out_features=1, bias=True)
      (3): Flatten(start_dim=1, end_dim=-1)
      (4): Softmax(dim=-1)
    )
  )
)
Trainable params: 27,049,395
Freeze params: 0
2024-04-29 15:19:55,723 - trainer - INFO -     epoch          : 1
2024-04-29 15:19:55,723 - trainer - INFO -     loss           : 1.15599
2024-04-29 15:19:55,723 - trainer - INFO -     accuracy       : 0.668252
2024-04-29 15:19:55,723 - trainer - INFO -     macro_f        : 0.64976
…
2024-04-29 15:58:04,269 - trainer - INFO -     val_recall     : 0.704919
2024-04-29 15:58:04,269 - trainer - INFO -     val_doc_entropy: 2.790222
2024-04-29 15:58:04,269 - trainer - INFO -     test_loss      : 0.984703
2024-04-29 15:58:04,269 - trainer - INFO -     test_accuracy  : 0.710495
2024-04-29 15:58:04,269 - trainer - INFO -     test_macro_f   : 0.704288
2024-04-29 15:58:04,269 - trainer - INFO -     test_precision : 0.744216
2024-04-29 15:58:04,269 - trainer - INFO -     test_recall    : 0.710495
2024-04-29 15:58:04,269 - trainer - INFO -     test_doc_entropy: 2.792723
2024-04-29 16:16:25,477 - train - INFO - BiAttentionClassifyModel(
  (embedding): Embedding(84503, 300)
  (classifier): Linear(in_features=300, out_features=26, bias=True)
  (final): Linear(in_features=300, out_features=300, bias=True)
  (topic_layer): Sequential(
    (0): Linear(in_features=300, out_features=1200, bias=True)
    (1): Tanh()
    (2): Linear(in_features=1200, out_features=60, bias=True)
  )
  (rnn): GRUWithAttention(
    (gru): GRU(300, 300)
    (lstm): LSTM(300, 300)
  )
  (W_k): Linear(in_features=300, out_features=60, bias=False)
  (W_q): Linear(in_features=300, out_features=60, bias=False)
  (W_v): Linear(in_features=300, out_features=60, bias=False)
  (droputout1): Dropout(p=0.2, inplace=False)
  (pooling): MaxPool1d(kernel_size=3, stride=1, padding=1, dilation=1, ceil_mode=False)
  (add_norm1): AddNorm(
    (dropout1): Dropout(p=0.2, inplace=False)
    (dropout2): Dropout(p=0.2, inplace=False)
    (ln): LayerNorm((60, 100), eps=1e-05, elementwise_affine=True)
  )
  (projection): AttLayer(
    (attention): Sequential(
      (0): Linear(in_features=300, out_features=64, bias=True)
      (1): Tanh()
      (2): Linear(in_features=64, out_features=1, bias=True)
      (3): Flatten(start_dim=1, end_dim=-1)
      (4): Softmax(dim=-1)
    )
  )
)
Trainable params: 27,231,815
Freeze params: 0
2024-04-29 16:20:03,676 - trainer - INFO -     epoch          : 1
2024-04-29 16:20:03,676 - trainer - INFO -     loss           : 1.150206
2024-04-29 16:20:03,676 - trainer - INFO -     accuracy       : 0.669615
2024-04-29 16:20:03,676 - trainer - INFO -     macro_f        : 0.651119
…
2024-04-29 16:58:05,128 - trainer - INFO -     val_recall     : 0.712138
2024-04-29 16:58:05,128 - trainer - INFO -     val_doc_entropy: 2.780648
2024-04-29 16:58:05,128 - trainer - INFO -     test_loss      : 0.978813
2024-04-29 16:58:05,128 - trainer - INFO -     test_accuracy  : 0.710296
2024-04-29 16:58:05,128 - trainer - INFO -     test_macro_f   : 0.700579
2024-04-29 16:58:05,128 - trainer - INFO -     test_precision : 0.736115
2024-04-29 16:58:05,128 - trainer - INFO -     test_recall    : 0.710296
2024-04-29 16:58:05,128 - trainer - INFO -     test_doc_entropy: 2.784881
2024-04-29 16:59:25,489 - train - INFO - BiAttentionClassifyModel(
  (embedding): Embedding(84503, 300)
  (classifier): Linear(in_features=300, out_features=26, bias=True)
  (final): Linear(in_features=300, out_features=300, bias=True)
  (topic_layer): Sequential(
    (0): Linear(in_features=300, out_features=1600, bias=True)
    (1): Tanh()
    (2): Linear(in_features=1600, out_features=80, bias=True)
  )
  (rnn): GRUWithAttention(
    (gru): GRU(300, 300)
    (lstm): LSTM(300, 300)
  )
  (W_k): Linear(in_features=300, out_features=80, bias=False)
  (W_q): Linear(in_features=300, out_features=80, bias=False)
  (W_v): Linear(in_features=300, out_features=80, bias=False)
  (droputout1): Dropout(p=0.2, inplace=False)
  (pooling): MaxPool1d(kernel_size=3, stride=1, padding=1, dilation=1, ceil_mode=False)
  (add_norm1): AddNorm(
    (dropout1): Dropout(p=0.2, inplace=False)
    (dropout2): Dropout(p=0.2, inplace=False)
    (ln): LayerNorm((80, 100), eps=1e-05, elementwise_affine=True)
  )
  (projection): AttLayer(
    (attention): Sequential(
      (0): Linear(in_features=300, out_features=64, bias=True)
      (1): Tanh()
      (2): Linear(in_features=64, out_features=1, bias=True)
      (3): Flatten(start_dim=1, end_dim=-1)
      (4): Softmax(dim=-1)
    )
  )
)
Trainable params: 27,430,235
Freeze params: 0
2024-04-29 17:03:21,887 - trainer - INFO -     epoch          : 1
2024-04-29 17:03:21,887 - trainer - INFO -     loss           : 1.144408
2024-04-29 17:03:21,887 - trainer - INFO -     accuracy       : 0.671264
2024-04-29 17:03:21,887 - trainer - INFO -     macro_f        : 0.653353
…
2024-04-29 17:41:49,567 - trainer - INFO -     val_recall     : 0.70925
2024-04-29 17:41:49,567 - trainer - INFO -     val_doc_entropy: 2.829087
2024-04-29 17:41:49,567 - trainer - INFO -     test_loss      : 0.991113
2024-04-29 17:41:49,567 - trainer - INFO -     test_accuracy  : 0.714428
2024-04-29 17:41:49,567 - trainer - INFO -     test_macro_f   : 0.706366
2024-04-29 17:41:49,567 - trainer - INFO -     test_precision : 0.745048
2024-04-29 17:41:49,567 - trainer - INFO -     test_recall    : 0.714428
2024-04-29 17:41:49,567 - trainer - INFO -     test_doc_entropy: 2.833145
2024-04-29 17:55:01,960 - train - INFO - BiAttentionClassifyModel(
  (embedding): Embedding(84503, 300)
  (classifier): Linear(in_features=300, out_features=26, bias=True)
  (final): Linear(in_features=300, out_features=300, bias=True)
  (topic_layer): Sequential(
    (0): Linear(in_features=300, out_features=2000, bias=True)
    (1): Tanh()
    (2): Linear(in_features=2000, out_features=100, bias=True)
  )
  (rnn): GRUWithAttention(
    (gru): GRU(300, 300)
    (lstm): LSTM(300, 300)
  )
  (W_k): Linear(in_features=300, out_features=100, bias=False)
  (W_q): Linear(in_features=300, out_features=100, bias=False)
  (W_v): Linear(in_features=300, out_features=100, bias=False)
  (droputout1): Dropout(p=0.2, inplace=False)
  (pooling): MaxPool1d(kernel_size=3, stride=1, padding=1, dilation=1, ceil_mode=False)
  (add_norm1): AddNorm(
    (dropout1): Dropout(p=0.2, inplace=False)
    (dropout2): Dropout(p=0.2, inplace=False)
    (ln): LayerNorm((100, 100), eps=1e-05, elementwise_affine=True)
  )
  (projection): AttLayer(
    (attention): Sequential(
      (0): Linear(in_features=300, out_features=64, bias=True)
      (1): Tanh()
      (2): Linear(in_features=64, out_features=1, bias=True)
      (3): Flatten(start_dim=1, end_dim=-1)
      (4): Softmax(dim=-1)
    )
  )
)
Trainable params: 27,644,655
Freeze params: 0
2024-04-29 17:58:43,420 - trainer - INFO -     epoch          : 1
2024-04-29 17:58:43,420 - trainer - INFO -     loss           : 1.142736
2024-04-29 17:58:43,420 - trainer - INFO -     accuracy       : 0.672204
2024-04-29 17:58:43,420 - trainer - INFO -     macro_f        : 0.654896
…
2024-04-29 18:36:26,605 - trainer - INFO -     val_recall     : 0.708553
2024-04-29 18:36:26,605 - trainer - INFO -     val_doc_entropy: 2.838069
2024-04-29 18:36:26,605 - trainer - INFO -     test_loss      : 0.98765
2024-04-29 18:36:26,605 - trainer - INFO -     test_accuracy  : 0.710893
2024-04-29 18:36:26,605 - trainer - INFO -     test_macro_f   : 0.701088
2024-04-29 18:36:26,605 - trainer - INFO -     test_precision : 0.736576
2024-04-29 18:36:26,605 - trainer - INFO -     test_recall    : 0.710893
2024-04-29 18:36:26,605 - trainer - INFO -     test_doc_entropy: 2.84139
2024-04-29 19:14:42,812 - train - INFO - BiAttentionClassifyModel(
  (embedding): Embedding(84503, 300)
  (classifier): Linear(in_features=300, out_features=26, bias=True)
  (final): Linear(in_features=300, out_features=300, bias=True)
  (topic_layer): Sequential(
    (0): Linear(in_features=300, out_features=1800, bias=True)
    (1): Tanh()
    (2): Linear(in_features=1800, out_features=90, bias=True)
  )
  (rnn): GRUWithAttention(
    (gru): GRU(300, 300)
    (lstm): LSTM(300, 300)
  )
  (W_k): Linear(in_features=300, out_features=90, bias=False)
  (W_q): Linear(in_features=300, out_features=90, bias=False)
  (W_v): Linear(in_features=300, out_features=90, bias=False)
  (droputout1): Dropout(p=0.2, inplace=False)
  (pooling): MaxPool1d(kernel_size=3, stride=1, padding=1, dilation=1, ceil_mode=False)
  (add_norm1): AddNorm(
    (dropout1): Dropout(p=0.2, inplace=False)
    (dropout2): Dropout(p=0.2, inplace=False)
    (ln): LayerNorm((90, 100), eps=1e-05, elementwise_affine=True)
  )
  (projection): AttLayer(
    (attention): Sequential(
      (0): Linear(in_features=300, out_features=64, bias=True)
      (1): Tanh()
      (2): Linear(in_features=64, out_features=1, bias=True)
      (3): Flatten(start_dim=1, end_dim=-1)
      (4): Softmax(dim=-1)
    )
  )
)
Trainable params: 27,535,445
Freeze params: 0
2024-04-29 19:18:22,347 - trainer - INFO -     epoch          : 1
2024-04-29 19:18:22,347 - trainer - INFO -     loss           : 1.1449
2024-04-29 19:18:22,347 - trainer - INFO -     accuracy       : 0.669888
2024-04-29 19:18:22,347 - trainer - INFO -     macro_f        : 0.651934
…
2024-04-29 20:15:09,322 - trainer - INFO -     val_recall     : 0.711839
2024-04-29 20:15:09,322 - trainer - INFO -     val_doc_entropy: 2.843267
2024-04-29 20:15:09,322 - trainer - INFO -     test_loss      : 0.989562
2024-04-29 20:15:09,322 - trainer - INFO -     test_accuracy  : 0.71174
2024-04-29 20:15:09,322 - trainer - INFO -     test_macro_f   : 0.701865
2024-04-29 20:15:09,322 - trainer - INFO -     test_precision : 0.738114
2024-04-29 20:15:09,322 - trainer - INFO -     test_recall    : 0.71174
2024-04-29 20:15:09,322 - trainer - INFO -     test_doc_entropy: 2.847348
2024-04-29 20:21:01,322 - train - INFO - BiAttentionClassifyModel(
  (embedding): Embedding(84503, 300)
  (classifier): Linear(in_features=300, out_features=26, bias=True)
  (final): Linear(in_features=300, out_features=300, bias=True)
  (topic_layer): Sequential(
    (0): Linear(in_features=300, out_features=1400, bias=True)
    (1): Tanh()
    (2): Linear(in_features=1400, out_features=70, bias=True)
  )
  (rnn): GRUWithAttention(
    (gru): GRU(300, 300)
    (lstm): LSTM(300, 300)
  )
  (W_k): Linear(in_features=300, out_features=70, bias=False)
  (W_q): Linear(in_features=300, out_features=70, bias=False)
  (W_v): Linear(in_features=300, out_features=70, bias=False)
  (droputout1): Dropout(p=0.2, inplace=False)
  (pooling): MaxPool1d(kernel_size=3, stride=1, padding=1, dilation=1, ceil_mode=False)
  (add_norm1): AddNorm(
    (dropout1): Dropout(p=0.2, inplace=False)
    (dropout2): Dropout(p=0.2, inplace=False)
    (ln): LayerNorm((70, 100), eps=1e-05, elementwise_affine=True)
  )
  (projection): AttLayer(
    (attention): Sequential(
      (0): Linear(in_features=300, out_features=64, bias=True)
      (1): Tanh()
      (2): Linear(in_features=64, out_features=1, bias=True)
      (3): Flatten(start_dim=1, end_dim=-1)
      (4): Softmax(dim=-1)
    )
  )
)
Trainable params: 27,329,025
Freeze params: 0
2024-04-29 20:24:42,349 - trainer - INFO -     epoch          : 1
2024-04-29 20:24:42,349 - trainer - INFO -     loss           : 1.145633
2024-04-29 20:24:42,349 - trainer - INFO -     accuracy       : 0.670361
2024-04-29 20:24:42,349 - trainer - INFO -     macro_f        : 0.652829
…
2024-04-29 21:02:24,662 - trainer - INFO -     val_recall     : 0.70701
2024-04-29 21:02:24,662 - trainer - INFO -     val_doc_entropy: 2.803227
2024-04-29 21:02:24,662 - trainer - INFO -     test_loss      : 0.99163
2024-04-29 21:02:24,662 - trainer - INFO -     test_accuracy  : 0.708703
2024-04-29 21:02:24,662 - trainer - INFO -     test_macro_f   : 0.702414
2024-04-29 21:02:24,662 - trainer - INFO -     test_precision : 0.743008
2024-04-29 21:02:24,662 - trainer - INFO -     test_recall    : 0.708703
2024-04-29 21:02:24,662 - trainer - INFO -     test_doc_entropy: 2.80763
2024-04-29 21:10:26,658 - train - INFO - BiAttentionClassifyModel(
  (embedding): Embedding(84503, 300)
  (classifier): Linear(in_features=300, out_features=26, bias=True)
  (final): Linear(in_features=300, out_features=300, bias=True)
  (topic_layer): Sequential(
    (0): Linear(in_features=300, out_features=1000, bias=True)
    (1): Tanh()
    (2): Linear(in_features=1000, out_features=50, bias=True)
  )
  (rnn): GRUWithAttention(
    (gru): GRU(300, 300)
    (lstm): LSTM(300, 300)
  )
  (W_k): Linear(in_features=300, out_features=50, bias=False)
  (W_q): Linear(in_features=300, out_features=50, bias=False)
  (W_v): Linear(in_features=300, out_features=50, bias=False)
  (droputout1): Dropout(p=0.2, inplace=False)
  (pooling): MaxPool1d(kernel_size=3, stride=1, padding=1, dilation=1, ceil_mode=False)
  (add_norm1): AddNorm(
    (dropout1): Dropout(p=0.2, inplace=False)
    (dropout2): Dropout(p=0.2, inplace=False)
    (ln): LayerNorm((50, 100), eps=1e-05, elementwise_affine=True)
  )
  (projection): AttLayer(
    (attention): Sequential(
      (0): Linear(in_features=300, out_features=64, bias=True)
      (1): Tanh()
      (2): Linear(in_features=64, out_features=1, bias=True)
      (3): Flatten(start_dim=1, end_dim=-1)
      (4): Softmax(dim=-1)
    )
  )
)
Trainable params: 27,138,605
Freeze params: 0
2024-04-29 21:14:04,851 - trainer - INFO -     epoch          : 1
2024-04-29 21:14:04,851 - trainer - INFO -     loss           : 1.147329
2024-04-29 21:14:04,851 - trainer - INFO -     accuracy       : 0.670007
2024-04-29 21:14:04,851 - trainer - INFO -     macro_f        : 0.652282
…
2024-04-29 21:51:29,193 - trainer - INFO -     val_recall     : 0.710545
2024-04-29 21:51:29,208 - trainer - INFO -     val_doc_entropy: 2.739803
2024-04-29 21:51:29,208 - trainer - INFO -     test_loss      : 0.998203
2024-04-29 21:51:29,208 - trainer - INFO -     test_accuracy  : 0.709748
2024-04-29 21:51:29,208 - trainer - INFO -     test_macro_f   : 0.700237
2024-04-29 21:51:29,208 - trainer - INFO -     test_precision : 0.737662
2024-04-29 21:51:29,208 - trainer - INFO -     test_recall    : 0.709748
2024-04-29 21:51:29,208 - trainer - INFO -     test_doc_entropy: 2.742816
2024-04-29 21:52:20,359 - train - INFO - BiAttentionClassifyModel(
  (embedding): Embedding(84503, 300)
  (classifier): Linear(in_features=300, out_features=26, bias=True)
  (final): Linear(in_features=300, out_features=300, bias=True)
  (topic_layer): Sequential(
    (0): Linear(in_features=300, out_features=600, bias=True)
    (1): Tanh()
    (2): Linear(in_features=600, out_features=30, bias=True)
  )
  (rnn): GRUWithAttention(
    (gru): GRU(300, 300)
    (lstm): LSTM(300, 300)
  )
  (W_k): Linear(in_features=300, out_features=30, bias=False)
  (W_q): Linear(in_features=300, out_features=30, bias=False)
  (W_v): Linear(in_features=300, out_features=30, bias=False)
  (droputout1): Dropout(p=0.2, inplace=False)
  (pooling): MaxPool1d(kernel_size=3, stride=1, padding=1, dilation=1, ceil_mode=False)
  (add_norm1): AddNorm(
    (dropout1): Dropout(p=0.2, inplace=False)
    (dropout2): Dropout(p=0.2, inplace=False)
    (ln): LayerNorm((30, 100), eps=1e-05, elementwise_affine=True)
  )
  (projection): AttLayer(
    (attention): Sequential(
      (0): Linear(in_features=300, out_features=64, bias=True)
      (1): Tanh()
      (2): Linear(in_features=64, out_features=1, bias=True)
      (3): Flatten(start_dim=1, end_dim=-1)
      (4): Softmax(dim=-1)
    )
  )
)
Trainable params: 26,964,185
Freeze params: 0
2024-04-29 21:56:08,090 - trainer - INFO -     epoch          : 1
2024-04-29 21:56:08,090 - trainer - INFO -     loss           : 1.153703
2024-04-29 21:56:08,090 - trainer - INFO -     accuracy       : 0.66875
2024-04-29 21:56:08,090 - trainer - INFO -     macro_f        : 0.650436
…
2024-04-29 22:33:20,432 - trainer - INFO -     val_recall     : 0.712138
2024-04-29 22:33:20,432 - trainer - INFO -     val_doc_entropy: 2.719796
2024-04-29 22:33:20,432 - trainer - INFO -     test_loss      : 0.997137
2024-04-29 22:33:20,432 - trainer - INFO -     test_accuracy  : 0.710346
2024-04-29 22:33:20,432 - trainer - INFO -     test_macro_f   : 0.699773
2024-04-29 22:33:20,432 - trainer - INFO -     test_precision : 0.734534
2024-04-29 22:33:20,432 - trainer - INFO -     test_recall    : 0.710346
2024-04-29 22:33:20,432 - trainer - INFO -     test_doc_entropy: 2.723463
2024-04-29 22:35:52,116 - train - INFO - BiAttentionClassifyModel(
  (embedding): Embedding(84503, 300)
  (classifier): Linear(in_features=300, out_features=26, bias=True)
  (final): Linear(in_features=300, out_features=300, bias=True)
  (topic_layer): Sequential(
    (0): Linear(in_features=300, out_features=200, bias=True)
    (1): Tanh()
    (2): Linear(in_features=200, out_features=10, bias=True)
  )
  (rnn): GRUWithAttention(
    (gru): GRU(300, 300)
    (lstm): LSTM(300, 300)
  )
  (W_k): Linear(in_features=300, out_features=10, bias=False)
  (W_q): Linear(in_features=300, out_features=10, bias=False)
  (W_v): Linear(in_features=300, out_features=10, bias=False)
  (droputout1): Dropout(p=0.2, inplace=False)
  (pooling): MaxPool1d(kernel_size=3, stride=1, padding=1, dilation=1, ceil_mode=False)
  (add_norm1): AddNorm(
    (dropout1): Dropout(p=0.2, inplace=False)
    (dropout2): Dropout(p=0.2, inplace=False)
    (ln): LayerNorm((10, 100), eps=1e-05, elementwise_affine=True)
  )
  (projection): AttLayer(
    (attention): Sequential(
      (0): Linear(in_features=300, out_features=64, bias=True)
      (1): Tanh()
      (2): Linear(in_features=64, out_features=1, bias=True)
      (3): Flatten(start_dim=1, end_dim=-1)
      (4): Softmax(dim=-1)
    )
  )
)
Trainable params: 26,805,765
Freeze params: 0
2024-04-29 22:39:35,755 - trainer - INFO -     epoch          : 1
2024-04-29 22:39:35,755 - trainer - INFO -     loss           : 1.166238
2024-04-29 22:39:35,755 - trainer - INFO -     accuracy       : 0.666192
2024-04-29 22:39:35,755 - trainer - INFO -     macro_f        : 0.647309
…
2024-04-29 23:17:16,744 - trainer - INFO -     val_recall     : 0.704769
2024-04-29 23:17:16,744 - trainer - INFO -     val_doc_entropy: 2.848858
2024-04-29 23:17:16,744 - trainer - INFO -     test_loss      : 1.003289
2024-04-29 23:17:16,744 - trainer - INFO -     test_accuracy  : 0.706313
2024-04-29 23:17:16,744 - trainer - INFO -     test_macro_f   : 0.69883
2024-04-29 23:17:16,744 - trainer - INFO -     test_precision : 0.739913
2024-04-29 23:17:16,744 - trainer - INFO -     test_recall    : 0.706313
2024-04-29 23:17:16,744 - trainer - INFO -     test_doc_entropy: 2.854178
2024-04-30 04:43:08,826 - train - INFO - BiAttentionClassifyModel(
  (embedding): Embedding(84503, 300)
  (classifier): Linear(in_features=300, out_features=26, bias=True)
  (final): Linear(in_features=300, out_features=300, bias=True)
  (topic_layer): Sequential(
    (0): Linear(in_features=300, out_features=800, bias=True)
    (1): Tanh()
    (2): Linear(in_features=800, out_features=40, bias=True)
  )
  (rnn): GRUWithAttention(
    (gru): GRU(300, 300)
    (lstm): LSTM(300, 300)
  )
  (W_k): Linear(in_features=300, out_features=40, bias=False)
  (W_q): Linear(in_features=300, out_features=40, bias=False)
  (W_v): Linear(in_features=300, out_features=40, bias=False)
  (droputout1): Dropout(p=0.2, inplace=False)
  (pooling): MaxPool1d(kernel_size=3, stride=1, padding=1, dilation=1, ceil_mode=False)
  (add_norm1): AddNorm(
    (dropout1): Dropout(p=0.2, inplace=False)
    (dropout2): Dropout(p=0.2, inplace=False)
    (ln): LayerNorm((40, 256), eps=1e-05, elementwise_affine=True)
  )
  (projection): AttLayer(
    (attention): Sequential(
      (0): Linear(in_features=300, out_features=64, bias=True)
      (1): Tanh()
      (2): Linear(in_features=64, out_features=1, bias=True)
      (3): Flatten(start_dim=1, end_dim=-1)
      (4): Softmax(dim=-1)
    )
  )
)
Trainable params: 27,061,875
Freeze params: 0
2024-04-30 04:43:51,615 - train - INFO - BiAttentionClassifyModel(
  (embedding): Embedding(84503, 300)
  (classifier): Linear(in_features=300, out_features=26, bias=True)
  (final): Linear(in_features=300, out_features=300, bias=True)
  (topic_layer): Sequential(
    (0): Linear(in_features=300, out_features=800, bias=True)
    (1): Tanh()
    (2): Linear(in_features=800, out_features=40, bias=True)
  )
  (rnn): GRUWithAttention(
    (gru): GRU(300, 300)
    (lstm): LSTM(300, 300)
  )
  (W_k): Linear(in_features=300, out_features=40, bias=False)
  (W_q): Linear(in_features=300, out_features=40, bias=False)
  (W_v): Linear(in_features=300, out_features=40, bias=False)
  (droputout1): Dropout(p=0.2, inplace=False)
  (pooling): MaxPool1d(kernel_size=3, stride=1, padding=1, dilation=1, ceil_mode=False)
  (add_norm1): AddNorm(
    (dropout1): Dropout(p=0.2, inplace=False)
    (dropout2): Dropout(p=0.2, inplace=False)
    (ln): LayerNorm((40, 100), eps=1e-05, elementwise_affine=True)
  )
  (projection): AttLayer(
    (attention): Sequential(
      (0): Linear(in_features=300, out_features=64, bias=True)
      (1): Tanh()
      (2): Linear(in_features=64, out_features=1, bias=True)
      (3): Flatten(start_dim=1, end_dim=-1)
      (4): Softmax(dim=-1)
    )
  )
)
Trainable params: 27,049,395
Freeze params: 0
2024-04-30 04:47:41,744 - trainer - INFO -     epoch          : 1
2024-04-30 04:47:41,744 - trainer - INFO -     loss           : 1.155993
2024-04-30 04:47:41,744 - trainer - INFO -     accuracy       : 0.668256
2024-04-30 04:47:41,744 - trainer - INFO -     macro_f        : 0.649765
…
2024-04-30 04:47:41,744 - trainer - INFO -     val_recall     : 0.705616
2024-04-30 04:47:41,744 - trainer - INFO -     val_doc_entropy: 2.884072
2024-04-30 04:47:41,744 - trainer - INFO -     test_loss      : 1.006344
2024-04-30 04:47:41,744 - trainer - INFO -     test_accuracy  : 0.703674
2024-04-30 04:47:41,744 - trainer - INFO -     test_macro_f   : 0.692064
2024-04-30 04:47:41,744 - trainer - INFO -     test_precision : 0.724954
2024-04-30 04:47:41,744 - trainer - INFO -     test_recall    : 0.703674
2024-04-30 04:47:41,744 - trainer - INFO -     test_doc_entropy: 2.885702
2024-04-30 04:48:42,918 - train - INFO - BiAttentionClassifyModel(
  (embedding): Embedding(84503, 300)
  (classifier): Linear(in_features=300, out_features=26, bias=True)
  (final): Linear(in_features=300, out_features=300, bias=True)
  (topic_layer): Sequential(
    (0): Linear(in_features=300, out_features=800, bias=True)
    (1): Tanh()
    (2): Linear(in_features=800, out_features=40, bias=True)
  )
  (rnn): RNNBase(
    (attn): Linear(in_features=300, out_features=1, bias=True)
  )
  (W_k): Linear(in_features=300, out_features=40, bias=False)
  (W_q): Linear(in_features=300, out_features=40, bias=False)
  (W_v): Linear(in_features=300, out_features=40, bias=False)
  (droputout1): Dropout(p=0.2, inplace=False)
  (pooling): MaxPool1d(kernel_size=3, stride=1, padding=1, dilation=1, ceil_mode=False)
  (add_norm1): AddNorm(
    (dropout1): Dropout(p=0.2, inplace=False)
    (dropout2): Dropout(p=0.2, inplace=False)
    (ln): LayerNorm((40, 100), eps=1e-05, elementwise_affine=True)
  )
  (projection): AttLayer(
    (attention): Sequential(
      (0): Linear(in_features=300, out_features=64, bias=True)
      (1): Tanh()
      (2): Linear(in_features=64, out_features=1, bias=True)
      (3): Flatten(start_dim=1, end_dim=-1)
      (4): Softmax(dim=-1)
    )
  )
)
Trainable params: 25,785,496
Freeze params: 0
2024-04-30 04:58:20,392 - train - INFO - BiAttentionClassifyModel(
  (embedding): Embedding(84503, 300)
  (classifier): Linear(in_features=300, out_features=26, bias=True)
  (final): Linear(in_features=300, out_features=300, bias=True)
  (topic_layer): Sequential(
    (0): Linear(in_features=300, out_features=800, bias=True)
    (1): Tanh()
    (2): Linear(in_features=800, out_features=40, bias=True)
  )
  (rnn): RNNBase(
    (attn): Linear(in_features=300, out_features=1, bias=True)
  )
  (W_k): Linear(in_features=300, out_features=40, bias=False)
  (W_q): Linear(in_features=300, out_features=40, bias=False)
  (W_v): Linear(in_features=300, out_features=40, bias=False)
  (droputout1): Dropout(p=0.2, inplace=False)
  (pooling): MaxPool1d(kernel_size=3, stride=1, padding=1, dilation=1, ceil_mode=False)
  (add_norm1): AddNorm(
    (dropout1): Dropout(p=0.2, inplace=False)
    (dropout2): Dropout(p=0.2, inplace=False)
    (ln): LayerNorm((40, 100), eps=1e-05, elementwise_affine=True)
  )
  (projection): AttLayer(
    (attention): Sequential(
      (0): Linear(in_features=300, out_features=64, bias=True)
      (1): Tanh()
      (2): Linear(in_features=64, out_features=1, bias=True)
      (3): Flatten(start_dim=1, end_dim=-1)
      (4): Softmax(dim=-1)
    )
  )
)
Trainable params: 25,785,496
Freeze params: 0
2024-04-30 12:51:37,773 - train - INFO - BiAttentionClassifyModel(
  (embedding): Embedding(84503, 300)
  (classifier): Linear(in_features=300, out_features=26, bias=True)
  (final): Linear(in_features=300, out_features=300, bias=True)
  (topic_layer): Sequential(
    (0): Linear(in_features=300, out_features=2400, bias=True)
    (1): Tanh()
    (2): Linear(in_features=2400, out_features=120, bias=True)
  )
  (rnn): GRUWithAttention(
    (gru): GRU(300, 300)
    (lstm): LSTM(300, 300)
  )
  (W_k): Linear(in_features=300, out_features=120, bias=False)
  (W_q): Linear(in_features=300, out_features=120, bias=False)
  (W_v): Linear(in_features=300, out_features=120, bias=False)
  (droputout1): Dropout(p=0.2, inplace=False)
  (pooling): MaxPool1d(kernel_size=3, stride=1, padding=1, dilation=1, ceil_mode=False)
  (add_norm1): AddNorm(
    (dropout1): Dropout(p=0.2, inplace=False)
    (dropout2): Dropout(p=0.2, inplace=False)
    (ln): LayerNorm((120, 100), eps=1e-05, elementwise_affine=True)
  )
  (projection): AttLayer(
    (attention): Sequential(
      (0): Linear(in_features=300, out_features=64, bias=True)
      (1): Tanh()
      (2): Linear(in_features=64, out_features=1, bias=True)
      (3): Flatten(start_dim=1, end_dim=-1)
      (4): Softmax(dim=-1)
    )
  )
)
Trainable params: 27,875,075
Freeze params: 0
2024-04-30 12:55:41,800 - trainer - INFO -     epoch          : 1
2024-04-30 12:55:41,800 - trainer - INFO -     loss           : 1.142683
2024-04-30 12:55:41,800 - trainer - INFO -     accuracy       : 0.67104
2024-04-30 12:55:41,800 - trainer - INFO -     macro_f        : 0.652863
…
2024-04-30 12:59:37,625 - trainer - INFO -     val_recall     : 0.708454
2024-04-30 12:59:37,625 - trainer - INFO -     val_doc_entropy: 2.806715
2024-04-30 12:59:37,625 - trainer - INFO -     test_loss      : 0.999762
2024-04-30 12:59:37,625 - trainer - INFO -     test_accuracy  : 0.7093
2024-04-30 12:59:37,625 - trainer - INFO -     test_macro_f   : 0.697436
2024-04-30 12:59:37,625 - trainer - INFO -     test_precision : 0.730876
2024-04-30 12:59:37,625 - trainer - INFO -     test_recall    : 0.7093
2024-04-30 12:59:37,625 - trainer - INFO -     test_doc_entropy: 2.809384
2024-04-30 13:00:16,696 - train - INFO - BiAttentionClassifyModel(
  (embedding): Embedding(84503, 300)
  (classifier): Linear(in_features=300, out_features=26, bias=True)
  (final): Linear(in_features=300, out_features=300, bias=True)
  (topic_layer): Sequential(
    (0): Linear(in_features=300, out_features=2400, bias=True)
    (1): Tanh()
    (2): Linear(in_features=2400, out_features=120, bias=True)
  )
  (rnn): GRUWithAttention(
    (gru): GRU(300, 300)
    (lstm): LSTM(300, 300)
  )
  (W_k): Linear(in_features=300, out_features=120, bias=False)
  (W_q): Linear(in_features=300, out_features=120, bias=False)
  (W_v): Linear(in_features=300, out_features=120, bias=False)
  (droputout1): Dropout(p=0.2, inplace=False)
  (pooling): MaxPool1d(kernel_size=3, stride=1, padding=1, dilation=1, ceil_mode=False)
  (add_norm1): AddNorm(
    (dropout1): Dropout(p=0.2, inplace=False)
    (dropout2): Dropout(p=0.2, inplace=False)
    (ln): LayerNorm((120, 100), eps=1e-05, elementwise_affine=True)
  )
  (projection): AttLayer(
    (attention): Sequential(
      (0): Linear(in_features=300, out_features=64, bias=True)
      (1): Tanh()
      (2): Linear(in_features=64, out_features=1, bias=True)
      (3): Flatten(start_dim=1, end_dim=-1)
      (4): Softmax(dim=-1)
    )
  )
)
Trainable params: 27,875,075
Freeze params: 0
2024-04-30 13:04:06,064 - trainer - INFO -     epoch          : 1
2024-04-30 13:04:06,064 - trainer - INFO -     loss           : 1.145607
2024-04-30 13:04:06,064 - trainer - INFO -     accuracy       : 0.670081
2024-04-30 13:04:06,064 - trainer - INFO -     macro_f        : 0.65248
…
2024-04-30 13:34:11,479 - trainer - INFO -     val_recall     : 0.716021
2024-04-30 13:34:11,479 - trainer - INFO -     val_doc_entropy: 2.820874
2024-04-30 13:34:11,479 - trainer - INFO -     test_loss      : 0.983766
2024-04-30 13:34:11,494 - trainer - INFO -     test_accuracy  : 0.710644
2024-04-30 13:34:11,494 - trainer - INFO -     test_macro_f   : 0.69951
2024-04-30 13:34:11,494 - trainer - INFO -     test_precision : 0.73343
2024-04-30 13:34:11,494 - trainer - INFO -     test_recall    : 0.710644
2024-04-30 13:34:11,494 - trainer - INFO -     test_doc_entropy: 2.824347
2024-04-30 13:35:29,872 - train - INFO - BiAttentionClassifyModel(
  (embedding): Embedding(84503, 300)
  (classifier): Linear(in_features=300, out_features=26, bias=True)
  (final): Linear(in_features=300, out_features=300, bias=True)
  (topic_layer): Sequential(
    (0): Linear(in_features=300, out_features=2800, bias=True)
    (1): Tanh()
    (2): Linear(in_features=2800, out_features=140, bias=True)
  )
  (rnn): GRUWithAttention(
    (gru): GRU(300, 300)
    (lstm): LSTM(300, 300)
  )
  (W_k): Linear(in_features=300, out_features=140, bias=False)
  (W_q): Linear(in_features=300, out_features=140, bias=False)
  (W_v): Linear(in_features=300, out_features=140, bias=False)
  (droputout1): Dropout(p=0.2, inplace=False)
  (pooling): MaxPool1d(kernel_size=3, stride=1, padding=1, dilation=1, ceil_mode=False)
  (add_norm1): AddNorm(
    (dropout1): Dropout(p=0.2, inplace=False)
    (dropout2): Dropout(p=0.2, inplace=False)
    (ln): LayerNorm((140, 100), eps=1e-05, elementwise_affine=True)
  )
  (projection): AttLayer(
    (attention): Sequential(
      (0): Linear(in_features=300, out_features=64, bias=True)
      (1): Tanh()
      (2): Linear(in_features=64, out_features=1, bias=True)
      (3): Flatten(start_dim=1, end_dim=-1)
      (4): Softmax(dim=-1)
    )
  )
)
Trainable params: 28,121,495
Freeze params: 0
2024-04-30 13:39:33,293 - trainer - INFO -     epoch          : 1
2024-04-30 13:39:33,293 - trainer - INFO -     loss           : 1.14423
2024-04-30 13:39:33,293 - trainer - INFO -     accuracy       : 0.671146
2024-04-30 13:39:33,293 - trainer - INFO -     macro_f        : 0.653112
…
2024-04-30 14:18:47,254 - trainer - INFO -     val_recall     : 0.712287
2024-04-30 14:18:47,254 - trainer - INFO -     val_doc_entropy: 2.849603
2024-04-30 14:18:47,254 - trainer - INFO -     test_loss      : 0.992547
2024-04-30 14:18:47,254 - trainer - INFO -     test_accuracy  : 0.709997
2024-04-30 14:18:47,254 - trainer - INFO -     test_macro_f   : 0.698841
2024-04-30 14:18:47,254 - trainer - INFO -     test_precision : 0.734938
2024-04-30 14:18:47,254 - trainer - INFO -     test_recall    : 0.709997
2024-04-30 14:18:47,254 - trainer - INFO -     test_doc_entropy: 2.853266
2024-04-30 14:21:42,005 - train - INFO - BiAttentionClassifyModel(
  (embedding): Embedding(84503, 300)
  (classifier): Linear(in_features=300, out_features=26, bias=True)
  (final): Linear(in_features=300, out_features=300, bias=True)
  (topic_layer): Sequential(
    (0): Linear(in_features=300, out_features=3200, bias=True)
    (1): Tanh()
    (2): Linear(in_features=3200, out_features=160, bias=True)
  )
  (rnn): GRUWithAttention(
    (gru): GRU(300, 300)
    (lstm): LSTM(300, 300)
  )
  (W_k): Linear(in_features=300, out_features=160, bias=False)
  (W_q): Linear(in_features=300, out_features=160, bias=False)
  (W_v): Linear(in_features=300, out_features=160, bias=False)
  (droputout1): Dropout(p=0.2, inplace=False)
  (pooling): MaxPool1d(kernel_size=3, stride=1, padding=1, dilation=1, ceil_mode=False)
  (add_norm1): AddNorm(
    (dropout1): Dropout(p=0.2, inplace=False)
    (dropout2): Dropout(p=0.2, inplace=False)
    (ln): LayerNorm((160, 100), eps=1e-05, elementwise_affine=True)
  )
  (projection): AttLayer(
    (attention): Sequential(
      (0): Linear(in_features=300, out_features=64, bias=True)
      (1): Tanh()
      (2): Linear(in_features=64, out_features=1, bias=True)
      (3): Flatten(start_dim=1, end_dim=-1)
      (4): Softmax(dim=-1)
    )
  )
)
Trainable params: 28,383,915
Freeze params: 0
2024-04-30 14:25:39,987 - trainer - INFO -     epoch          : 1
2024-04-30 14:25:39,987 - trainer - INFO -     loss           : 1.143736
2024-04-30 14:25:39,987 - trainer - INFO -     accuracy       : 0.670523
2024-04-30 14:25:39,987 - trainer - INFO -     macro_f        : 0.652576
…
2024-04-30 15:05:00,858 - trainer - INFO -     val_recall     : 0.710993
2024-04-30 15:05:00,858 - trainer - INFO -     val_doc_entropy: 2.862237
2024-04-30 15:05:00,858 - trainer - INFO -     test_loss      : 0.984492
2024-04-30 15:05:00,858 - trainer - INFO -     test_accuracy  : 0.714627
2024-04-30 15:05:00,858 - trainer - INFO -     test_macro_f   : 0.705621
2024-04-30 15:05:00,858 - trainer - INFO -     test_precision : 0.742323
2024-04-30 15:05:00,858 - trainer - INFO -     test_recall    : 0.714627
2024-04-30 15:05:00,858 - trainer - INFO -     test_doc_entropy: 2.86673
2024-04-30 23:12:34,927 - train - INFO - BiAttentionClassifyModel(
  (embedding): Embedding(84503, 300)
  (classifier): Linear(in_features=300, out_features=26, bias=True)
  (final): Linear(in_features=300, out_features=300, bias=True)
  (topic_layer): Sequential(
    (0): Linear(in_features=300, out_features=1200, bias=True)
    (1): Tanh()
    (2): Linear(in_features=1200, out_features=60, bias=True)
  )
  (rnn): RNNBase(
    (attn): Linear(in_features=300, out_features=1, bias=True)
  )
  (W_k): Linear(in_features=300, out_features=60, bias=False)
  (W_q): Linear(in_features=300, out_features=60, bias=False)
  (W_v): Linear(in_features=300, out_features=60, bias=False)
  (droputout1): Dropout(p=0.2, inplace=False)
  (pooling): MaxPool1d(kernel_size=3, stride=1, padding=1, dilation=1, ceil_mode=False)
  (add_norm1): AddNorm(
    (dropout1): Dropout(p=0.2, inplace=False)
    (dropout2): Dropout(p=0.2, inplace=False)
    (ln): LayerNorm((60, 100), eps=1e-05, elementwise_affine=True)
  )
  (projection): AttLayer(
    (attention): Sequential(
      (0): Linear(in_features=300, out_features=64, bias=True)
      (1): Tanh()
      (2): Linear(in_features=64, out_features=1, bias=True)
      (3): Flatten(start_dim=1, end_dim=-1)
      (4): Softmax(dim=-1)
    )
  )
)
Trainable params: 25,967,916
Freeze params: 0
2024-04-30 23:24:21,096 - trainer - INFO -     epoch          : 1
2024-04-30 23:24:21,096 - trainer - INFO -     loss           : 1.203802
2024-04-30 23:24:21,096 - trainer - INFO -     accuracy       : 0.658609
2024-04-30 23:24:21,096 - trainer - INFO -     macro_f        : 0.638494
…
2024-05-01 00:36:13,612 - trainer - INFO -     val_recall     : 0.699193
2024-05-01 00:36:13,612 - trainer - INFO -     val_doc_entropy: 2.804968
2024-05-01 00:36:13,612 - trainer - INFO -     test_loss      : 1.079281
2024-05-01 00:36:13,612 - trainer - INFO -     test_accuracy  : 0.69775
2024-05-01 00:36:13,612 - trainer - INFO -     test_macro_f   : 0.690348
2024-05-01 00:36:13,612 - trainer - INFO -     test_precision : 0.732374
2024-05-01 00:36:13,612 - trainer - INFO -     test_recall    : 0.69775
2024-05-01 00:36:13,612 - trainer - INFO -     test_doc_entropy: 2.807056
2024-05-01 00:36:50,391 - train - INFO - BiAttentionClassifyModel(
  (embedding): Embedding(84503, 300)
  (classifier): Linear(in_features=300, out_features=26, bias=True)
  (final): Linear(in_features=300, out_features=300, bias=True)
  (topic_layer): Sequential(
    (0): Linear(in_features=300, out_features=800, bias=True)
    (1): Tanh()
    (2): Linear(in_features=800, out_features=40, bias=True)
  )
  (rnn): GRUWithAttention(
    (gru): GRU(300, 300)
    (lstm): LSTM(300, 300)
  )
  (W_k): Linear(in_features=300, out_features=40, bias=False)
  (W_q): Linear(in_features=300, out_features=40, bias=False)
  (W_v): Linear(in_features=300, out_features=40, bias=False)
  (droputout1): Dropout(p=0.2, inplace=False)
  (pooling): MaxPool1d(kernel_size=3, stride=1, padding=1, dilation=1, ceil_mode=False)
  (add_norm1): AddNorm(
    (dropout1): Dropout(p=0.2, inplace=False)
    (dropout2): Dropout(p=0.2, inplace=False)
    (ln): LayerNorm((40, 100), eps=1e-05, elementwise_affine=True)
  )
  (projection): AttLayer(
    (attention): Sequential(
      (0): Linear(in_features=300, out_features=64, bias=True)
      (1): Tanh()
      (2): Linear(in_features=64, out_features=1, bias=True)
      (3): Flatten(start_dim=1, end_dim=-1)
      (4): Softmax(dim=-1)
    )
  )
)
Trainable params: 27,049,395
Freeze params: 0
2024-05-01 00:38:57,092 - train - INFO - BiAttentionClassifyModel(
  (embedding): Embedding(84503, 300)
  (classifier): Linear(in_features=300, out_features=26, bias=True)
  (final): Linear(in_features=300, out_features=300, bias=True)
  (topic_layer): Sequential(
    (0): Linear(in_features=300, out_features=800, bias=True)
    (1): Tanh()
    (2): Linear(in_features=800, out_features=40, bias=True)
  )
  (rnn): GRUWithAttention(
    (gru): GRU(300, 300)
    (lstm): LSTM(300, 300)
  )
  (W_k): Linear(in_features=300, out_features=40, bias=False)
  (W_q): Linear(in_features=300, out_features=40, bias=False)
  (W_v): Linear(in_features=300, out_features=40, bias=False)
  (droputout1): Dropout(p=0.2, inplace=False)
  (pooling): MaxPool1d(kernel_size=3, stride=1, padding=1, dilation=1, ceil_mode=False)
  (add_norm1): AddNorm(
    (dropout1): Dropout(p=0.2, inplace=False)
    (dropout2): Dropout(p=0.2, inplace=False)
    (ln): LayerNorm((40, 100), eps=1e-05, elementwise_affine=True)
  )
  (projection): AttLayer(
    (attention): Sequential(
      (0): Linear(in_features=300, out_features=64, bias=True)
      (1): Tanh()
      (2): Linear(in_features=64, out_features=1, bias=True)
      (3): Flatten(start_dim=1, end_dim=-1)
      (4): Softmax(dim=-1)
    )
  )
)
Trainable params: 27,049,395
Freeze params: 0
2024-05-01 00:42:51,327 - trainer - INFO -     epoch          : 1
2024-05-01 00:42:51,327 - trainer - INFO -     loss           : 1.153318
2024-05-01 00:42:51,327 - trainer - INFO -     accuracy       : 0.668557
2024-05-01 00:42:51,327 - trainer - INFO -     macro_f        : 0.650026
…
2024-05-01 01:18:22,922 - trainer - INFO -     val_recall     : 0.706811
2024-05-01 01:18:22,922 - trainer - INFO -     val_doc_entropy: 2.808447
2024-05-01 01:18:22,922 - trainer - INFO -     test_loss      : 0.994319
2024-05-01 01:18:22,922 - trainer - INFO -     test_accuracy  : 0.705616
2024-05-01 01:18:22,922 - trainer - INFO -     test_macro_f   : 0.696916
2024-05-01 01:18:22,922 - trainer - INFO -     test_precision : 0.735738
2024-05-01 01:18:22,922 - trainer - INFO -     test_recall    : 0.705616
2024-05-01 01:18:22,922 - trainer - INFO -     test_doc_entropy: 2.809426
2024-05-01 01:19:04,450 - train - INFO - BiAttentionClassifyModel(
  (embedding): Embedding(84503, 300)
  (classifier): Linear(in_features=300, out_features=26, bias=True)
  (final): Linear(in_features=300, out_features=300, bias=True)
  (topic_layer): Sequential(
    (0): Linear(in_features=300, out_features=800, bias=True)
    (1): Tanh()
    (2): Linear(in_features=800, out_features=40, bias=True)
  )
  (rnn): GRUWithAttention(
    (gru): GRU(300, 300)
    (lstm): LSTM(300, 300)
  )
  (W_k): Linear(in_features=300, out_features=40, bias=False)
  (W_q): Linear(in_features=300, out_features=40, bias=False)
  (W_v): Linear(in_features=300, out_features=40, bias=False)
  (droputout1): Dropout(p=0.2, inplace=False)
  (pooling): MaxPool1d(kernel_size=3, stride=1, padding=1, dilation=1, ceil_mode=False)
  (add_norm1): AddNorm(
    (dropout1): Dropout(p=0.2, inplace=False)
    (dropout2): Dropout(p=0.2, inplace=False)
    (ln): LayerNorm((40, 100), eps=1e-05, elementwise_affine=True)
  )
  (projection): AttLayer(
    (attention): Sequential(
      (0): Linear(in_features=300, out_features=64, bias=True)
      (1): Tanh()
      (2): Linear(in_features=64, out_features=1, bias=True)
      (3): Flatten(start_dim=1, end_dim=-1)
      (4): Softmax(dim=-1)
    )
  )
)
Trainable params: 27,049,395
Freeze params: 0
2024-05-01 01:30:43,733 - train - INFO - BiAttentionClassifyModel(
  (embedding): BertModel(
    (embeddings): BertEmbeddings(
      (word_embeddings): Embedding(30522, 768, padding_idx=0)
      (position_embeddings): Embedding(512, 768)
      (token_type_embeddings): Embedding(2, 768)
      (LayerNorm): LayerNorm((768,), eps=1e-12, elementwise_affine=True)
      (dropout): Dropout(p=0.1, inplace=False)
    )
    (encoder): BertEncoder(
      (layer): ModuleList(
        (0): BertLayer(
          (attention): BertAttention(
            (self): BertSelfAttention(
              (query): Linear(in_features=768, out_features=768, bias=True)
              (key): Linear(in_features=768, out_features=768, bias=True)
              (value): Linear(in_features=768, out_features=768, bias=True)
              (dropout): Dropout(p=0.1, inplace=False)
            )
            (output): BertSelfOutput(
              (dense): Linear(in_features=768, out_features=768, bias=True)
              (LayerNorm): LayerNorm((768,), eps=1e-12, elementwise_affine=True)
              (dropout): Dropout(p=0.1, inplace=False)
            )
          )
          (intermediate): BertIntermediate(
            (dense): Linear(in_features=768, out_features=3072, bias=True)
            (intermediate_act_fn): GELUActivation()
          )
          (output): BertOutput(
            (dense): Linear(in_features=3072, out_features=768, bias=True)
            (LayerNorm): LayerNorm((768,), eps=1e-12, elementwise_affine=True)
            (dropout): Dropout(p=0.1, inplace=False)
          )
        )
      )
    )
    (pooler): BertPooler(
      (dense): Linear(in_features=768, out_features=768, bias=True)
      (activation): Tanh()
    )
  )
  (classifier): Linear(in_features=768, out_features=26, bias=True)
  (final): Linear(in_features=768, out_features=768, bias=True)
  (topic_layer): Sequential(
    (0): Linear(in_features=768, out_features=1000, bias=True)
    (1): Tanh()
    (2): Linear(in_features=1000, out_features=50, bias=True)
  )
  (rnn): GRUWithAttention(
    (gru): GRU(768, 768)
    (lstm): LSTM(768, 768)
  )
  (W_k): Linear(in_features=768, out_features=50, bias=False)
  (W_q): Linear(in_features=768, out_features=50, bias=False)
  (W_v): Linear(in_features=768, out_features=50, bias=False)
  (droputout1): Dropout(p=0.2, inplace=False)
  (pooling): MaxPool1d(kernel_size=3, stride=1, padding=1, dilation=1, ceil_mode=False)
  (add_norm1): AddNorm(
    (dropout1): Dropout(p=0.2, inplace=False)
    (dropout2): Dropout(p=0.2, inplace=False)
    (ln): LayerNorm((50, 100), eps=1e-05, elementwise_affine=True)
  )
  (projection): AttLayer(
    (attention): Sequential(
      (0): Linear(in_features=768, out_features=64, bias=True)
      (1): Tanh()
      (2): Linear(in_features=64, out_features=1, bias=True)
      (3): Flatten(start_dim=1, end_dim=-1)
      (4): Softmax(dim=-1)
    )
  )
)
Trainable params: 41,388,053
Freeze params: 0
2024-05-01 01:33:43,747 - train - INFO - BiAttentionClassifyModel(
  (embedding): BertModel(
    (embeddings): BertEmbeddings(
      (word_embeddings): Embedding(30522, 768, padding_idx=0)
      (position_embeddings): Embedding(512, 768)
      (token_type_embeddings): Embedding(2, 768)
      (LayerNorm): LayerNorm((768,), eps=1e-12, elementwise_affine=True)
      (dropout): Dropout(p=0.1, inplace=False)
    )
    (encoder): BertEncoder(
      (layer): ModuleList(
        (0): BertLayer(
          (attention): BertAttention(
            (self): BertSelfAttention(
              (query): Linear(in_features=768, out_features=768, bias=True)
              (key): Linear(in_features=768, out_features=768, bias=True)
              (value): Linear(in_features=768, out_features=768, bias=True)
              (dropout): Dropout(p=0.1, inplace=False)
            )
            (output): BertSelfOutput(
              (dense): Linear(in_features=768, out_features=768, bias=True)
              (LayerNorm): LayerNorm((768,), eps=1e-12, elementwise_affine=True)
              (dropout): Dropout(p=0.1, inplace=False)
            )
          )
          (intermediate): BertIntermediate(
            (dense): Linear(in_features=768, out_features=3072, bias=True)
            (intermediate_act_fn): GELUActivation()
          )
          (output): BertOutput(
            (dense): Linear(in_features=3072, out_features=768, bias=True)
            (LayerNorm): LayerNorm((768,), eps=1e-12, elementwise_affine=True)
            (dropout): Dropout(p=0.1, inplace=False)
          )
        )
      )
    )
    (pooler): BertPooler(
      (dense): Linear(in_features=768, out_features=768, bias=True)
      (activation): Tanh()
    )
  )
  (classifier): Linear(in_features=768, out_features=26, bias=True)
  (final): Linear(in_features=768, out_features=768, bias=True)
  (topic_layer): Sequential(
    (0): Linear(in_features=768, out_features=1000, bias=True)
    (1): Tanh()
    (2): Linear(in_features=1000, out_features=50, bias=True)
  )
  (rnn): GRUWithAttention(
    (gru): GRU(768, 768)
    (lstm): LSTM(768, 768)
  )
  (W_k): Linear(in_features=768, out_features=50, bias=False)
  (W_q): Linear(in_features=768, out_features=50, bias=False)
  (W_v): Linear(in_features=768, out_features=50, bias=False)
  (droputout1): Dropout(p=0.2, inplace=False)
  (pooling): MaxPool1d(kernel_size=3, stride=1, padding=1, dilation=1, ceil_mode=False)
  (add_norm1): AddNorm(
    (dropout1): Dropout(p=0.2, inplace=False)
    (dropout2): Dropout(p=0.2, inplace=False)
    (ln): LayerNorm((50, 100), eps=1e-05, elementwise_affine=True)
  )
  (projection): AttLayer(
    (attention): Sequential(
      (0): Linear(in_features=768, out_features=64, bias=True)
      (1): Tanh()
      (2): Linear(in_features=64, out_features=1, bias=True)
      (3): Flatten(start_dim=1, end_dim=-1)
      (4): Softmax(dim=-1)
    )
  )
)
Trainable params: 41,388,053
Freeze params: 0
2024-05-01 01:49:31,105 - trainer - INFO -     epoch          : 1
2024-05-01 01:49:31,121 - trainer - INFO -     loss           : 1.141611
2024-05-01 01:49:31,121 - trainer - INFO -     accuracy       : 0.668102
2024-05-01 01:49:31,121 - trainer - INFO -     macro_f        : 0.651302
…
2024-05-01 02:05:09,496 - trainer - INFO -     val_doc_entropy: 2.823629
2024-05-01 02:05:09,496 - trainer - INFO -     test_loss      : 0.936306
2024-05-01 02:05:09,496 - trainer - INFO -     test_accuracy  : 0.721348
2024-05-01 02:05:09,496 - trainer - INFO -     test_macro_f   : 0.711364
2024-05-01 02:05:09,496 - trainer - INFO -     test_precision : 0.745751
2024-05-01 02:05:09,496 - trainer - INFO -     test_recall    : 0.721348
2024-05-01 02:05:09,496 - trainer - INFO -     test_doc_entropy: 2.825874
2024-05-01 02:06:49,655 - train - INFO - BiAttentionClassifyModel(
  (embedding): BertModel(
    (embeddings): BertEmbeddings(
      (word_embeddings): Embedding(30522, 768, padding_idx=0)
      (position_embeddings): Embedding(512, 768)
      (token_type_embeddings): Embedding(2, 768)
      (LayerNorm): LayerNorm((768,), eps=1e-12, elementwise_affine=True)
      (dropout): Dropout(p=0.1, inplace=False)
    )
    (encoder): BertEncoder(
      (layer): ModuleList(
        (0): BertLayer(
          (attention): BertAttention(
            (self): BertSelfAttention(
              (query): Linear(in_features=768, out_features=768, bias=True)
              (key): Linear(in_features=768, out_features=768, bias=True)
              (value): Linear(in_features=768, out_features=768, bias=True)
              (dropout): Dropout(p=0.1, inplace=False)
            )
            (output): BertSelfOutput(
              (dense): Linear(in_features=768, out_features=768, bias=True)
              (LayerNorm): LayerNorm((768,), eps=1e-12, elementwise_affine=True)
              (dropout): Dropout(p=0.1, inplace=False)
            )
          )
          (intermediate): BertIntermediate(
            (dense): Linear(in_features=768, out_features=3072, bias=True)
            (intermediate_act_fn): GELUActivation()
          )
          (output): BertOutput(
            (dense): Linear(in_features=3072, out_features=768, bias=True)
            (LayerNorm): LayerNorm((768,), eps=1e-12, elementwise_affine=True)
            (dropout): Dropout(p=0.1, inplace=False)
          )
        )
      )
    )
    (pooler): BertPooler(
      (dense): Linear(in_features=768, out_features=768, bias=True)
      (activation): Tanh()
    )
  )
  (classifier): Linear(in_features=768, out_features=26, bias=True)
  (final): Linear(in_features=768, out_features=768, bias=True)
  (topic_layer): Sequential(
    (0): Linear(in_features=768, out_features=1000, bias=True)
    (1): Tanh()
    (2): Linear(in_features=1000, out_features=50, bias=True)
  )
  (rnn): GRUWithAttention(
    (gru): GRU(768, 768)
    (lstm): LSTM(768, 768)
  )
  (W_k): Linear(in_features=768, out_features=50, bias=False)
  (W_q): Linear(in_features=768, out_features=50, bias=False)
  (W_v): Linear(in_features=768, out_features=50, bias=False)
  (droputout1): Dropout(p=0.2, inplace=False)
  (pooling): MaxPool1d(kernel_size=3, stride=1, padding=1, dilation=1, ceil_mode=False)
  (add_norm1): AddNorm(
    (dropout1): Dropout(p=0.2, inplace=False)
    (dropout2): Dropout(p=0.2, inplace=False)
    (ln): LayerNorm((50, 100), eps=1e-05, elementwise_affine=True)
  )
  (projection): AttLayer(
    (attention): Sequential(
      (0): Linear(in_features=768, out_features=64, bias=True)
      (1): Tanh()
      (2): Linear(in_features=64, out_features=1, bias=True)
      (3): Flatten(start_dim=1, end_dim=-1)
      (4): Softmax(dim=-1)
    )
  )
)
Trainable params: 41,388,053
Freeze params: 0
2024-05-01 02:22:29,017 - trainer - INFO -     epoch          : 1
2024-05-01 02:22:29,033 - trainer - INFO -     loss           : 1.143942
2024-05-01 02:22:29,033 - trainer - INFO -     accuracy       : 0.666926
2024-05-01 02:22:29,033 - trainer - INFO -     macro_f        : 0.649733
…
2024-05-01 03:11:02,705 - trainer - INFO -     val_doc_entropy: 2.856534
2024-05-01 03:11:02,705 - trainer - INFO -     test_loss      : 0.950042
2024-05-01 03:11:02,721 - trainer - INFO -     test_accuracy  : 0.721298
2024-05-01 03:11:02,721 - trainer - INFO -     test_macro_f   : 0.716019
2024-05-01 03:11:02,721 - trainer - INFO -     test_precision : 0.757117
2024-05-01 03:11:02,721 - trainer - INFO -     test_recall    : 0.721298
2024-05-01 03:11:02,721 - trainer - INFO -     test_doc_entropy: 2.859611
2024-05-01 03:12:40,056 - train - INFO - BiAttentionClassifyModel(
  (embedding): BertModel(
    (embeddings): BertEmbeddings(
      (word_embeddings): Embedding(30522, 768, padding_idx=0)
      (position_embeddings): Embedding(512, 768)
      (token_type_embeddings): Embedding(2, 768)
      (LayerNorm): LayerNorm((768,), eps=1e-12, elementwise_affine=True)
      (dropout): Dropout(p=0.1, inplace=False)
    )
    (encoder): BertEncoder(
      (layer): ModuleList(
        (0): BertLayer(
          (attention): BertAttention(
            (self): BertSelfAttention(
              (query): Linear(in_features=768, out_features=768, bias=True)
              (key): Linear(in_features=768, out_features=768, bias=True)
              (value): Linear(in_features=768, out_features=768, bias=True)
              (dropout): Dropout(p=0.1, inplace=False)
            )
            (output): BertSelfOutput(
              (dense): Linear(in_features=768, out_features=768, bias=True)
              (LayerNorm): LayerNorm((768,), eps=1e-12, elementwise_affine=True)
              (dropout): Dropout(p=0.1, inplace=False)
            )
          )
          (intermediate): BertIntermediate(
            (dense): Linear(in_features=768, out_features=3072, bias=True)
            (intermediate_act_fn): GELUActivation()
          )
          (output): BertOutput(
            (dense): Linear(in_features=3072, out_features=768, bias=True)
            (LayerNorm): LayerNorm((768,), eps=1e-12, elementwise_affine=True)
            (dropout): Dropout(p=0.1, inplace=False)
          )
        )
      )
    )
    (pooler): BertPooler(
      (dense): Linear(in_features=768, out_features=768, bias=True)
      (activation): Tanh()
    )
  )
  (classifier): Linear(in_features=768, out_features=26, bias=True)
  (final): Linear(in_features=768, out_features=768, bias=True)
  (topic_layer): Sequential(
    (0): Linear(in_features=768, out_features=1000, bias=True)
    (1): Tanh()
    (2): Linear(in_features=1000, out_features=50, bias=True)
  )
  (rnn): GRUWithAttention(
    (gru): GRU(768, 768)
    (lstm): LSTM(768, 768)
  )
  (W_k): Linear(in_features=768, out_features=50, bias=False)
  (W_q): Linear(in_features=768, out_features=50, bias=False)
  (W_v): Linear(in_features=768, out_features=50, bias=False)
  (droputout1): Dropout(p=0.2, inplace=False)
  (pooling): MaxPool1d(kernel_size=3, stride=1, padding=1, dilation=1, ceil_mode=False)
  (add_norm1): AddNorm(
    (dropout1): Dropout(p=0.2, inplace=False)
    (dropout2): Dropout(p=0.2, inplace=False)
    (ln): LayerNorm((50, 100), eps=1e-05, elementwise_affine=True)
  )
  (projection): AttLayer(
    (attention): Sequential(
      (0): Linear(in_features=768, out_features=64, bias=True)
      (1): Tanh()
      (2): Linear(in_features=64, out_features=1, bias=True)
      (3): Flatten(start_dim=1, end_dim=-1)
      (4): Softmax(dim=-1)
    )
  )
)
Trainable params: 41,388,053
Freeze params: 0
2024-05-01 13:22:42,550 - train - INFO - BiAttentionClassifyModel(
  (embedding): BertModel(
    (embeddings): BertEmbeddings(
      (word_embeddings): Embedding(30522, 768, padding_idx=0)
      (position_embeddings): Embedding(512, 768)
      (token_type_embeddings): Embedding(2, 768)
      (LayerNorm): LayerNorm((768,), eps=1e-12, elementwise_affine=True)
      (dropout): Dropout(p=0.1, inplace=False)
    )
    (encoder): BertEncoder(
      (layer): ModuleList(
        (0): BertLayer(
          (attention): BertAttention(
            (self): BertSelfAttention(
              (query): Linear(in_features=768, out_features=768, bias=True)
              (key): Linear(in_features=768, out_features=768, bias=True)
              (value): Linear(in_features=768, out_features=768, bias=True)
              (dropout): Dropout(p=0.1, inplace=False)
            )
            (output): BertSelfOutput(
              (dense): Linear(in_features=768, out_features=768, bias=True)
              (LayerNorm): LayerNorm((768,), eps=1e-12, elementwise_affine=True)
              (dropout): Dropout(p=0.1, inplace=False)
            )
          )
          (intermediate): BertIntermediate(
            (dense): Linear(in_features=768, out_features=3072, bias=True)
            (intermediate_act_fn): GELUActivation()
          )
          (output): BertOutput(
            (dense): Linear(in_features=3072, out_features=768, bias=True)
            (LayerNorm): LayerNorm((768,), eps=1e-12, elementwise_affine=True)
            (dropout): Dropout(p=0.1, inplace=False)
          )
        )
      )
    )
    (pooler): BertPooler(
      (dense): Linear(in_features=768, out_features=768, bias=True)
      (activation): Tanh()
    )
  )
  (classifier): Linear(in_features=768, out_features=26, bias=True)
  (final): Linear(in_features=768, out_features=768, bias=True)
  (topic_layer): Sequential(
    (0): Linear(in_features=768, out_features=1000, bias=True)
    (1): Tanh()
    (2): Linear(in_features=1000, out_features=50, bias=True)
  )
  (rnn): GRUWithAttention(
    (gru): GRU(768, 768)
    (lstm): LSTM(768, 768)
  )
  (W_k): Linear(in_features=768, out_features=50, bias=False)
  (W_q): Linear(in_features=768, out_features=50, bias=False)
  (W_v): Linear(in_features=768, out_features=50, bias=False)
  (droputout1): Dropout(p=0.2, inplace=False)
  (pooling): MaxPool1d(kernel_size=3, stride=1, padding=1, dilation=1, ceil_mode=False)
  (add_norm1): AddNorm(
    (dropout1): Dropout(p=0.2, inplace=False)
    (dropout2): Dropout(p=0.2, inplace=False)
    (ln): LayerNorm((50, 100), eps=1e-05, elementwise_affine=True)
  )
  (projection): AttLayer(
    (attention): Sequential(
      (0): Linear(in_features=768, out_features=64, bias=True)
      (1): Tanh()
      (2): Linear(in_features=64, out_features=1, bias=True)
      (3): Flatten(start_dim=1, end_dim=-1)
      (4): Softmax(dim=-1)
    )
  )
)
Trainable params: 41,388,053
Freeze params: 0
2024-05-01 13:37:48,780 - trainer - INFO -     epoch          : 1
2024-05-01 13:37:48,780 - trainer - INFO -     loss           : 1.14342
2024-05-01 13:37:48,780 - trainer - INFO -     accuracy       : 0.668494
2024-05-01 13:37:48,780 - trainer - INFO -     macro_f        : 0.651101
…
2024-05-01 14:25:00,367 - trainer - INFO -     val_doc_entropy: 2.840108
2024-05-01 14:25:00,367 - trainer - INFO -     test_loss      : 0.944046
2024-05-01 14:25:00,367 - trainer - INFO -     test_accuracy  : 0.719257
2024-05-01 14:25:00,367 - trainer - INFO -     test_macro_f   : 0.717291
2024-05-01 14:25:00,367 - trainer - INFO -     test_precision : 0.763251
2024-05-01 14:25:00,367 - trainer - INFO -     test_recall    : 0.719257
2024-05-01 14:25:00,367 - trainer - INFO -     test_doc_entropy: 2.843034
2024-05-01 14:28:03,846 - train - INFO - BiAttentionClassifyModel(
  (embedding): DistilBertModel(
    (embeddings): Embeddings(
      (word_embeddings): Embedding(30522, 768, padding_idx=0)
      (position_embeddings): Embedding(512, 768)
      (LayerNorm): LayerNorm((768,), eps=1e-12, elementwise_affine=True)
      (dropout): Dropout(p=0.1, inplace=False)
    )
    (transformer): Transformer(
      (layer): ModuleList(
        (0): TransformerBlock(
          (attention): MultiHeadSelfAttention(
            (dropout): Dropout(p=0.1, inplace=False)
            (q_lin): Linear(in_features=768, out_features=768, bias=True)
            (k_lin): Linear(in_features=768, out_features=768, bias=True)
            (v_lin): Linear(in_features=768, out_features=768, bias=True)
            (out_lin): Linear(in_features=768, out_features=768, bias=True)
          )
          (sa_layer_norm): LayerNorm((768,), eps=1e-12, elementwise_affine=True)
          (ffn): FFN(
            (dropout): Dropout(p=0.1, inplace=False)
            (lin1): Linear(in_features=768, out_features=3072, bias=True)
            (lin2): Linear(in_features=3072, out_features=768, bias=True)
            (activation): GELUActivation()
          )
          (output_layer_norm): LayerNorm((768,), eps=1e-12, elementwise_affine=True)
        )
      )
    )
  )
  (classifier): Linear(in_features=768, out_features=26, bias=True)
  (final): Linear(in_features=768, out_features=768, bias=True)
  (topic_layer): Sequential(
    (0): Linear(in_features=768, out_features=1000, bias=True)
    (1): Tanh()
    (2): Linear(in_features=1000, out_features=50, bias=True)
  )
  (rnn): GRUWithAttention(
    (gru): GRU(768, 768)
    (lstm): LSTM(768, 768)
  )
  (W_k): Linear(in_features=768, out_features=50, bias=False)
  (W_q): Linear(in_features=768, out_features=50, bias=False)
  (W_v): Linear(in_features=768, out_features=50, bias=False)
  (droputout1): Dropout(p=0.2, inplace=False)
  (pooling): MaxPool1d(kernel_size=3, stride=1, padding=1, dilation=1, ceil_mode=False)
  (add_norm1): AddNorm(
    (dropout1): Dropout(p=0.2, inplace=False)
    (dropout2): Dropout(p=0.2, inplace=False)
    (ln): LayerNorm((50, 100), eps=1e-05, elementwise_affine=True)
  )
  (projection): AttLayer(
    (attention): Sequential(
      (0): Linear(in_features=768, out_features=64, bias=True)
      (1): Tanh()
      (2): Linear(in_features=64, out_features=1, bias=True)
      (3): Flatten(start_dim=1, end_dim=-1)
      (4): Softmax(dim=-1)
    )
  )
)
Trainable params: 40,795,925
Freeze params: 0
2024-05-01 14:43:04,756 - trainer - INFO -     epoch          : 1
2024-05-01 14:43:04,756 - trainer - INFO -     loss           : 1.125066
2024-05-01 14:43:04,756 - trainer - INFO -     accuracy       : 0.671245
2024-05-01 14:43:04,756 - trainer - INFO -     macro_f        : 0.655045
…
2024-05-01 17:05:32,148 - trainer - INFO -     val_doc_entropy: 2.69272
2024-05-01 17:05:32,148 - trainer - INFO -     test_loss      : 0.928748
2024-05-01 17:05:32,148 - trainer - INFO -     test_accuracy  : 0.720303
2024-05-01 17:05:32,148 - trainer - INFO -     test_macro_f   : 0.716965
2024-05-01 17:05:32,148 - trainer - INFO -     test_precision : 0.759411
2024-05-01 17:05:32,148 - trainer - INFO -     test_recall    : 0.720303
2024-05-01 17:05:32,148 - trainer - INFO -     test_doc_entropy: 2.692315
2024-05-01 17:08:02,309 - train - INFO - BiAttentionClassifyModel(
  (embedding): RobertaModel(
    (embeddings): RobertaEmbeddings(
      (word_embeddings): Embedding(50265, 768, padding_idx=1)
      (position_embeddings): Embedding(514, 768, padding_idx=1)
      (token_type_embeddings): Embedding(1, 768)
      (LayerNorm): LayerNorm((768,), eps=1e-05, elementwise_affine=True)
      (dropout): Dropout(p=0.1, inplace=False)
    )
    (encoder): RobertaEncoder(
      (layer): ModuleList(
        (0): RobertaLayer(
          (attention): RobertaAttention(
            (self): RobertaSelfAttention(
              (query): Linear(in_features=768, out_features=768, bias=True)
              (key): Linear(in_features=768, out_features=768, bias=True)
              (value): Linear(in_features=768, out_features=768, bias=True)
              (dropout): Dropout(p=0.1, inplace=False)
            )
            (output): RobertaSelfOutput(
              (dense): Linear(in_features=768, out_features=768, bias=True)
              (LayerNorm): LayerNorm((768,), eps=1e-05, elementwise_affine=True)
              (dropout): Dropout(p=0.1, inplace=False)
            )
          )
          (intermediate): RobertaIntermediate(
            (dense): Linear(in_features=768, out_features=3072, bias=True)
            (intermediate_act_fn): GELUActivation()
          )
          (output): RobertaOutput(
            (dense): Linear(in_features=3072, out_features=768, bias=True)
            (LayerNorm): LayerNorm((768,), eps=1e-05, elementwise_affine=True)
            (dropout): Dropout(p=0.1, inplace=False)
          )
        )
      )
    )
    (pooler): RobertaPooler(
      (dense): Linear(in_features=768, out_features=768, bias=True)
      (activation): Tanh()
    )
  )
  (classifier): Linear(in_features=768, out_features=26, bias=True)
  (final): Linear(in_features=768, out_features=768, bias=True)
  (topic_layer): Sequential(
    (0): Linear(in_features=768, out_features=1000, bias=True)
    (1): Tanh()
    (2): Linear(in_features=1000, out_features=50, bias=True)
  )
  (rnn): GRUWithAttention(
    (gru): GRU(768, 768)
    (lstm): LSTM(768, 768)
  )
  (W_k): Linear(in_features=768, out_features=50, bias=False)
  (W_q): Linear(in_features=768, out_features=50, bias=False)
  (W_v): Linear(in_features=768, out_features=50, bias=False)
  (droputout1): Dropout(p=0.2, inplace=False)
  (pooling): MaxPool1d(kernel_size=3, stride=1, padding=1, dilation=1, ceil_mode=False)
  (add_norm1): AddNorm(
    (dropout1): Dropout(p=0.2, inplace=False)
    (dropout2): Dropout(p=0.2, inplace=False)
    (ln): LayerNorm((50, 100), eps=1e-05, elementwise_affine=True)
  )
  (projection): AttLayer(
    (attention): Sequential(
      (0): Linear(in_features=768, out_features=64, bias=True)
      (1): Tanh()
      (2): Linear(in_features=64, out_features=1, bias=True)
      (3): Flatten(start_dim=1, end_dim=-1)
      (4): Softmax(dim=-1)
    )
  )
)
Trainable params: 56,551,445
Freeze params: 0
2024-05-01 17:23:48,709 - trainer - INFO -     epoch          : 1
2024-05-01 17:23:48,709 - trainer - INFO -     loss           : 1.180169
2024-05-01 17:23:48,709 - trainer - INFO -     accuracy       : 0.656576
2024-05-01 17:23:48,709 - trainer - INFO -     macro_f        : 0.637316
…
2024-05-01 19:52:27,013 - trainer - INFO -     val_doc_entropy: 2.883972
2024-05-01 19:52:27,013 - trainer - INFO -     test_loss      : 0.948298
2024-05-01 19:52:27,013 - trainer - INFO -     test_accuracy  : 0.719108
2024-05-01 19:52:27,013 - trainer - INFO -     test_macro_f   : 0.714522
2024-05-01 19:52:27,013 - trainer - INFO -     test_precision : 0.75645
2024-05-01 19:52:27,013 - trainer - INFO -     test_recall    : 0.719108
2024-05-01 19:52:27,013 - trainer - INFO -     test_doc_entropy: 2.883164
2024-05-02 09:55:53,881 - train - INFO - BiAttentionClassifyModel(
  (embedding): XLNetModel(
    (word_embedding): Embedding(32000, 768)
    (layer): ModuleList(
      (0): XLNetLayer(
        (rel_attn): XLNetRelativeAttention(
          (layer_norm): LayerNorm((768,), eps=1e-12, elementwise_affine=True)
          (dropout): Dropout(p=0.1, inplace=False)
        )
        (ff): XLNetFeedForward(
          (layer_norm): LayerNorm((768,), eps=1e-12, elementwise_affine=True)
          (layer_1): Linear(in_features=768, out_features=3072, bias=True)
          (layer_2): Linear(in_features=3072, out_features=768, bias=True)
          (dropout): Dropout(p=0.1, inplace=False)
          (activation_function): GELUActivation()
        )
        (dropout): Dropout(p=0.1, inplace=False)
      )
    )
    (dropout): Dropout(p=0.1, inplace=False)
  )
  (classifier): Linear(in_features=768, out_features=26, bias=True)
  (final): Linear(in_features=768, out_features=768, bias=True)
  (topic_layer): Sequential(
    (0): Linear(in_features=768, out_features=1000, bias=True)
    (1): Tanh()
    (2): Linear(in_features=1000, out_features=50, bias=True)
  )
  (rnn): GRUWithAttention(
    (gru): GRU(768, 768)
    (lstm): LSTM(768, 768)
  )
  (W_k): Linear(in_features=768, out_features=50, bias=False)
  (W_q): Linear(in_features=768, out_features=50, bias=False)
  (W_v): Linear(in_features=768, out_features=50, bias=False)
  (droputout1): Dropout(p=0.2, inplace=False)
  (pooling): MaxPool1d(kernel_size=3, stride=1, padding=1, dilation=1, ceil_mode=False)
  (add_norm1): AddNorm(
    (dropout1): Dropout(p=0.2, inplace=False)
    (dropout2): Dropout(p=0.2, inplace=False)
    (ln): LayerNorm((50, 100), eps=1e-05, elementwise_affine=True)
  )
  (projection): AttLayer(
    (attention): Sequential(
      (0): Linear(in_features=768, out_features=64, bias=True)
      (1): Tanh()
      (2): Linear(in_features=64, out_features=1, bias=True)
      (3): Flatten(start_dim=1, end_dim=-1)
      (4): Softmax(dim=-1)
    )
  )
)
Trainable params: 42,127,637
Freeze params: 0
2024-05-02 10:14:22,281 - trainer - INFO -     epoch          : 1
2024-05-02 10:14:22,281 - trainer - INFO -     loss           : 1.194166
2024-05-02 10:14:22,281 - trainer - INFO -     accuracy       : 0.654833
2024-05-02 10:14:22,281 - trainer - INFO -     macro_f        : 0.635512
…
2024-05-02 13:11:33,826 - trainer - INFO -     val_recall     : 0.721746
2024-05-02 13:11:33,826 - trainer - INFO -     val_doc_entropy: 2.924062
2024-05-02 13:11:33,826 - trainer - INFO -     test_loss      : 0.961864
2024-05-02 13:11:33,826 - trainer - INFO -     test_accuracy  : 0.71851
2024-05-02 13:11:33,826 - trainer - INFO -     test_macro_f   : 0.711569
2024-05-02 13:11:33,826 - trainer - INFO -     test_precision : 0.749505
2024-05-02 13:11:33,826 - trainer - INFO -     test_recall    : 0.71851
2024-05-02 13:11:33,826 - trainer - INFO -     test_doc_entropy: 2.926257
2024-05-03 02:02:59,891 - train - INFO - BiAttentionClassifyModel(
  (embedding): Embedding(84503, 300)
  (classifier): Linear(in_features=300, out_features=26, bias=True)
  (final): Linear(in_features=300, out_features=300, bias=True)
  (topic_layer): Sequential(
    (0): Linear(in_features=300, out_features=1000, bias=True)
    (1): Tanh()
    (2): Linear(in_features=1000, out_features=50, bias=True)
  )
  (rnn): GRUWithAttention(
    (gru): GRU(300, 300)
    (lstm): LSTM(300, 300)
  )
  (W_k): Linear(in_features=300, out_features=50, bias=False)
  (W_q): Linear(in_features=300, out_features=50, bias=False)
  (W_v): Linear(in_features=300, out_features=50, bias=False)
  (droputout1): Dropout(p=0.2, inplace=False)
  (pooling): MaxPool1d(kernel_size=3, stride=1, padding=1, dilation=1, ceil_mode=False)
  (add_norm1): AddNorm(
    (dropout1): Dropout(p=0.2, inplace=False)
    (dropout2): Dropout(p=0.2, inplace=False)
    (ln): LayerNorm((50, 100), eps=1e-05, elementwise_affine=True)
  )
  (projection): AttLayer(
    (attention): Sequential(
      (0): Linear(in_features=300, out_features=64, bias=True)
      (1): Tanh()
      (2): Linear(in_features=64, out_features=1, bias=True)
      (3): Flatten(start_dim=1, end_dim=-1)
      (4): Softmax(dim=-1)
    )
  )
)
Trainable params: 27,138,605
Freeze params: 0
2024-05-03 02:05:26,472 - train - INFO - BiAttentionClassifyModel(
  (embedding): Embedding(84503, 300)
  (classifier): Linear(in_features=300, out_features=26, bias=True)
  (final): Linear(in_features=300, out_features=300, bias=True)
  (topic_layer): Sequential(
    (0): Linear(in_features=300, out_features=1000, bias=True)
    (1): Tanh()
    (2): Linear(in_features=1000, out_features=50, bias=True)
  )
  (rnn): GRUWithAttention(
    (gru): GRU(300, 300)
    (lstm): LSTM(300, 300)
  )
  (W_k): Linear(in_features=300, out_features=50, bias=False)
  (W_q): Linear(in_features=300, out_features=50, bias=False)
  (W_v): Linear(in_features=300, out_features=50, bias=False)
  (droputout1): Dropout(p=0.2, inplace=False)
  (pooling): MaxPool1d(kernel_size=3, stride=1, padding=1, dilation=1, ceil_mode=False)
  (add_norm1): AddNorm(
    (dropout1): Dropout(p=0.2, inplace=False)
    (dropout2): Dropout(p=0.2, inplace=False)
    (ln): LayerNorm((50, 100), eps=1e-05, elementwise_affine=True)
  )
  (projection): AttLayer(
    (attention): Sequential(
      (0): Linear(in_features=300, out_features=64, bias=True)
      (1): Tanh()
      (2): Linear(in_features=64, out_features=1, bias=True)
      (3): Flatten(start_dim=1, end_dim=-1)
      (4): Softmax(dim=-1)
    )
  )
)
Trainable params: 27,138,605
Freeze params: 0
2024-05-03 02:09:05,669 - trainer - INFO -     epoch          : 1
2024-05-03 02:09:05,669 - trainer - INFO -     loss           : 1.147137
2024-05-03 02:09:05,669 - trainer - INFO -     accuracy       : 0.671202
2024-05-03 02:09:05,669 - trainer - INFO -     macro_f        : 0.653383
…
