2024-04-08 21:15:02,259 - root - INFO - This model has 1 poolers.
2024-04-08 21:15:02,478 - train - INFO - FastformerClassifyModel(
  (embedding): Embedding(84503, 300)
  (classifier): Linear(in_features=300, out_features=26, bias=True)
  (fastformer_model): FastformerEncoder(
    (encoders): ModuleList(
      (0-1): 2 x FastformerLayer(
        (attention): FastAttention(
          (self): FastSelfAttention(
            (query): Linear(in_features=300, out_features=300, bias=True)
            (query_att): Linear(in_features=300, out_features=15, bias=True)
            (key): Linear(in_features=300, out_features=300, bias=True)
            (key_att): Linear(in_features=300, out_features=15, bias=True)
            (transform): Linear(in_features=300, out_features=300, bias=True)
            (softmax): Softmax(dim=-1)
          )
          (output): BertSelfOutput(
            (dense): Linear(in_features=300, out_features=300, bias=True)
            (LayerNorm): LayerNorm((300,), eps=1e-12, elementwise_affine=True)
            (dropout): Dropout(p=0.2, inplace=False)
          )
        )
        (intermediate): BertIntermediate(
          (dense): Linear(in_features=300, out_features=300, bias=True)
          (intermediate_act_fn): GELUActivation()
        )
        (output): BertOutput(
          (dense): Linear(in_features=300, out_features=300, bias=True)
          (LayerNorm): LayerNorm((300,), eps=1e-12, elementwise_affine=True)
          (dropout): Dropout(p=0.2, inplace=False)
        )
      )
    )
    (position_embeddings): Embedding(100, 300)
    (LayerNorm): LayerNorm((300,), eps=1e-12, elementwise_affine=True)
    (dropout): Dropout(p=0.2, inplace=False)
    (poolers): ModuleList(
      (0): AttentionPooling(
        (att_fc1): Linear(in_features=300, out_features=300, bias=True)
        (att_fc2): Linear(in_features=300, out_features=1, bias=True)
      )
    )
  )
)
Trainable params: 26,583,987
Freeze params: 0
2024-04-08 21:19:04,526 - trainer - INFO -     epoch          : 1
2024-04-08 21:19:04,526 - trainer - INFO -     loss           : 1.376543
2024-04-08 21:19:04,526 - trainer - INFO -     accuracy       : 0.622184
2024-04-08 21:19:04,526 - trainer - INFO -     macro_f        : 0.600011
2024-04-08 21:19:04,526 - trainer - INFO -     precision      : 0.632216
…
