2024-03-03 15:51:17,188 - train - INFO - PretrainedBaseline(
  (model): BertForSequenceClassification(
    (bert): BertModel(
      (embeddings): BertEmbeddings(
        (word_embeddings): Embedding(30522, 768, padding_idx=0)
        (position_embeddings): Embedding(512, 768)
        (token_type_embeddings): Embedding(2, 768)
        (LayerNorm): LayerNorm((768,), eps=1e-12, elementwise_affine=True)
        (dropout): Dropout(p=0.1, inplace=False)
      )
      (encoder): BertEncoder(
        (layer): ModuleList(
          (0): BertLayer(
            (attention): BertAttention(
              (self): BertSelfAttention(
                (query): Linear(in_features=768, out_features=768, bias=True)
                (key): Linear(in_features=768, out_features=768, bias=True)
                (value): Linear(in_features=768, out_features=768, bias=True)
                (dropout): Dropout(p=0.1, inplace=False)
              )
              (output): BertSelfOutput(
                (dense): Linear(in_features=768, out_features=768, bias=True)
                (LayerNorm): LayerNorm((768,), eps=1e-12, elementwise_affine=True)
                (dropout): Dropout(p=0.1, inplace=False)
              )
            )
            (intermediate): BertIntermediate(
              (dense): Linear(in_features=768, out_features=3072, bias=True)
              (intermediate_act_fn): GELUActivation()
            )
            (output): BertOutput(
              (dense): Linear(in_features=3072, out_features=768, bias=True)
              (LayerNorm): LayerNorm((768,), eps=1e-12, elementwise_affine=True)
              (dropout): Dropout(p=0.1, inplace=False)
            )
          )
        )
      )
      (pooler): BertPooler(
        (dense): Linear(in_features=768, out_features=768, bias=True)
        (activation): Tanh()
      )
    )
    (dropout): Dropout(p=0.1, inplace=False)
    (classifier): Linear(in_features=768, out_features=26, bias=True)
  )
)
Trainable params: 31,535,642
Freeze params: 0
2024-03-03 15:59:50,081 - trainer - INFO -     epoch          : 1
2024-03-03 15:59:50,081 - trainer - INFO -     loss           : 1.384953
2024-03-03 15:59:50,081 - trainer - INFO -     accuracy       : 0.615475
2024-03-03 15:59:50,081 - trainer - INFO -     macro_f        : 0.454954
2024-03-03 15:59:50,081 - trainer - INFO -     val_loss       : 1.169302
…
2024-03-03 18:04:42,824 - trainer - INFO -     loss           : 0.787699
2024-03-03 18:04:42,824 - trainer - INFO -     accuracy       : 0.760643
2024-03-03 18:04:42,824 - trainer - INFO -     macro_f        : 0.632301
2024-03-03 18:04:42,824 - trainer - INFO -     val_loss       : 1.167632
2024-03-03 18:04:42,824 - trainer - INFO -     val_accuracy   : 0.673106
2024-03-03 18:04:42,824 - trainer - INFO -     val_macro_f    : 0.520296
2024-04-01 17:26:09,386 - train - INFO - PretrainedBaseline(
  (model): DistilBertForSequenceClassification(
    (distilbert): DistilBertModel(
      (embeddings): Embeddings(
        (word_embeddings): Embedding(30522, 768, padding_idx=0)
        (position_embeddings): Embedding(512, 768)
        (LayerNorm): LayerNorm((768,), eps=1e-12, elementwise_affine=True)
        (dropout): Dropout(p=0.1, inplace=False)
      )
      (transformer): Transformer(
        (layer): ModuleList(
          (0): TransformerBlock(
            (attention): MultiHeadSelfAttention(
              (dropout): Dropout(p=0.1, inplace=False)
              (q_lin): Linear(in_features=768, out_features=768, bias=True)
              (k_lin): Linear(in_features=768, out_features=768, bias=True)
              (v_lin): Linear(in_features=768, out_features=768, bias=True)
              (out_lin): Linear(in_features=768, out_features=768, bias=True)
            )
            (sa_layer_norm): LayerNorm((768,), eps=1e-12, elementwise_affine=True)
            (ffn): FFN(
              (dropout): Dropout(p=0.1, inplace=False)
              (lin1): Linear(in_features=768, out_features=3072, bias=True)
              (lin2): Linear(in_features=3072, out_features=768, bias=True)
              (activation): GELUActivation()
            )
            (output_layer_norm): LayerNorm((768,), eps=1e-12, elementwise_affine=True)
          )
        )
      )
    )
    (pre_classifier): Linear(in_features=768, out_features=768, bias=True)
    (classifier): Linear(in_features=768, out_features=26, bias=True)
    (dropout): Dropout(p=0.2, inplace=False)
  )
)
Trainable params: 31,534,106
Freeze params: 0
2024-04-06 19:05:19,633 - train - INFO - PretrainedBaseline(
  (model): RobertaForSequenceClassification(
    (roberta): RobertaModel(
      (embeddings): RobertaEmbeddings(
        (word_embeddings): Embedding(50265, 768, padding_idx=0)
        (position_embeddings): Embedding(514, 768, padding_idx=0)
        (token_type_embeddings): Embedding(1, 768)
        (LayerNorm): LayerNorm((768,), eps=1e-05, elementwise_affine=True)
        (dropout): Dropout(p=0.1, inplace=False)
      )
      (encoder): RobertaEncoder(
        (layer): ModuleList(
          (0): RobertaLayer(
            (attention): RobertaAttention(
              (self): RobertaSelfAttention(
                (query): Linear(in_features=768, out_features=768, bias=True)
                (key): Linear(in_features=768, out_features=768, bias=True)
                (value): Linear(in_features=768, out_features=768, bias=True)
                (dropout): Dropout(p=0.1, inplace=False)
              )
              (output): RobertaSelfOutput(
                (dense): Linear(in_features=768, out_features=768, bias=True)
                (LayerNorm): LayerNorm((768,), eps=1e-05, elementwise_affine=True)
                (dropout): Dropout(p=0.1, inplace=False)
              )
            )
            (intermediate): RobertaIntermediate(
              (dense): Linear(in_features=768, out_features=3072, bias=True)
              (intermediate_act_fn): GELUActivation()
            )
            (output): RobertaOutput(
              (dense): Linear(in_features=3072, out_features=768, bias=True)
              (LayerNorm): LayerNorm((768,), eps=1e-05, elementwise_affine=True)
              (dropout): Dropout(p=0.1, inplace=False)
            )
          )
        )
      )
    )
    (classifier): RobertaClassificationHead(
      (dense): Linear(in_features=768, out_features=768, bias=True)
      (dropout): Dropout(p=0.1, inplace=False)
      (out_proj): Linear(in_features=768, out_features=26, bias=True)
    )
  )
)
Trainable params: 46,699,034
Freeze params: 0
2024-04-06 19:16:00,831 - trainer - INFO -     epoch          : 1
2024-04-06 19:16:00,831 - trainer - INFO -     loss           : 1.420479
2024-04-06 19:16:00,831 - trainer - INFO -     accuracy       : 0.610253
2024-04-06 19:16:00,831 - trainer - INFO -     macro_f        : 0.587527
2024-04-06 19:16:00,831 - trainer - INFO -     precision      : 0.620396
…
2024-04-06 19:37:32,200 - trainer - INFO -     val_recall     : 0.66987
2024-04-06 19:37:32,200 - trainer - INFO -     test_loss      : 1.186806
2024-04-06 19:37:32,200 - trainer - INFO -     test_accuracy  : 0.668924
2024-04-06 19:37:32,200 - trainer - INFO -     test_macro_f   : 0.656162
2024-04-06 19:37:32,200 - trainer - INFO -     test_precision : 0.692382
2024-04-06 19:37:32,200 - trainer - INFO -     test_recall    : 0.668924
2024-04-06 19:38:44,261 - train - INFO - PretrainedBaseline(
  (model): RobertaForSequenceClassification(
    (roberta): RobertaModel(
      (embeddings): RobertaEmbeddings(
        (word_embeddings): Embedding(50265, 768, padding_idx=0)
        (position_embeddings): Embedding(514, 768, padding_idx=0)
        (token_type_embeddings): Embedding(1, 768)
        (LayerNorm): LayerNorm((768,), eps=1e-05, elementwise_affine=True)
        (dropout): Dropout(p=0.1, inplace=False)
      )
      (encoder): RobertaEncoder(
        (layer): ModuleList(
          (0): RobertaLayer(
            (attention): RobertaAttention(
              (self): RobertaSelfAttention(
                (query): Linear(in_features=768, out_features=768, bias=True)
                (key): Linear(in_features=768, out_features=768, bias=True)
                (value): Linear(in_features=768, out_features=768, bias=True)
                (dropout): Dropout(p=0.1, inplace=False)
              )
              (output): RobertaSelfOutput(
                (dense): Linear(in_features=768, out_features=768, bias=True)
                (LayerNorm): LayerNorm((768,), eps=1e-05, elementwise_affine=True)
                (dropout): Dropout(p=0.1, inplace=False)
              )
            )
            (intermediate): RobertaIntermediate(
              (dense): Linear(in_features=768, out_features=3072, bias=True)
              (intermediate_act_fn): GELUActivation()
            )
            (output): RobertaOutput(
              (dense): Linear(in_features=3072, out_features=768, bias=True)
              (LayerNorm): LayerNorm((768,), eps=1e-05, elementwise_affine=True)
              (dropout): Dropout(p=0.1, inplace=False)
            )
          )
        )
      )
    )
    (classifier): RobertaClassificationHead(
      (dense): Linear(in_features=768, out_features=768, bias=True)
      (dropout): Dropout(p=0.1, inplace=False)
      (out_proj): Linear(in_features=768, out_features=26, bias=True)
    )
  )
)
Trainable params: 46,699,034
Freeze params: 0
2024-04-06 19:49:31,655 - trainer - INFO -     epoch          : 1
2024-04-06 19:49:31,657 - trainer - INFO -     loss           : 1.40472
2024-04-06 19:49:31,657 - trainer - INFO -     accuracy       : 0.613415
2024-04-06 19:49:31,657 - trainer - INFO -     macro_f        : 0.592213
2024-04-06 19:49:31,657 - trainer - INFO -     precision      : 0.626252
…
2024-04-07 03:24:23,750 - trainer - INFO -     val_recall     : 0.707806
2024-04-07 03:24:23,750 - trainer - INFO -     test_loss      : 1.003627
2024-04-07 03:24:23,750 - trainer - INFO -     test_accuracy  : 0.706064
2024-04-07 03:24:23,750 - trainer - INFO -     test_macro_f   : 0.702246
2024-04-07 03:24:23,750 - trainer - INFO -     test_precision : 0.74596
2024-04-07 03:24:23,750 - trainer - INFO -     test_recall    : 0.706064
2024-04-07 09:08:02,525 - train - INFO - PretrainedBaseline(
  (model): DistilBertForSequenceClassification(
    (distilbert): DistilBertModel(
      (embeddings): Embeddings(
        (word_embeddings): Embedding(30522, 768, padding_idx=0)
        (position_embeddings): Embedding(512, 768)
        (LayerNorm): LayerNorm((768,), eps=1e-12, elementwise_affine=True)
        (dropout): Dropout(p=0.1, inplace=False)
      )
      (transformer): Transformer(
        (layer): ModuleList(
          (0): TransformerBlock(
            (attention): MultiHeadSelfAttention(
              (dropout): Dropout(p=0.1, inplace=False)
              (q_lin): Linear(in_features=768, out_features=768, bias=True)
              (k_lin): Linear(in_features=768, out_features=768, bias=True)
              (v_lin): Linear(in_features=768, out_features=768, bias=True)
              (out_lin): Linear(in_features=768, out_features=768, bias=True)
            )
            (sa_layer_norm): LayerNorm((768,), eps=1e-12, elementwise_affine=True)
            (ffn): FFN(
              (dropout): Dropout(p=0.1, inplace=False)
              (lin1): Linear(in_features=768, out_features=3072, bias=True)
              (lin2): Linear(in_features=3072, out_features=768, bias=True)
              (activation): GELUActivation()
            )
            (output_layer_norm): LayerNorm((768,), eps=1e-12, elementwise_affine=True)
          )
        )
      )
    )
    (pre_classifier): Linear(in_features=768, out_features=768, bias=True)
    (classifier): Linear(in_features=768, out_features=26, bias=True)
    (dropout): Dropout(p=0.2, inplace=False)
  )
)
Trainable params: 31,534,106
Freeze params: 0
2024-04-07 09:17:49,807 - trainer - INFO -     epoch          : 1
2024-04-07 09:17:49,807 - trainer - INFO -     loss           : 1.240606
2024-04-07 09:17:49,807 - trainer - INFO -     accuracy       : 0.645653
2024-04-07 09:17:49,807 - trainer - INFO -     macro_f        : 0.626097
…
2024-04-07 11:43:10,321 - trainer - INFO -     val_precision  : 0.743807
2024-04-07 11:43:10,321 - trainer - INFO -     val_recall     : 0.707358
2024-04-07 11:43:10,321 - trainer - INFO -     test_loss      : 1.026451
2024-04-07 11:43:10,321 - trainer - INFO -     test_accuracy  : 0.709449
2024-04-07 11:43:10,321 - trainer - INFO -     test_macro_f   : 0.704545
2024-04-07 11:43:10,321 - trainer - INFO -     test_precision : 0.746645
2024-04-07 11:43:10,336 - trainer - INFO -     test_recall    : 0.709449
2024-04-07 11:50:12,753 - train - INFO - PretrainedBaseline(
  (model): XLNetForSequenceClassification(
    (transformer): XLNetModel(
      (word_embedding): Embedding(32000, 768)
      (layer): ModuleList(
        (0): XLNetLayer(
          (rel_attn): XLNetRelativeAttention(
            (layer_norm): LayerNorm((768,), eps=1e-12, elementwise_affine=True)
            (dropout): Dropout(p=0.1, inplace=False)
          )
          (ff): XLNetFeedForward(
            (layer_norm): LayerNorm((768,), eps=1e-12, elementwise_affine=True)
            (layer_1): Linear(in_features=768, out_features=3072, bias=True)
            (layer_2): Linear(in_features=3072, out_features=768, bias=True)
            (dropout): Dropout(p=0.1, inplace=False)
            (activation_function): GELUActivation()
          )
          (dropout): Dropout(p=0.1, inplace=False)
        )
      )
      (dropout): Dropout(p=0.1, inplace=False)
    )
    (sequence_summary): SequenceSummary(
      (summary): Linear(in_features=768, out_features=768, bias=True)
      (activation): Tanh()
      (first_dropout): Identity()
      (last_dropout): Dropout(p=0.1, inplace=False)
    )
    (logits_proj): Linear(in_features=768, out_features=26, bias=True)
  )
)
Trainable params: 32,865,818
Freeze params: 0
2024-04-07 12:03:41,341 - trainer - INFO -     epoch          : 1
2024-04-07 12:03:41,341 - trainer - INFO -     loss           : 1.293563
2024-04-07 12:03:41,341 - trainer - INFO -     accuracy       : 0.631245
2024-04-07 12:03:41,341 - trainer - INFO -     macro_f        : 0.608066
2024-04-07 12:03:41,341 - trainer - INFO -     precision      : 0.63649
…
