…
2024-03-23 20:58:19,696 - sentence_transformers.SentenceTransformer - INFO - Load pretrained SentenceTransformer: D:\AI\model\roberta-base
2024-03-23 20:58:19,697 - sentence_transformers.SentenceTransformer - WARNING - No sentence-transformers model found with name D:\AI\model\roberta-base. Creating a new one with MEAN pooling.
2024-03-23 20:58:21,069 - sentence_transformers.SentenceTransformer - INFO - Use pytorch device_name: cuda
2024-03-23 20:58:22,475 - train - INFO - PretrainedBaseline(
  (model): RobertaForSequenceClassification(
    (roberta): RobertaModel(
      (embeddings): RobertaEmbeddings(
        (word_embeddings): Embedding(50265, 768, padding_idx=0)
        (position_embeddings): Embedding(514, 768, padding_idx=0)
        (token_type_embeddings): Embedding(1, 768)
        (LayerNorm): LayerNorm((768,), eps=1e-05, elementwise_affine=True)
        (dropout): Dropout(p=0.1, inplace=False)
      )
      (encoder): RobertaEncoder(
        (layer): ModuleList(
          (0): RobertaLayer(
            (attention): RobertaAttention(
              (self): RobertaSelfAttention(
                (query): Linear(in_features=768, out_features=768, bias=True)
                (key): Linear(in_features=768, out_features=768, bias=True)
                (value): Linear(in_features=768, out_features=768, bias=True)
                (dropout): Dropout(p=0.1, inplace=False)
              )
              (output): RobertaSelfOutput(
                (dense): Linear(in_features=768, out_features=768, bias=True)
                (LayerNorm): LayerNorm((768,), eps=1e-05, elementwise_affine=True)
                (dropout): Dropout(p=0.1, inplace=False)
              )
            )
            (intermediate): RobertaIntermediate(
              (dense): Linear(in_features=768, out_features=3072, bias=True)
              (intermediate_act_fn): GELUActivation()
            )
            (output): RobertaOutput(
              (dense): Linear(in_features=3072, out_features=768, bias=True)
              (LayerNorm): LayerNorm((768,), eps=1e-05, elementwise_affine=True)
              (dropout): Dropout(p=0.1, inplace=False)
            )
          )
        )
      )
    )
    (classifier): RobertaClassificationHead(
      (dense): Linear(in_features=768, out_features=768, bias=True)
      (dropout): Dropout(p=0.1, inplace=False)
      (out_proj): Linear(in_features=768, out_features=15, bias=True)
    )
  )
)
Trainable params: 46,690,575
Freeze params: 0
2024-03-23 21:00:11,929 - sentence_transformers.SentenceTransformer - INFO - Load pretrained SentenceTransformer: D:\AI\model\roberta-base
2024-03-23 21:00:11,929 - sentence_transformers.SentenceTransformer - WARNING - No sentence-transformers model found with name D:\AI\model\roberta-base. Creating a new one with MEAN pooling.
…
2024-03-23 21:34:14,013 - sentence_transformers.SentenceTransformer - INFO - Load pretrained SentenceTransformer: D:\AI\model\roberta-base
2024-03-23 21:34:14,028 - sentence_transformers.SentenceTransformer - WARNING - No sentence-transformers model found with name D:\AI\model\roberta-base. Creating a new one with MEAN pooling.
2024-03-23 21:34:14,660 - sentence_transformers.SentenceTransformer - INFO - Use pytorch device_name: cuda
2024-03-23 21:34:15,959 - train - INFO - PretrainedBaseline(
  (model): BertForSequenceClassification(
    (bert): BertModel(
      (embeddings): BertEmbeddings(
        (word_embeddings): Embedding(30522, 768, padding_idx=0)
        (position_embeddings): Embedding(512, 768)
        (token_type_embeddings): Embedding(2, 768)
        (LayerNorm): LayerNorm((768,), eps=1e-12, elementwise_affine=True)
        (dropout): Dropout(p=0.1, inplace=False)
      )
      (encoder): BertEncoder(
        (layer): ModuleList(
          (0): BertLayer(
            (attention): BertAttention(
              (self): BertSelfAttention(
                (query): Linear(in_features=768, out_features=768, bias=True)
                (key): Linear(in_features=768, out_features=768, bias=True)
                (value): Linear(in_features=768, out_features=768, bias=True)
                (dropout): Dropout(p=0.1, inplace=False)
              )
              (output): BertSelfOutput(
                (dense): Linear(in_features=768, out_features=768, bias=True)
                (LayerNorm): LayerNorm((768,), eps=1e-12, elementwise_affine=True)
                (dropout): Dropout(p=0.1, inplace=False)
              )
            )
            (intermediate): BertIntermediate(
              (dense): Linear(in_features=768, out_features=3072, bias=True)
              (intermediate_act_fn): GELUActivation()
            )
            (output): BertOutput(
              (dense): Linear(in_features=3072, out_features=768, bias=True)
              (LayerNorm): LayerNorm((768,), eps=1e-12, elementwise_affine=True)
              (dropout): Dropout(p=0.1, inplace=False)
            )
          )
        )
      )
      (pooler): BertPooler(
        (dense): Linear(in_features=768, out_features=768, bias=True)
        (activation): Tanh()
      )
    )
    (dropout): Dropout(p=0.1, inplace=False)
    (classifier): Linear(in_features=768, out_features=15, bias=True)
  )
)
Trainable params: 31,527,183
Freeze params: 0
2024-03-23 21:40:52,995 - trainer - INFO -     epoch          : 1
2024-03-23 21:40:52,996 - trainer - INFO -     loss           : 1.045879
2024-03-23 21:40:52,996 - trainer - INFO -     accuracy       : 0.674848
2024-03-23 21:40:52,996 - trainer - INFO -     macro_f        : 0.64902
2024-03-23 21:40:52,997 - trainer - INFO -     precision      : 0.66411
…
