2024-04-23 00:26:08,418 - train - INFO - BiAttentionClassifyModel(
  (embedding): Embedding(232068, 300)
  (classifier): Linear(in_features=300, out_features=15, bias=True)
  (final): Linear(in_features=300, out_features=300, bias=True)
  (topic_layer): Sequential(
    (0): Linear(in_features=300, out_features=800, bias=True)
    (1): Tanh()
    (2): Linear(in_features=800, out_features=40, bias=True)
  )
  (gru): GRU(300, 300, batch_first=True)
  (projection): AttLayer(
    (attention): Sequential(
      (0): Linear(in_features=300, out_features=128, bias=True)
      (1): Tanh()
      (2): Linear(in_features=128, out_features=1, bias=True)
      (3): Flatten(start_dim=1, end_dim=-1)
      (4): Softmax(dim=-1)
    )
  )
)
Trainable params: 70,568,512
Freeze params: 0
2024-04-23 00:31:44,484 - trainer - INFO -     epoch          : 1
2024-04-23 00:31:44,484 - trainer - INFO -     loss           : 0.703777
2024-04-23 00:31:44,484 - trainer - INFO -     accuracy       : 0.764964
2024-04-23 00:31:44,484 - trainer - INFO -     macro_f        : 0.751594
…
2024-04-23 01:55:21,847 - trainer - INFO -     val_recall     : 0.790535
2024-04-23 01:55:21,847 - trainer - INFO -     val_doc_entropy: 2.867583
2024-04-23 01:55:21,847 - trainer - INFO -     test_loss      : 0.647266
2024-04-23 01:55:21,847 - trainer - INFO -     test_accuracy  : 0.79345
2024-04-23 01:55:21,847 - trainer - INFO -     test_macro_f   : 0.787489
2024-04-23 01:55:21,847 - trainer - INFO -     test_precision : 0.807659
2024-04-23 01:55:21,847 - trainer - INFO -     test_recall    : 0.79345
2024-04-23 01:55:21,847 - trainer - INFO -     test_doc_entropy: 2.868377
2024-04-23 01:58:59,835 - train - INFO - BiAttentionClassifyModel(
  (embedding): Embedding(232068, 300)
  (classifier): Linear(in_features=300, out_features=15, bias=True)
  (final): Linear(in_features=300, out_features=300, bias=True)
  (topic_layer): Sequential(
    (0): Linear(in_features=300, out_features=800, bias=True)
    (1): Tanh()
    (2): Linear(in_features=800, out_features=40, bias=True)
  )
  (projection): AttLayer(
    (attention): Sequential(
      (0): Linear(in_features=300, out_features=128, bias=True)
      (1): Tanh()
      (2): Linear(in_features=128, out_features=1, bias=True)
      (3): Flatten(start_dim=1, end_dim=-1)
      (4): Softmax(dim=-1)
    )
  )
)
Trainable params: 70,026,712
Freeze params: 0
2024-04-23 02:00:44,800 - train - INFO - BiAttentionClassifyModel(
  (embedding): Embedding(232068, 300)
  (classifier): Linear(in_features=300, out_features=15, bias=True)
  (final): Linear(in_features=300, out_features=300, bias=True)
  (topic_layer): Sequential(
    (0): Linear(in_features=300, out_features=800, bias=True)
    (1): Tanh()
    (2): Linear(in_features=800, out_features=40, bias=True)
  )
  (gru): GRU(300, 300, batch_first=True)
  (projection): AttLayer(
    (attention): Sequential(
      (0): Linear(in_features=300, out_features=128, bias=True)
      (1): Tanh()
      (2): Linear(in_features=128, out_features=1, bias=True)
      (3): Flatten(start_dim=1, end_dim=-1)
      (4): Softmax(dim=-1)
    )
  )
)
Trainable params: 70,568,512
Freeze params: 0
2024-04-23 02:06:17,526 - trainer - INFO -     epoch          : 1
2024-04-23 02:06:17,526 - trainer - INFO -     loss           : 0.703777
2024-04-23 02:06:17,526 - trainer - INFO -     accuracy       : 0.764964
2024-04-23 02:06:17,526 - trainer - INFO -     macro_f        : 0.751594
…
2024-04-23 03:08:15,220 - trainer - INFO -     val_recall     : 0.789385
2024-04-23 03:08:15,220 - trainer - INFO -     val_doc_entropy: 3.96767
2024-04-23 03:08:15,220 - trainer - INFO -     test_loss      : 0.644605
2024-04-23 03:08:15,220 - trainer - INFO -     test_accuracy  : 0.792223
2024-04-23 03:08:15,220 - trainer - INFO -     test_macro_f   : 0.787014
2024-04-23 03:08:15,220 - trainer - INFO -     test_precision : 0.811858
2024-04-23 03:08:15,220 - trainer - INFO -     test_recall    : 0.792223
2024-04-23 03:08:15,220 - trainer - INFO -     test_doc_entropy: 3.974309
2024-04-23 19:55:10,758 - train - INFO - BiAttentionClassifyModel(
  (embedding): Embedding(232068, 300)
  (classifier): Linear(in_features=300, out_features=15, bias=True)
  (final): Linear(in_features=300, out_features=300, bias=True)
  (topic_layer): Sequential(
    (0): Linear(in_features=300, out_features=800, bias=True)
    (1): Tanh()
    (2): Linear(in_features=800, out_features=40, bias=True)
  )
  (gru): GRU(300, 300, batch_first=True, bidirectional=True)
  (W_k): Linear(in_features=600, out_features=40, bias=False)
  (W_q): Linear(in_features=300, out_features=40, bias=False)
  (droputout): Dropout(p=0.2, inplace=False)
  (projection): AttLayer(
    (attention): Sequential(
      (0): Linear(in_features=300, out_features=128, bias=True)
      (1): Tanh()
      (2): Linear(in_features=128, out_features=1, bias=True)
      (3): Flatten(start_dim=1, end_dim=-1)
      (4): Softmax(dim=-1)
    )
  )
)
Trainable params: 71,146,312
Freeze params: 0
2024-04-23 20:02:04,559 - trainer - INFO -     epoch          : 1
2024-04-23 20:02:04,559 - trainer - INFO -     loss           : 1.25819
2024-04-23 20:02:04,559 - trainer - INFO -     accuracy       : 0.634848
2024-04-23 20:02:04,559 - trainer - INFO -     macro_f        : 0.559674
…
2024-04-23 20:16:50,589 - trainer - INFO -     val_recall     : 0.800046
2024-04-23 20:16:50,589 - trainer - INFO -     val_doc_entropy: 4.073044
2024-04-23 20:16:50,589 - trainer - INFO -     test_loss      : 0.564195
2024-04-23 20:16:50,589 - trainer - INFO -     test_accuracy  : 0.806489
2024-04-23 20:16:50,589 - trainer - INFO -     test_macro_f   : 0.798744
2024-04-23 20:16:50,589 - trainer - INFO -     test_precision : 0.819426
2024-04-23 20:16:50,589 - trainer - INFO -     test_recall    : 0.806489
2024-04-23 20:16:50,589 - trainer - INFO -     test_doc_entropy: 4.077896
2024-04-23 20:17:50,014 - train - INFO - BiAttentionClassifyModel(
  (embedding): Embedding(232068, 300)
  (classifier): Linear(in_features=300, out_features=15, bias=True)
  (final): Linear(in_features=300, out_features=300, bias=True)
  (topic_layer): Sequential(
    (0): Linear(in_features=300, out_features=800, bias=True)
    (1): Tanh()
    (2): Linear(in_features=800, out_features=40, bias=True)
  )
  (gru): GRU(300, 300, batch_first=True, bidirectional=True)
  (W_k): Linear(in_features=600, out_features=40, bias=False)
  (W_q): Linear(in_features=300, out_features=40, bias=False)
  (droputout): Dropout(p=0.2, inplace=False)
  (projection): AttLayer(
    (attention): Sequential(
      (0): Linear(in_features=300, out_features=128, bias=True)
      (1): Tanh()
      (2): Linear(in_features=128, out_features=1, bias=True)
      (3): Flatten(start_dim=1, end_dim=-1)
      (4): Softmax(dim=-1)
    )
  )
)
Trainable params: 71,146,312
Freeze params: 0
2024-04-24 01:16:36,061 - train - INFO - BiAttentionClassifyModel(
  (embedding): Embedding(232068, 300)
  (classifier): Linear(in_features=300, out_features=15, bias=True)
  (final): Linear(in_features=300, out_features=300, bias=True)
  (topic_layer): Sequential(
    (0): Linear(in_features=300, out_features=800, bias=True)
    (1): Tanh()
    (2): Linear(in_features=800, out_features=40, bias=True)
  )
  (rnn): GRU(300, 300, batch_first=True, bidirectional=True)
  (W_k): Linear(in_features=600, out_features=40, bias=False)
  (W_q): Linear(in_features=300, out_features=40, bias=False)
  (droputout): Dropout(p=0.5, inplace=False)
  (projection): AttLayer(
    (attention): Sequential(
      (0): Linear(in_features=300, out_features=128, bias=True)
      (1): Tanh()
      (2): Linear(in_features=128, out_features=1, bias=True)
      (3): Flatten(start_dim=1, end_dim=-1)
      (4): Softmax(dim=-1)
    )
  )
)
Trainable params: 71,146,312
Freeze params: 0
2024-04-24 01:23:33,090 - trainer - INFO -     epoch          : 1
2024-04-24 01:23:33,090 - trainer - INFO -     loss           : 0.723923
2024-04-24 01:23:33,090 - trainer - INFO -     accuracy       : 0.762347
2024-04-24 01:23:33,090 - trainer - INFO -     macro_f        : 0.746081
…
2024-04-24 02:03:16,846 - trainer - INFO -     val_recall     : 0.644731
2024-04-24 02:03:16,846 - trainer - INFO -     val_doc_entropy: 0.646097
2024-04-24 02:03:16,846 - trainer - INFO -     test_loss      : 1.210864
2024-04-24 02:03:16,846 - trainer - INFO -     test_accuracy  : 0.647492
2024-04-24 02:03:16,846 - trainer - INFO -     test_macro_f   : 0.638547
2024-04-24 02:03:16,846 - trainer - INFO -     test_precision : 0.665134
2024-04-24 02:03:16,846 - trainer - INFO -     test_recall    : 0.647492
2024-04-24 02:03:16,846 - trainer - INFO -     test_doc_entropy: 0.646348
2024-04-25 16:24:56,958 - train - INFO - BiAttentionClassifyModel(
  (embedding): Embedding(232068, 300)
  (classifier): Linear(in_features=300, out_features=15, bias=True)
  (final): Linear(in_features=300, out_features=300, bias=True)
  (topic_layer): Sequential(
    (0): Linear(in_features=300, out_features=800, bias=True)
    (1): Tanh()
    (2): Linear(in_features=800, out_features=40, bias=True)
  )
  (rnn): GRU(300, 300, batch_first=True)
  (W_k): Linear(in_features=300, out_features=40, bias=False)
  (W_q): Linear(in_features=300, out_features=40, bias=False)
  (W_v): Linear(in_features=300, out_features=40, bias=False)
  (droputout): Dropout(p=0.2, inplace=False)
  (pooling): MaxPool1d(kernel_size=3, stride=1, padding=1, dilation=1, ceil_mode=False)
  (add_norm1): AddNorm(
    (dropout): Dropout(p=0.2, inplace=False)
    (ln): LayerNorm((256, 300), eps=1e-05, elementwise_affine=True)
  )
  (projection): AttLayer(
    (attention): Sequential(
      (0): Linear(in_features=300, out_features=128, bias=True)
      (1): Tanh()
      (2): Linear(in_features=128, out_features=1, bias=True)
      (3): Flatten(start_dim=1, end_dim=-1)
      (4): Softmax(dim=-1)
    )
  )
  (conv_layers): ModuleList(
    (0): Conv2d(1, 40, kernel_size=(1, 300), stride=(1, 1))
  )
  (add_norm2): AddNorm(
    (dropout): Dropout(p=0.2, inplace=False)
    (ln): LayerNorm((256, 600), eps=1e-05, elementwise_affine=True)
  )
)
Trainable params: 71,077,352
Freeze params: 0
2024-04-25 16:32:49,336 - trainer - INFO -     epoch          : 1
2024-04-25 16:32:49,336 - trainer - INFO -     loss           : 0.731903
2024-04-25 16:32:49,336 - trainer - INFO -     accuracy       : 0.759662
2024-04-25 16:32:49,336 - trainer - INFO -     macro_f        : 0.746232
2024-04-25 16:32:49,352 - trainer - INFO -     precision      : 0.768245
…
