2024-03-25 14:47:16,905 - train - INFO - BiAttentionClassifyModel(
  (embedding): BertModel(
    (embeddings): BertEmbeddings(
      (word_embeddings): Embedding(21128, 768, padding_idx=0)
      (position_embeddings): Embedding(512, 768)
      (token_type_embeddings): Embedding(2, 768)
      (LayerNorm): LayerNorm((768,), eps=1e-12, elementwise_affine=True)
      (dropout): Dropout(p=0.1, inplace=False)
    )
    (encoder): BertEncoder(
      (layer): ModuleList(
        (0): BertLayer(
          (attention): BertAttention(
            (self): BertSelfAttention(
              (query): Linear(in_features=768, out_features=768, bias=True)
              (key): Linear(in_features=768, out_features=768, bias=True)
              (value): Linear(in_features=768, out_features=768, bias=True)
              (dropout): Dropout(p=0.1, inplace=False)
            )
            (output): BertSelfOutput(
              (dense): Linear(in_features=768, out_features=768, bias=True)
              (LayerNorm): LayerNorm((768,), eps=1e-12, elementwise_affine=True)
              (dropout): Dropout(p=0.1, inplace=False)
            )
          )
          (intermediate): BertIntermediate(
            (dense): Linear(in_features=768, out_features=3072, bias=True)
            (intermediate_act_fn): GELUActivation()
          )
          (output): BertOutput(
            (dense): Linear(in_features=3072, out_features=768, bias=True)
            (LayerNorm): LayerNorm((768,), eps=1e-12, elementwise_affine=True)
            (dropout): Dropout(p=0.1, inplace=False)
          )
        )
      )
    )
    (pooler): BertPooler(
      (dense): Linear(in_features=768, out_features=768, bias=True)
      (activation): Tanh()
    )
  )
  (classifier): Linear(in_features=768, out_features=10, bias=True)
  (final): Linear(in_features=768, out_features=768, bias=True)
  (topic_layer): Sequential(
    (0): Linear(in_features=768, out_features=1200, bias=True)
    (1): Tanh()
    (2): Linear(in_features=1200, out_features=60, bias=True)
  )
  (projection): AttLayer(
    (attention): Sequential(
      (0): Linear(in_features=768, out_features=128, bias=True)
      (1): Tanh()
      (2): Linear(in_features=128, out_features=1, bias=True)
      (3): Flatten(start_dim=1, end_dim=-1)
      (4): Softmax(dim=-1)
    )
  )
)
Trainable params: 25,992,759
Freeze params: 0
2024-03-25 14:52:44,425 - trainer - INFO -     epoch          : 1
2024-03-25 14:52:44,425 - trainer - INFO -     loss           : 0.283425
2024-03-25 14:52:44,425 - trainer - INFO -     accuracy       : 0.91374
2024-03-25 14:52:44,425 - trainer - INFO -     macro_f        : 0.912696
…
2024-03-25 15:04:07,879 - trainer - INFO -     val_doc_entropy: 3.218522
2024-03-25 15:04:07,879 - trainer - INFO -     test_loss      : 0.390322
2024-03-25 15:04:07,879 - trainer - INFO -     test_accuracy  : 0.8916
2024-03-25 15:04:07,879 - trainer - INFO -     test_macro_f   : 0.886114
2024-03-25 15:04:07,879 - trainer - INFO -     test_precision : 0.916367
2024-03-25 15:04:07,879 - trainer - INFO -     test_recall    : 0.8916
2024-03-25 15:04:07,879 - trainer - INFO -     test_doc_entropy: 3.19393
2024-03-25 15:05:03,173 - train - INFO - BiAttentionClassifyModel(
  (embedding): BertModel(
    (embeddings): BertEmbeddings(
      (word_embeddings): Embedding(21128, 768, padding_idx=0)
      (position_embeddings): Embedding(512, 768)
      (token_type_embeddings): Embedding(2, 768)
      (LayerNorm): LayerNorm((768,), eps=1e-12, elementwise_affine=True)
      (dropout): Dropout(p=0.1, inplace=False)
    )
    (encoder): BertEncoder(
      (layer): ModuleList(
        (0): BertLayer(
          (attention): BertAttention(
            (self): BertSelfAttention(
              (query): Linear(in_features=768, out_features=768, bias=True)
              (key): Linear(in_features=768, out_features=768, bias=True)
              (value): Linear(in_features=768, out_features=768, bias=True)
              (dropout): Dropout(p=0.1, inplace=False)
            )
            (output): BertSelfOutput(
              (dense): Linear(in_features=768, out_features=768, bias=True)
              (LayerNorm): LayerNorm((768,), eps=1e-12, elementwise_affine=True)
              (dropout): Dropout(p=0.1, inplace=False)
            )
          )
          (intermediate): BertIntermediate(
            (dense): Linear(in_features=768, out_features=3072, bias=True)
            (intermediate_act_fn): GELUActivation()
          )
          (output): BertOutput(
            (dense): Linear(in_features=3072, out_features=768, bias=True)
            (LayerNorm): LayerNorm((768,), eps=1e-12, elementwise_affine=True)
            (dropout): Dropout(p=0.1, inplace=False)
          )
        )
      )
    )
    (pooler): BertPooler(
      (dense): Linear(in_features=768, out_features=768, bias=True)
      (activation): Tanh()
    )
  )
  (classifier): Linear(in_features=768, out_features=10, bias=True)
  (final): Linear(in_features=768, out_features=768, bias=True)
  (topic_layer): Sequential(
    (0): Linear(in_features=768, out_features=1200, bias=True)
    (1): Tanh()
    (2): Linear(in_features=1200, out_features=60, bias=True)
  )
  (projection): AttLayer(
    (attention): Sequential(
      (0): Linear(in_features=768, out_features=128, bias=True)
      (1): Tanh()
      (2): Linear(in_features=128, out_features=1, bias=True)
      (3): Flatten(start_dim=1, end_dim=-1)
      (4): Softmax(dim=-1)
    )
  )
)
Trainable params: 25,992,759
Freeze params: 0
2024-03-26 14:57:02,807 - train - INFO - BiAttentionClassifyModel(
  (embedding): BertModel(
    (embeddings): BertEmbeddings(
      (word_embeddings): Embedding(21128, 768, padding_idx=0)
      (position_embeddings): Embedding(512, 768)
      (token_type_embeddings): Embedding(2, 768)
      (LayerNorm): LayerNorm((768,), eps=1e-12, elementwise_affine=True)
      (dropout): Dropout(p=0.1, inplace=False)
    )
    (encoder): BertEncoder(
      (layer): ModuleList(
        (0): BertLayer(
          (attention): BertAttention(
            (self): BertSelfAttention(
              (query): Linear(in_features=768, out_features=768, bias=True)
              (key): Linear(in_features=768, out_features=768, bias=True)
              (value): Linear(in_features=768, out_features=768, bias=True)
              (dropout): Dropout(p=0.1, inplace=False)
            )
            (output): BertSelfOutput(
              (dense): Linear(in_features=768, out_features=768, bias=True)
              (LayerNorm): LayerNorm((768,), eps=1e-12, elementwise_affine=True)
              (dropout): Dropout(p=0.1, inplace=False)
            )
          )
          (intermediate): BertIntermediate(
            (dense): Linear(in_features=768, out_features=3072, bias=True)
            (intermediate_act_fn): GELUActivation()
          )
          (output): BertOutput(
            (dense): Linear(in_features=3072, out_features=768, bias=True)
            (LayerNorm): LayerNorm((768,), eps=1e-12, elementwise_affine=True)
            (dropout): Dropout(p=0.1, inplace=False)
          )
        )
      )
    )
    (pooler): BertPooler(
      (dense): Linear(in_features=768, out_features=768, bias=True)
      (activation): Tanh()
    )
  )
  (classifier): Linear(in_features=768, out_features=10, bias=True)
  (final): Linear(in_features=768, out_features=768, bias=True)
  (topic_layer): Sequential(
    (0): Linear(in_features=768, out_features=3600, bias=True)
    (1): Tanh()
    (2): Linear(in_features=3600, out_features=180, bias=True)
  )
  (projection): AttLayer(
    (attention): Sequential(
      (0): Linear(in_features=768, out_features=128, bias=True)
      (1): Tanh()
      (2): Linear(in_features=128, out_features=1, bias=True)
      (3): Flatten(start_dim=1, end_dim=-1)
      (4): Softmax(dim=-1)
    )
  )
)
Trainable params: 28,414,479
Freeze params: 0
2024-03-26 14:57:21,975 - train - INFO - BiAttentionClassifyModel(
  (embedding): BertModel(
    (embeddings): BertEmbeddings(
      (word_embeddings): Embedding(21128, 768, padding_idx=0)
      (position_embeddings): Embedding(512, 768)
      (token_type_embeddings): Embedding(2, 768)
      (LayerNorm): LayerNorm((768,), eps=1e-12, elementwise_affine=True)
      (dropout): Dropout(p=0.1, inplace=False)
    )
    (encoder): BertEncoder(
      (layer): ModuleList(
        (0): BertLayer(
          (attention): BertAttention(
            (self): BertSelfAttention(
              (query): Linear(in_features=768, out_features=768, bias=True)
              (key): Linear(in_features=768, out_features=768, bias=True)
              (value): Linear(in_features=768, out_features=768, bias=True)
              (dropout): Dropout(p=0.1, inplace=False)
            )
            (output): BertSelfOutput(
              (dense): Linear(in_features=768, out_features=768, bias=True)
              (LayerNorm): LayerNorm((768,), eps=1e-12, elementwise_affine=True)
              (dropout): Dropout(p=0.1, inplace=False)
            )
          )
          (intermediate): BertIntermediate(
            (dense): Linear(in_features=768, out_features=3072, bias=True)
            (intermediate_act_fn): GELUActivation()
          )
          (output): BertOutput(
            (dense): Linear(in_features=3072, out_features=768, bias=True)
            (LayerNorm): LayerNorm((768,), eps=1e-12, elementwise_affine=True)
            (dropout): Dropout(p=0.1, inplace=False)
          )
        )
      )
    )
    (pooler): BertPooler(
      (dense): Linear(in_features=768, out_features=768, bias=True)
      (activation): Tanh()
    )
  )
  (classifier): Linear(in_features=768, out_features=10, bias=True)
  (final): Linear(in_features=768, out_features=768, bias=True)
  (topic_layer): Sequential(
    (0): Linear(in_features=768, out_features=3600, bias=True)
    (1): Tanh()
    (2): Linear(in_features=3600, out_features=180, bias=True)
  )
  (projection): AttLayer(
    (attention): Sequential(
      (0): Linear(in_features=768, out_features=128, bias=True)
      (1): Tanh()
      (2): Linear(in_features=128, out_features=1, bias=True)
      (3): Flatten(start_dim=1, end_dim=-1)
      (4): Softmax(dim=-1)
    )
  )
)
Trainable params: 28,414,479
Freeze params: 0
2024-03-26 15:03:48,157 - trainer - INFO -     epoch          : 1
2024-03-26 15:03:49,017 - trainer - INFO -     loss           : 0.304617
2024-03-26 15:03:49,017 - trainer - INFO -     accuracy       : 0.90744
2024-03-26 15:03:49,017 - trainer - INFO -     macro_f        : 0.906648
…
2024-03-26 15:30:20,335 - trainer - INFO -     val_doc_entropy: 3.079742
2024-03-26 15:30:20,335 - trainer - INFO -     test_loss      : 0.353917
2024-03-26 15:30:20,335 - trainer - INFO -     test_accuracy  : 0.9008
2024-03-26 15:30:20,335 - trainer - INFO -     test_macro_f   : 0.896878
2024-03-26 15:30:20,335 - trainer - INFO -     test_precision : 0.921828
2024-03-26 15:30:20,335 - trainer - INFO -     test_recall    : 0.9008
2024-03-26 15:30:20,335 - trainer - INFO -     test_doc_entropy: 3.067108
2024-03-26 15:31:20,182 - train - INFO - BiAttentionClassifyModel(
  (embedding): BertModel(
    (embeddings): BertEmbeddings(
      (word_embeddings): Embedding(21128, 768, padding_idx=0)
      (position_embeddings): Embedding(512, 768)
      (token_type_embeddings): Embedding(2, 768)
      (LayerNorm): LayerNorm((768,), eps=1e-12, elementwise_affine=True)
      (dropout): Dropout(p=0.1, inplace=False)
    )
    (encoder): BertEncoder(
      (layer): ModuleList(
        (0): BertLayer(
          (attention): BertAttention(
            (self): BertSelfAttention(
              (query): Linear(in_features=768, out_features=768, bias=True)
              (key): Linear(in_features=768, out_features=768, bias=True)
              (value): Linear(in_features=768, out_features=768, bias=True)
              (dropout): Dropout(p=0.1, inplace=False)
            )
            (output): BertSelfOutput(
              (dense): Linear(in_features=768, out_features=768, bias=True)
              (LayerNorm): LayerNorm((768,), eps=1e-12, elementwise_affine=True)
              (dropout): Dropout(p=0.1, inplace=False)
            )
          )
          (intermediate): BertIntermediate(
            (dense): Linear(in_features=768, out_features=3072, bias=True)
            (intermediate_act_fn): GELUActivation()
          )
          (output): BertOutput(
            (dense): Linear(in_features=3072, out_features=768, bias=True)
            (LayerNorm): LayerNorm((768,), eps=1e-12, elementwise_affine=True)
            (dropout): Dropout(p=0.1, inplace=False)
          )
        )
      )
    )
    (pooler): BertPooler(
      (dense): Linear(in_features=768, out_features=768, bias=True)
      (activation): Tanh()
    )
  )
  (classifier): Linear(in_features=768, out_features=10, bias=True)
  (final): Linear(in_features=768, out_features=768, bias=True)
  (topic_layer): Sequential(
    (0): Linear(in_features=768, out_features=3600, bias=True)
    (1): Tanh()
    (2): Linear(in_features=3600, out_features=180, bias=True)
  )
  (projection): AttLayer(
    (attention): Sequential(
      (0): Linear(in_features=768, out_features=128, bias=True)
      (1): Tanh()
      (2): Linear(in_features=128, out_features=1, bias=True)
      (3): Flatten(start_dim=1, end_dim=-1)
      (4): Softmax(dim=-1)
    )
  )
)
Trainable params: 28,414,479
Freeze params: 0
2024-03-26 15:37:58,938 - trainer - INFO -     epoch          : 1
2024-03-26 15:37:58,938 - trainer - INFO -     loss           : 0.30538
2024-03-26 15:37:58,938 - trainer - INFO -     accuracy       : 0.90666
2024-03-26 15:37:58,938 - trainer - INFO -     macro_f        : 0.905957
…
2024-03-26 17:48:33,973 - trainer - INFO -     val_doc_entropy: 3.513128
2024-03-26 17:48:33,973 - trainer - INFO -     test_loss      : 0.355237
2024-03-26 17:48:33,973 - trainer - INFO -     test_accuracy  : 0.8987
2024-03-26 17:48:33,973 - trainer - INFO -     test_macro_f   : 0.893708
2024-03-26 17:48:33,973 - trainer - INFO -     test_precision : 0.919413
2024-03-26 17:48:33,973 - trainer - INFO -     test_recall    : 0.8987
2024-03-26 17:48:33,973 - trainer - INFO -     test_doc_entropy: 3.511172
2024-04-01 12:14:03,854 - train - INFO - BiAttentionClassifyModel(
  (embedding): BertModel(
    (embeddings): BertEmbeddings(
      (word_embeddings): Embedding(21128, 768, padding_idx=0)
      (position_embeddings): Embedding(512, 768)
      (token_type_embeddings): Embedding(2, 768)
      (LayerNorm): LayerNorm((768,), eps=1e-12, elementwise_affine=True)
      (dropout): Dropout(p=0.1, inplace=False)
    )
    (encoder): BertEncoder(
      (layer): ModuleList(
        (0): BertLayer(
          (attention): BertAttention(
            (self): BertSelfAttention(
              (query): Linear(in_features=768, out_features=768, bias=True)
              (key): Linear(in_features=768, out_features=768, bias=True)
              (value): Linear(in_features=768, out_features=768, bias=True)
              (dropout): Dropout(p=0.1, inplace=False)
            )
            (output): BertSelfOutput(
              (dense): Linear(in_features=768, out_features=768, bias=True)
              (LayerNorm): LayerNorm((768,), eps=1e-12, elementwise_affine=True)
              (dropout): Dropout(p=0.1, inplace=False)
            )
          )
          (intermediate): BertIntermediate(
            (dense): Linear(in_features=768, out_features=3072, bias=True)
            (intermediate_act_fn): GELUActivation()
          )
          (output): BertOutput(
            (dense): Linear(in_features=3072, out_features=768, bias=True)
            (LayerNorm): LayerNorm((768,), eps=1e-12, elementwise_affine=True)
            (dropout): Dropout(p=0.1, inplace=False)
          )
        )
      )
    )
    (pooler): BertPooler(
      (dense): Linear(in_features=768, out_features=768, bias=True)
      (activation): Tanh()
    )
  )
  (classifier): Linear(in_features=768, out_features=10, bias=True)
  (final): Linear(in_features=768, out_features=768, bias=True)
  (topic_layer): Sequential(
    (0): Linear(in_features=768, out_features=800, bias=True)
    (1): Tanh()
    (2): Linear(in_features=800, out_features=40, bias=True)
  )
  (projection): AttLayer(
    (attention): Sequential(
      (0): Linear(in_features=768, out_features=128, bias=True)
      (1): Tanh()
      (2): Linear(in_features=128, out_features=1, bias=True)
      (3): Flatten(start_dim=1, end_dim=-1)
      (4): Softmax(dim=-1)
    )
  )
)
Trainable params: 25,645,139
Freeze params: 0
2024-04-01 12:22:58,423 - trainer - INFO -     epoch          : 1
2024-04-01 12:22:58,423 - trainer - INFO -     loss           : 0.260537
2024-04-01 12:22:58,423 - trainer - INFO -     accuracy       : 0.92156
2024-04-01 12:22:58,423 - trainer - INFO -     macro_f        : 0.9208
…
2024-04-01 14:34:07,931 - trainer - INFO -     val_doc_entropy: 4.058845
2024-04-01 14:34:07,932 - trainer - INFO -     test_loss      : 0.379657
2024-04-01 14:34:07,932 - trainer - INFO -     test_accuracy  : 0.9012
2024-04-01 14:34:07,932 - trainer - INFO -     test_macro_f   : 0.895366
2024-04-01 14:34:07,932 - trainer - INFO -     test_precision : 0.921664
2024-04-01 14:34:07,932 - trainer - INFO -     test_recall    : 0.9012
2024-04-01 14:34:07,932 - trainer - INFO -     test_doc_entropy: 4.053665
2024-04-01 14:41:06,345 - train - INFO - BiAttentionClassifyModel(
  (embedding): BertModel(
    (embeddings): BertEmbeddings(
      (word_embeddings): Embedding(21128, 768, padding_idx=0)
      (position_embeddings): Embedding(512, 768)
      (token_type_embeddings): Embedding(2, 768)
      (LayerNorm): LayerNorm((768,), eps=1e-12, elementwise_affine=True)
      (dropout): Dropout(p=0.1, inplace=False)
    )
    (encoder): BertEncoder(
      (layer): ModuleList(
        (0): BertLayer(
          (attention): BertAttention(
            (self): BertSelfAttention(
              (query): Linear(in_features=768, out_features=768, bias=True)
              (key): Linear(in_features=768, out_features=768, bias=True)
              (value): Linear(in_features=768, out_features=768, bias=True)
              (dropout): Dropout(p=0.1, inplace=False)
            )
            (output): BertSelfOutput(
              (dense): Linear(in_features=768, out_features=768, bias=True)
              (LayerNorm): LayerNorm((768,), eps=1e-12, elementwise_affine=True)
              (dropout): Dropout(p=0.1, inplace=False)
            )
          )
          (intermediate): BertIntermediate(
            (dense): Linear(in_features=768, out_features=3072, bias=True)
            (intermediate_act_fn): GELUActivation()
          )
          (output): BertOutput(
            (dense): Linear(in_features=3072, out_features=768, bias=True)
            (LayerNorm): LayerNorm((768,), eps=1e-12, elementwise_affine=True)
            (dropout): Dropout(p=0.1, inplace=False)
          )
        )
      )
    )
    (pooler): BertPooler(
      (dense): Linear(in_features=768, out_features=768, bias=True)
      (activation): Tanh()
    )
  )
  (classifier): Linear(in_features=768, out_features=10, bias=True)
  (final): Linear(in_features=768, out_features=768, bias=True)
  (topic_layer): Sequential(
    (0): Linear(in_features=768, out_features=400, bias=True)
    (1): Tanh()
    (2): Linear(in_features=400, out_features=20, bias=True)
  )
  (projection): AttLayer(
    (attention): Sequential(
      (0): Linear(in_features=768, out_features=128, bias=True)
      (1): Tanh()
      (2): Linear(in_features=128, out_features=1, bias=True)
      (3): Flatten(start_dim=1, end_dim=-1)
      (4): Softmax(dim=-1)
    )
  )
)
Trainable params: 25,313,519
Freeze params: 0
2024-04-01 14:49:47,539 - trainer - INFO -     epoch          : 1
2024-04-01 14:49:47,540 - trainer - INFO -     loss           : 0.251254
2024-04-01 14:49:47,540 - trainer - INFO -     accuracy       : 0.92522
2024-04-01 14:49:47,540 - trainer - INFO -     macro_f        : 0.924835
…
2024-04-09 23:48:28,249 - gensim.corpora.dictionary - INFO - built Dictionary<8243 unique tokens: ['%', '(', ')', '+', '-']...> from 10000 documents (total 560212 corpus positions)
2024-04-09 23:48:28,249 - gensim.utils - INFO - Dictionary lifecycle event {'msg': "built Dictionary<8243 unique tokens: ['%', '(', ')', '+', '-']...> from 10000 documents (total 560212 corpus positions)", 'datetime': '2024-04-09T23:48:28.249899', 'gensim': '4.3.2', 'python': '3.8.18 (default, Sep 11 2023, 13:39:12) [MSC v.1916 64 bit (AMD64)]', 'platform': 'Windows-10-10.0.22631-SP0', 'event': 'created'}
2024-04-23 21:15:16,302 - train - INFO - BiAttentionClassifyModel(
  (embedding): BertModel(
    (embeddings): BertEmbeddings(
      (word_embeddings): Embedding(21128, 768, padding_idx=0)
      (position_embeddings): Embedding(512, 768)
      (token_type_embeddings): Embedding(2, 768)
      (LayerNorm): LayerNorm((768,), eps=1e-12, elementwise_affine=True)
      (dropout): Dropout(p=0.1, inplace=False)
    )
    (encoder): BertEncoder(
      (layer): ModuleList(
        (0): BertLayer(
          (attention): BertAttention(
            (self): BertSelfAttention(
              (query): Linear(in_features=768, out_features=768, bias=True)
              (key): Linear(in_features=768, out_features=768, bias=True)
              (value): Linear(in_features=768, out_features=768, bias=True)
              (dropout): Dropout(p=0.1, inplace=False)
            )
            (output): BertSelfOutput(
              (dense): Linear(in_features=768, out_features=768, bias=True)
              (LayerNorm): LayerNorm((768,), eps=1e-12, elementwise_affine=True)
              (dropout): Dropout(p=0.1, inplace=False)
            )
          )
          (intermediate): BertIntermediate(
            (dense): Linear(in_features=768, out_features=3072, bias=True)
            (intermediate_act_fn): GELUActivation()
          )
          (output): BertOutput(
            (dense): Linear(in_features=3072, out_features=768, bias=True)
            (LayerNorm): LayerNorm((768,), eps=1e-12, elementwise_affine=True)
            (dropout): Dropout(p=0.1, inplace=False)
          )
        )
      )
    )
    (pooler): BertPooler(
      (dense): Linear(in_features=768, out_features=768, bias=True)
      (activation): Tanh()
    )
  )
  (classifier): Linear(in_features=768, out_features=10, bias=True)
  (final): Linear(in_features=768, out_features=768, bias=True)
  (topic_layer): Sequential(
    (0): Linear(in_features=768, out_features=800, bias=True)
    (1): Tanh()
    (2): Linear(in_features=800, out_features=40, bias=True)
  )
  (gru): GRU(768, 768, batch_first=True, bidirectional=True)
  (W_k): Linear(in_features=768, out_features=40, bias=False)
  (W_q): Linear(in_features=768, out_features=40, bias=False)
  (droputout): Dropout(p=0.2, inplace=False)
  (projection): AttLayer(
    (attention): Sequential(
      (0): Linear(in_features=768, out_features=128, bias=True)
      (1): Tanh()
      (2): Linear(in_features=128, out_features=1, bias=True)
      (3): Flatten(start_dim=1, end_dim=-1)
      (4): Softmax(dim=-1)
    )
  )
)
Trainable params: 32,793,683
Freeze params: 0
2024-04-23 21:15:55,393 - train - INFO - BiAttentionClassifyModel(
  (embedding): BertModel(
    (embeddings): BertEmbeddings(
      (word_embeddings): Embedding(21128, 768, padding_idx=0)
      (position_embeddings): Embedding(512, 768)
      (token_type_embeddings): Embedding(2, 768)
      (LayerNorm): LayerNorm((768,), eps=1e-12, elementwise_affine=True)
      (dropout): Dropout(p=0.1, inplace=False)
    )
    (encoder): BertEncoder(
      (layer): ModuleList(
        (0): BertLayer(
          (attention): BertAttention(
            (self): BertSelfAttention(
              (query): Linear(in_features=768, out_features=768, bias=True)
              (key): Linear(in_features=768, out_features=768, bias=True)
              (value): Linear(in_features=768, out_features=768, bias=True)
              (dropout): Dropout(p=0.1, inplace=False)
            )
            (output): BertSelfOutput(
              (dense): Linear(in_features=768, out_features=768, bias=True)
              (LayerNorm): LayerNorm((768,), eps=1e-12, elementwise_affine=True)
              (dropout): Dropout(p=0.1, inplace=False)
            )
          )
          (intermediate): BertIntermediate(
            (dense): Linear(in_features=768, out_features=3072, bias=True)
            (intermediate_act_fn): GELUActivation()
          )
          (output): BertOutput(
            (dense): Linear(in_features=3072, out_features=768, bias=True)
            (LayerNorm): LayerNorm((768,), eps=1e-12, elementwise_affine=True)
            (dropout): Dropout(p=0.1, inplace=False)
          )
        )
      )
    )
    (pooler): BertPooler(
      (dense): Linear(in_features=768, out_features=768, bias=True)
      (activation): Tanh()
    )
  )
  (classifier): Linear(in_features=768, out_features=10, bias=True)
  (final): Linear(in_features=768, out_features=768, bias=True)
  (topic_layer): Sequential(
    (0): Linear(in_features=768, out_features=800, bias=True)
    (1): Tanh()
    (2): Linear(in_features=800, out_features=40, bias=True)
  )
  (gru): GRU(768, 768, batch_first=True, bidirectional=True)
  (W_k): Linear(in_features=1536, out_features=40, bias=False)
  (W_q): Linear(in_features=768, out_features=40, bias=False)
  (droputout): Dropout(p=0.2, inplace=False)
  (projection): AttLayer(
    (attention): Sequential(
      (0): Linear(in_features=768, out_features=128, bias=True)
      (1): Tanh()
      (2): Linear(in_features=128, out_features=1, bias=True)
      (3): Flatten(start_dim=1, end_dim=-1)
      (4): Softmax(dim=-1)
    )
  )
)
Trainable params: 32,824,403
Freeze params: 0
2024-04-23 21:30:56,130 - trainer - INFO -     epoch          : 1
2024-04-23 21:30:56,130 - trainer - INFO -     loss           : 0.221365
2024-04-23 21:30:56,130 - trainer - INFO -     accuracy       : 0.93594
2024-04-23 21:30:56,130 - trainer - INFO -     macro_f        : 0.934979
…
2024-04-23 21:46:09,463 - trainer - INFO -     val_doc_entropy: 3.687605
2024-04-23 21:46:09,463 - trainer - INFO -     test_loss      : 0.156356
2024-04-23 21:46:09,463 - trainer - INFO -     test_accuracy  : 0.9531
2024-04-23 21:46:09,463 - trainer - INFO -     test_macro_f   : 0.952574
2024-04-23 21:46:09,463 - trainer - INFO -     test_precision : 0.965183
2024-04-23 21:46:09,463 - trainer - INFO -     test_recall    : 0.9531
2024-04-23 21:46:09,463 - trainer - INFO -     test_doc_entropy: 3.67217
2024-04-23 21:48:07,078 - train - INFO - BiAttentionClassifyModel(
  (embedding): BertModel(
    (embeddings): BertEmbeddings(
      (word_embeddings): Embedding(21128, 768, padding_idx=0)
      (position_embeddings): Embedding(512, 768)
      (token_type_embeddings): Embedding(2, 768)
      (LayerNorm): LayerNorm((768,), eps=1e-12, elementwise_affine=True)
      (dropout): Dropout(p=0.1, inplace=False)
    )
    (encoder): BertEncoder(
      (layer): ModuleList(
        (0): BertLayer(
          (attention): BertAttention(
            (self): BertSelfAttention(
              (query): Linear(in_features=768, out_features=768, bias=True)
              (key): Linear(in_features=768, out_features=768, bias=True)
              (value): Linear(in_features=768, out_features=768, bias=True)
              (dropout): Dropout(p=0.1, inplace=False)
            )
            (output): BertSelfOutput(
              (dense): Linear(in_features=768, out_features=768, bias=True)
              (LayerNorm): LayerNorm((768,), eps=1e-12, elementwise_affine=True)
              (dropout): Dropout(p=0.1, inplace=False)
            )
          )
          (intermediate): BertIntermediate(
            (dense): Linear(in_features=768, out_features=3072, bias=True)
            (intermediate_act_fn): GELUActivation()
          )
          (output): BertOutput(
            (dense): Linear(in_features=3072, out_features=768, bias=True)
            (LayerNorm): LayerNorm((768,), eps=1e-12, elementwise_affine=True)
            (dropout): Dropout(p=0.1, inplace=False)
          )
        )
      )
    )
    (pooler): BertPooler(
      (dense): Linear(in_features=768, out_features=768, bias=True)
      (activation): Tanh()
    )
  )
  (classifier): Linear(in_features=768, out_features=10, bias=True)
  (final): Linear(in_features=768, out_features=768, bias=True)
  (topic_layer): Sequential(
    (0): Linear(in_features=768, out_features=800, bias=True)
    (1): Tanh()
    (2): Linear(in_features=800, out_features=40, bias=True)
  )
  (gru): GRU(768, 768, batch_first=True, bidirectional=True)
  (W_k): Linear(in_features=1536, out_features=40, bias=False)
  (W_q): Linear(in_features=768, out_features=40, bias=False)
  (droputout): Dropout(p=0.2, inplace=False)
  (projection): AttLayer(
    (attention): Sequential(
      (0): Linear(in_features=768, out_features=128, bias=True)
      (1): Tanh()
      (2): Linear(in_features=128, out_features=1, bias=True)
      (3): Flatten(start_dim=1, end_dim=-1)
      (4): Softmax(dim=-1)
    )
  )
)
Trainable params: 32,824,403
Freeze params: 0
2024-04-26 22:29:50,083 - train - INFO - BiAttentionClassifyModel(
  (embedding): BertModel(
    (embeddings): BertEmbeddings(
      (word_embeddings): Embedding(21128, 1024, padding_idx=0)
      (position_embeddings): Embedding(512, 1024)
      (token_type_embeddings): Embedding(2, 1024)
      (LayerNorm): LayerNorm((1024,), eps=1e-12, elementwise_affine=True)
      (dropout): Dropout(p=0.1, inplace=False)
    )
    (encoder): BertEncoder(
      (layer): ModuleList(
        (0): BertLayer(
          (attention): BertAttention(
            (self): BertSelfAttention(
              (query): Linear(in_features=1024, out_features=1024, bias=True)
              (key): Linear(in_features=1024, out_features=1024, bias=True)
              (value): Linear(in_features=1024, out_features=1024, bias=True)
              (dropout): Dropout(p=0.1, inplace=False)
            )
            (output): BertSelfOutput(
              (dense): Linear(in_features=1024, out_features=1024, bias=True)
              (LayerNorm): LayerNorm((1024,), eps=1e-12, elementwise_affine=True)
              (dropout): Dropout(p=0.1, inplace=False)
            )
          )
          (intermediate): BertIntermediate(
            (dense): Linear(in_features=1024, out_features=4096, bias=True)
            (intermediate_act_fn): GELUActivation()
          )
          (output): BertOutput(
            (dense): Linear(in_features=4096, out_features=1024, bias=True)
            (LayerNorm): LayerNorm((1024,), eps=1e-12, elementwise_affine=True)
            (dropout): Dropout(p=0.1, inplace=False)
          )
        )
      )
    )
    (pooler): BertPooler(
      (dense): Linear(in_features=1024, out_features=1024, bias=True)
      (activation): Tanh()
    )
  )
  (classifier): Linear(in_features=1024, out_features=10, bias=True)
  (final): Linear(in_features=1024, out_features=1024, bias=True)
  (topic_layer): Sequential(
    (0): Linear(in_features=1024, out_features=800, bias=True)
    (1): Tanh()
    (2): Linear(in_features=800, out_features=40, bias=True)
  )
  (projection): AttLayer(
    (attention): Sequential(
      (0): Linear(in_features=1024, out_features=128, bias=True)
      (1): Tanh()
      (2): Linear(in_features=128, out_features=1, bias=True)
      (3): Flatten(start_dim=1, end_dim=-1)
      (4): Softmax(dim=-1)
    )
  )
)
Trainable params: 37,852,499
Freeze params: 0
2024-04-26 22:42:49,505 - trainer - INFO -     epoch          : 1
2024-04-26 22:42:49,505 - trainer - INFO -     loss           : 0.226918
2024-04-26 22:42:49,505 - trainer - INFO -     accuracy       : 0.9332
2024-04-26 22:42:49,505 - trainer - INFO -     macro_f        : 0.931465
…
2024-04-26 23:09:01,236 - trainer - INFO -     val_doc_entropy: 3.895127
2024-04-26 23:09:01,237 - trainer - INFO -     test_loss      : 0.198041
2024-04-26 23:09:01,237 - trainer - INFO -     test_accuracy  : 0.9508
2024-04-26 23:09:01,237 - trainer - INFO -     test_macro_f   : 0.950081
2024-04-26 23:09:01,237 - trainer - INFO -     test_precision : 0.963547
2024-04-26 23:09:01,237 - trainer - INFO -     test_recall    : 0.9508
2024-04-26 23:09:01,237 - trainer - INFO -     test_doc_entropy: 3.904067
2024-04-26 23:10:36,427 - train - INFO - BiAttentionClassifyModel(
  (embedding): BertModel(
    (embeddings): BertEmbeddings(
      (word_embeddings): Embedding(21128, 1024, padding_idx=0)
      (position_embeddings): Embedding(512, 1024)
      (token_type_embeddings): Embedding(2, 1024)
      (LayerNorm): LayerNorm((1024,), eps=1e-12, elementwise_affine=True)
      (dropout): Dropout(p=0.1, inplace=False)
    )
    (encoder): BertEncoder(
      (layer): ModuleList(
        (0): BertLayer(
          (attention): BertAttention(
            (self): BertSelfAttention(
              (query): Linear(in_features=1024, out_features=1024, bias=True)
              (key): Linear(in_features=1024, out_features=1024, bias=True)
              (value): Linear(in_features=1024, out_features=1024, bias=True)
              (dropout): Dropout(p=0.1, inplace=False)
            )
            (output): BertSelfOutput(
              (dense): Linear(in_features=1024, out_features=1024, bias=True)
              (LayerNorm): LayerNorm((1024,), eps=1e-12, elementwise_affine=True)
              (dropout): Dropout(p=0.1, inplace=False)
            )
          )
          (intermediate): BertIntermediate(
            (dense): Linear(in_features=1024, out_features=4096, bias=True)
            (intermediate_act_fn): GELUActivation()
          )
          (output): BertOutput(
            (dense): Linear(in_features=4096, out_features=1024, bias=True)
            (LayerNorm): LayerNorm((1024,), eps=1e-12, elementwise_affine=True)
            (dropout): Dropout(p=0.1, inplace=False)
          )
        )
      )
    )
    (pooler): BertPooler(
      (dense): Linear(in_features=1024, out_features=1024, bias=True)
      (activation): Tanh()
    )
  )
  (classifier): Linear(in_features=1024, out_features=10, bias=True)
  (final): Linear(in_features=1024, out_features=1024, bias=True)
  (topic_layer): Sequential(
    (0): Linear(in_features=1024, out_features=800, bias=True)
    (1): Tanh()
    (2): Linear(in_features=800, out_features=40, bias=True)
  )
  (projection): AttLayer(
    (attention): Sequential(
      (0): Linear(in_features=1024, out_features=128, bias=True)
      (1): Tanh()
      (2): Linear(in_features=128, out_features=1, bias=True)
      (3): Flatten(start_dim=1, end_dim=-1)
      (4): Softmax(dim=-1)
    )
  )
)
Trainable params: 37,852,499
Freeze params: 0
2024-04-26 23:23:47,959 - trainer - INFO -     epoch          : 1
2024-04-26 23:23:48,831 - trainer - INFO -     loss           : 0.227411
2024-04-26 23:23:48,831 - trainer - INFO -     accuracy       : 0.93388
2024-04-26 23:23:48,831 - trainer - INFO -     macro_f        : 0.932618
…
2024-04-27 01:53:13,802 - trainer - INFO -     val_doc_entropy: 4.196583
2024-04-27 01:53:13,802 - trainer - INFO -     test_loss      : 0.211323
2024-04-27 01:53:13,802 - trainer - INFO -     test_accuracy  : 0.9445
2024-04-27 01:53:13,802 - trainer - INFO -     test_macro_f   : 0.943623
2024-04-27 01:53:13,802 - trainer - INFO -     test_precision : 0.959004
2024-04-27 01:53:13,802 - trainer - INFO -     test_recall    : 0.9445
2024-04-27 01:53:13,802 - trainer - INFO -     test_doc_entropy: 4.191624
2024-05-02 13:35:44,224 - train - INFO - BiAttentionClassifyModel(
  (embedding): BertModel(
    (embeddings): BertEmbeddings(
      (word_embeddings): Embedding(21128, 768, padding_idx=0)
      (position_embeddings): Embedding(512, 768)
      (token_type_embeddings): Embedding(2, 768)
      (LayerNorm): LayerNorm((768,), eps=1e-12, elementwise_affine=True)
      (dropout): Dropout(p=0.1, inplace=False)
    )
    (encoder): BertEncoder(
      (layer): ModuleList(
        (0): BertLayer(
          (attention): BertAttention(
            (self): BertSelfAttention(
              (query): Linear(in_features=768, out_features=768, bias=True)
              (key): Linear(in_features=768, out_features=768, bias=True)
              (value): Linear(in_features=768, out_features=768, bias=True)
              (dropout): Dropout(p=0.1, inplace=False)
            )
            (output): BertSelfOutput(
              (dense): Linear(in_features=768, out_features=768, bias=True)
              (LayerNorm): LayerNorm((768,), eps=1e-12, elementwise_affine=True)
              (dropout): Dropout(p=0.1, inplace=False)
            )
          )
          (intermediate): BertIntermediate(
            (dense): Linear(in_features=768, out_features=3072, bias=True)
            (intermediate_act_fn): GELUActivation()
          )
          (output): BertOutput(
            (dense): Linear(in_features=3072, out_features=768, bias=True)
            (LayerNorm): LayerNorm((768,), eps=1e-12, elementwise_affine=True)
            (dropout): Dropout(p=0.1, inplace=False)
          )
        )
      )
    )
    (pooler): BertPooler(
      (dense): Linear(in_features=768, out_features=768, bias=True)
      (activation): Tanh()
    )
  )
  (classifier): Linear(in_features=768, out_features=10, bias=True)
  (final): Linear(in_features=768, out_features=768, bias=True)
  (topic_layer): Sequential(
    (0): Linear(in_features=768, out_features=1000, bias=True)
    (1): Tanh()
    (2): Linear(in_features=1000, out_features=50, bias=True)
  )
  (rnn): GRUWithAttention(
    (gru): GRU(768, 768)
    (lstm): LSTM(768, 768)
  )
  (W_k): Linear(in_features=768, out_features=50, bias=False)
  (W_q): Linear(in_features=768, out_features=50, bias=False)
  (W_v): Linear(in_features=768, out_features=50, bias=False)
  (droputout1): Dropout(p=0.2, inplace=False)
  (pooling): MaxPool1d(kernel_size=3, stride=1, padding=1, dilation=1, ceil_mode=False)
  (add_norm1): AddNorm(
    (dropout1): Dropout(p=0.2, inplace=False)
    (dropout2): Dropout(p=0.2, inplace=False)
    (ln): LayerNorm((50, 256), eps=1e-05, elementwise_affine=True)
  )
  (projection): AttLayer(
    (attention): Sequential(
      (0): Linear(in_features=768, out_features=64, bias=True)
      (1): Tanh()
      (2): Linear(in_features=64, out_features=1, bias=True)
      (3): Flatten(start_dim=1, end_dim=-1)
      (4): Softmax(dim=-1)
    )
  )
)
Trainable params: 34,176,757
Freeze params: 0
2024-05-02 13:47:35,197 - trainer - INFO -     epoch          : 1
2024-05-02 13:47:35,197 - trainer - INFO -     loss           : 0.239379
2024-05-02 13:47:35,197 - trainer - INFO -     accuracy       : 0.92734
2024-05-02 13:47:35,197 - trainer - INFO -     macro_f        : 0.925935
…
2024-05-02 15:41:28,382 - trainer - INFO -     val_doc_entropy: 4.863386
2024-05-02 15:41:28,382 - trainer - INFO -     test_loss      : 0.219414
2024-05-02 15:41:28,382 - trainer - INFO -     test_accuracy  : 0.931
2024-05-02 15:41:28,382 - trainer - INFO -     test_macro_f   : 0.928523
2024-05-02 15:41:28,382 - trainer - INFO -     test_precision : 0.946506
2024-05-02 15:41:28,382 - trainer - INFO -     test_recall    : 0.931
2024-05-02 15:41:28,382 - trainer - INFO -     test_doc_entropy: 4.868457
2024-05-03 03:08:49,770 - train - INFO - BiAttentionClassifyModel(
  (embedding): BertModel(
    (embeddings): BertEmbeddings(
      (word_embeddings): Embedding(21128, 1024, padding_idx=0)
      (position_embeddings): Embedding(512, 1024)
      (token_type_embeddings): Embedding(2, 1024)
      (LayerNorm): LayerNorm((1024,), eps=1e-12, elementwise_affine=True)
      (dropout): Dropout(p=0.1, inplace=False)
    )
    (encoder): BertEncoder(
      (layer): ModuleList(
        (0): BertLayer(
          (attention): BertAttention(
            (self): BertSelfAttention(
              (query): Linear(in_features=1024, out_features=1024, bias=True)
              (key): Linear(in_features=1024, out_features=1024, bias=True)
              (value): Linear(in_features=1024, out_features=1024, bias=True)
              (dropout): Dropout(p=0.1, inplace=False)
            )
            (output): BertSelfOutput(
              (dense): Linear(in_features=1024, out_features=1024, bias=True)
              (LayerNorm): LayerNorm((1024,), eps=1e-12, elementwise_affine=True)
              (dropout): Dropout(p=0.1, inplace=False)
            )
          )
          (intermediate): BertIntermediate(
            (dense): Linear(in_features=1024, out_features=4096, bias=True)
            (intermediate_act_fn): GELUActivation()
          )
          (output): BertOutput(
            (dense): Linear(in_features=4096, out_features=1024, bias=True)
            (LayerNorm): LayerNorm((1024,), eps=1e-12, elementwise_affine=True)
            (dropout): Dropout(p=0.1, inplace=False)
          )
        )
      )
    )
    (pooler): BertPooler(
      (dense): Linear(in_features=1024, out_features=1024, bias=True)
      (activation): Tanh()
    )
  )
  (classifier): Linear(in_features=1024, out_features=10, bias=True)
  (final): Linear(in_features=1024, out_features=1024, bias=True)
  (topic_layer): Sequential(
    (0): Linear(in_features=1024, out_features=1200, bias=True)
    (1): Tanh()
    (2): Linear(in_features=1200, out_features=60, bias=True)
  )
  (rnn): GRUWithAttention(
    (gru): GRU(1024, 1024)
    (lstm): LSTM(1024, 1024)
  )
  (W_k): Linear(in_features=1024, out_features=60, bias=False)
  (W_q): Linear(in_features=1024, out_features=60, bias=False)
  (W_v): Linear(in_features=1024, out_features=60, bias=False)
  (droputout1): Dropout(p=0.2, inplace=False)
  (pooling): MaxPool1d(kernel_size=3, stride=1, padding=1, dilation=1, ceil_mode=False)
  (add_norm1): AddNorm(
    (dropout1): Dropout(p=0.2, inplace=False)
    (dropout2): Dropout(p=0.2, inplace=False)
    (ln): LayerNorm((60, 256), eps=1e-05, elementwise_affine=True)
  )
  (projection): AttLayer(
    (attention): Sequential(
      (0): Linear(in_features=1024, out_features=64, bias=True)
      (1): Tanh()
      (2): Linear(in_features=64, out_features=1, bias=True)
      (3): Flatten(start_dim=1, end_dim=-1)
      (4): Softmax(dim=-1)
    )
  )
)
Trainable params: 53,146,295
Freeze params: 0
2024-05-03 03:26:36,151 - trainer - INFO -     epoch          : 1
2024-05-03 03:26:36,151 - trainer - INFO -     loss           : 0.236741
2024-05-03 03:26:36,151 - trainer - INFO -     accuracy       : 0.92814
2024-05-03 03:26:36,151 - trainer - INFO -     macro_f        : 0.926703
…
2024-05-03 04:21:55,199 - trainer - INFO -     val_doc_entropy: 4.827314
2024-05-03 04:21:55,199 - trainer - INFO -     test_loss      : 0.216537
2024-05-03 04:21:55,199 - trainer - INFO -     test_accuracy  : 0.9366
2024-05-03 04:21:55,199 - trainer - INFO -     test_macro_f   : 0.934074
2024-05-03 04:21:55,199 - trainer - INFO -     test_precision : 0.951672
2024-05-03 04:21:55,199 - trainer - INFO -     test_recall    : 0.9366
2024-05-03 04:21:55,199 - trainer - INFO -     test_doc_entropy: 4.819316
2024-05-03 04:23:57,231 - train - INFO - BiAttentionClassifyModel(
  (embedding): BertModel(
    (embeddings): BertEmbeddings(
      (word_embeddings): Embedding(21128, 1024, padding_idx=0)
      (position_embeddings): Embedding(512, 1024)
      (token_type_embeddings): Embedding(2, 1024)
      (LayerNorm): LayerNorm((1024,), eps=1e-12, elementwise_affine=True)
      (dropout): Dropout(p=0.1, inplace=False)
    )
    (encoder): BertEncoder(
      (layer): ModuleList(
        (0): BertLayer(
          (attention): BertAttention(
            (self): BertSelfAttention(
              (query): Linear(in_features=1024, out_features=1024, bias=True)
              (key): Linear(in_features=1024, out_features=1024, bias=True)
              (value): Linear(in_features=1024, out_features=1024, bias=True)
              (dropout): Dropout(p=0.1, inplace=False)
            )
            (output): BertSelfOutput(
              (dense): Linear(in_features=1024, out_features=1024, bias=True)
              (LayerNorm): LayerNorm((1024,), eps=1e-12, elementwise_affine=True)
              (dropout): Dropout(p=0.1, inplace=False)
            )
          )
          (intermediate): BertIntermediate(
            (dense): Linear(in_features=1024, out_features=4096, bias=True)
            (intermediate_act_fn): GELUActivation()
          )
          (output): BertOutput(
            (dense): Linear(in_features=4096, out_features=1024, bias=True)
            (LayerNorm): LayerNorm((1024,), eps=1e-12, elementwise_affine=True)
            (dropout): Dropout(p=0.1, inplace=False)
          )
        )
      )
    )
    (pooler): BertPooler(
      (dense): Linear(in_features=1024, out_features=1024, bias=True)
      (activation): Tanh()
    )
  )
  (classifier): Linear(in_features=1024, out_features=10, bias=True)
  (final): Linear(in_features=1024, out_features=1024, bias=True)
  (topic_layer): Sequential(
    (0): Linear(in_features=1024, out_features=1200, bias=True)
    (1): Tanh()
    (2): Linear(in_features=1200, out_features=60, bias=True)
  )
  (rnn): GRUWithAttention(
    (gru): GRU(1024, 1024)
    (lstm): LSTM(1024, 1024)
  )
  (W_k): Linear(in_features=1024, out_features=60, bias=False)
  (W_q): Linear(in_features=1024, out_features=60, bias=False)
  (W_v): Linear(in_features=1024, out_features=60, bias=False)
  (droputout1): Dropout(p=0.2, inplace=False)
  (pooling): MaxPool1d(kernel_size=3, stride=1, padding=1, dilation=1, ceil_mode=False)
  (add_norm1): AddNorm(
    (dropout1): Dropout(p=0.2, inplace=False)
    (dropout2): Dropout(p=0.2, inplace=False)
    (ln): LayerNorm((60, 256), eps=1e-05, elementwise_affine=True)
  )
  (projection): AttLayer(
    (attention): Sequential(
      (0): Linear(in_features=1024, out_features=64, bias=True)
      (1): Tanh()
      (2): Linear(in_features=64, out_features=1, bias=True)
      (3): Flatten(start_dim=1, end_dim=-1)
      (4): Softmax(dim=-1)
    )
  )
)
Trainable params: 53,146,295
Freeze params: 0
2024-05-03 09:53:13,626 - train - INFO - BiAttentionClassifyModel(
  (embedding): BertModel(
    (embeddings): BertEmbeddings(
      (word_embeddings): Embedding(21128, 1024, padding_idx=0)
      (position_embeddings): Embedding(512, 1024)
      (token_type_embeddings): Embedding(2, 1024)
      (LayerNorm): LayerNorm((1024,), eps=1e-12, elementwise_affine=True)
      (dropout): Dropout(p=0.1, inplace=False)
    )
    (encoder): BertEncoder(
      (layer): ModuleList(
        (0): BertLayer(
          (attention): BertAttention(
            (self): BertSelfAttention(
              (query): Linear(in_features=1024, out_features=1024, bias=True)
              (key): Linear(in_features=1024, out_features=1024, bias=True)
              (value): Linear(in_features=1024, out_features=1024, bias=True)
              (dropout): Dropout(p=0.1, inplace=False)
            )
            (output): BertSelfOutput(
              (dense): Linear(in_features=1024, out_features=1024, bias=True)
              (LayerNorm): LayerNorm((1024,), eps=1e-12, elementwise_affine=True)
              (dropout): Dropout(p=0.1, inplace=False)
            )
          )
          (intermediate): BertIntermediate(
            (dense): Linear(in_features=1024, out_features=4096, bias=True)
            (intermediate_act_fn): GELUActivation()
          )
          (output): BertOutput(
            (dense): Linear(in_features=4096, out_features=1024, bias=True)
            (LayerNorm): LayerNorm((1024,), eps=1e-12, elementwise_affine=True)
            (dropout): Dropout(p=0.1, inplace=False)
          )
        )
      )
    )
    (pooler): BertPooler(
      (dense): Linear(in_features=1024, out_features=1024, bias=True)
      (activation): Tanh()
    )
  )
  (classifier): Linear(in_features=1024, out_features=10, bias=True)
  (final): Linear(in_features=1024, out_features=1024, bias=True)
  (topic_layer): Sequential(
    (0): Linear(in_features=1024, out_features=1200, bias=True)
    (1): Tanh()
    (2): Linear(in_features=1200, out_features=60, bias=True)
  )
  (rnn): GRUWithAttention(
    (gru): GRU(1024, 1024)
    (lstm): LSTM(1024, 1024)
  )
  (W_k): Linear(in_features=1024, out_features=60, bias=False)
  (W_q): Linear(in_features=1024, out_features=60, bias=False)
  (W_v): Linear(in_features=1024, out_features=60, bias=False)
  (droputout1): Dropout(p=0.2, inplace=False)
  (pooling): MaxPool1d(kernel_size=3, stride=1, padding=1, dilation=1, ceil_mode=False)
  (add_norm1): AddNorm(
    (dropout1): Dropout(p=0.2, inplace=False)
    (dropout2): Dropout(p=0.2, inplace=False)
    (ln): LayerNorm((60, 256), eps=1e-05, elementwise_affine=True)
  )
  (projection): AttLayer(
    (attention): Sequential(
      (0): Linear(in_features=1024, out_features=64, bias=True)
      (1): Tanh()
      (2): Linear(in_features=64, out_features=1, bias=True)
      (3): Flatten(start_dim=1, end_dim=-1)
      (4): Softmax(dim=-1)
    )
  )
)
Trainable params: 53,146,295
Freeze params: 0
2024-05-03 10:10:47,252 - trainer - INFO -     epoch          : 1
2024-05-03 10:10:47,252 - trainer - INFO -     loss           : 0.237781
2024-05-03 10:10:47,252 - trainer - INFO -     accuracy       : 0.92678
2024-05-03 10:10:47,252 - trainer - INFO -     macro_f        : 0.925266
…
