2024-02-26 11:44:05,779 - root - INFO - This model has 1 poolers.
2024-02-26 11:44:06,235 - train - INFO - FastformerClassifyModel(
  (embedding): Embedding(232068, 300)
  (classifier): Linear(in_features=300, out_features=15, bias=True)
  (fastformer_model): FastformerEncoder(
    (encoders): ModuleList(
      (0-1): 2 x FastformerLayer(
        (attention): FastAttention(
          (self): FastSelfAttention(
            (query): Linear(in_features=300, out_features=300, bias=True)
            (query_att): Linear(in_features=300, out_features=15, bias=True)
            (key): Linear(in_features=300, out_features=300, bias=True)
            (key_att): Linear(in_features=300, out_features=15, bias=True)
            (transform): Linear(in_features=300, out_features=300, bias=True)
            (softmax): Softmax(dim=-1)
          )
          (output): BertSelfOutput(
            (dense): Linear(in_features=300, out_features=300, bias=True)
            (LayerNorm): LayerNorm((300,), eps=1e-12, elementwise_affine=True)
            (dropout): Dropout(p=0.2, inplace=False)
          )
        )
        (intermediate): BertIntermediate(
          (dense): Linear(in_features=300, out_features=300, bias=True)
          (intermediate_act_fn): GELUActivation()
        )
        (output): BertOutput(
          (dense): Linear(in_features=300, out_features=300, bias=True)
          (LayerNorm): LayerNorm((300,), eps=1e-12, elementwise_affine=True)
          (dropout): Dropout(p=0.2, inplace=False)
        )
      )
    )
    (position_embeddings): Embedding(100, 300)
    (LayerNorm): LayerNorm((300,), eps=1e-12, elementwise_affine=True)
    (dropout): Dropout(p=0.2, inplace=False)
    (poolers): ModuleList(
      (0): AttentionPooling(
        (att_fc1): Linear(in_features=300, out_features=300, bias=True)
        (att_fc2): Linear(in_features=300, out_features=1, bias=True)
      )
    )
  )
)
Trainable params: 70,850,176
Freeze params: 0
2024-02-26 11:47:27,180 - trainer - INFO -     epoch          : 1
2024-02-26 11:47:27,180 - trainer - INFO -     loss           : 0.834352
2024-02-26 11:47:27,180 - trainer - INFO -     accuracy       : 0.731301
2024-02-26 11:47:27,180 - trainer - INFO -     macro_f        : 0.507939
2024-02-26 11:47:27,180 - trainer - INFO -     val_loss       : 0.701282
…
2024-04-08 21:14:07,389 - trainer - INFO -     val_precision  : 0.793056
2024-04-08 21:14:07,389 - trainer - INFO -     val_recall     : 0.773432
2024-04-08 21:14:07,389 - trainer - INFO -     test_loss      : 0.744494
2024-04-08 21:14:07,389 - trainer - INFO -     test_accuracy  : 0.779491
2024-04-08 21:14:07,389 - trainer - INFO -     test_macro_f   : 0.77369
2024-04-08 21:14:07,389 - trainer - INFO -     test_precision : 0.797524
2024-04-08 21:14:07,389 - trainer - INFO -     test_recall    : 0.779491
2024-04-08 22:52:37,135 - root - INFO - This model has 1 poolers.
2024-04-08 22:52:37,510 - train - INFO - FastformerClassifyModel(
  (embedding): Embedding(232068, 300)
  (classifier): Linear(in_features=300, out_features=15, bias=True)
  (fastformer_model): FastformerEncoder(
    (encoders): ModuleList(
      (0-1): 2 x FastformerLayer(
        (attention): FastAttention(
          (self): FastSelfAttention(
            (query): Linear(in_features=300, out_features=300, bias=True)
            (query_att): Linear(in_features=300, out_features=15, bias=True)
            (key): Linear(in_features=300, out_features=300, bias=True)
            (key_att): Linear(in_features=300, out_features=15, bias=True)
            (transform): Linear(in_features=300, out_features=300, bias=True)
            (softmax): Softmax(dim=-1)
          )
          (output): BertSelfOutput(
            (dense): Linear(in_features=300, out_features=300, bias=True)
            (LayerNorm): LayerNorm((300,), eps=1e-12, elementwise_affine=True)
            (dropout): Dropout(p=0.2, inplace=False)
          )
        )
        (intermediate): BertIntermediate(
          (dense): Linear(in_features=300, out_features=300, bias=True)
          (intermediate_act_fn): GELUActivation()
        )
        (output): BertOutput(
          (dense): Linear(in_features=300, out_features=300, bias=True)
          (LayerNorm): LayerNorm((300,), eps=1e-12, elementwise_affine=True)
          (dropout): Dropout(p=0.2, inplace=False)
        )
      )
    )
    (position_embeddings): Embedding(256, 300)
    (LayerNorm): LayerNorm((300,), eps=1e-12, elementwise_affine=True)
    (dropout): Dropout(p=0.2, inplace=False)
    (poolers): ModuleList(
      (0): AttentionPooling(
        (att_fc1): Linear(in_features=300, out_features=300, bias=True)
        (att_fc2): Linear(in_features=300, out_features=1, bias=True)
      )
    )
  )
)
Trainable params: 70,896,976
Freeze params: 0
2024-04-08 22:57:59,918 - trainer - INFO -     epoch          : 1
2024-04-08 22:57:59,918 - trainer - INFO -     loss           : 0.772611
2024-04-08 22:57:59,918 - trainer - INFO -     accuracy       : 0.746661
2024-04-08 22:57:59,918 - trainer - INFO -     macro_f        : 0.731496
2024-04-08 22:57:59,918 - trainer - INFO -     precision      : 0.752556
…
