2024-03-25 17:47:58,197 - train - INFO - BiAttentionClassifyModel(
  (embedding): BertModel(
    (embeddings): BertEmbeddings(
      (word_embeddings): Embedding(21128, 768, padding_idx=0)
      (position_embeddings): Embedding(512, 768)
      (token_type_embeddings): Embedding(2, 768)
      (LayerNorm): LayerNorm((768,), eps=1e-12, elementwise_affine=True)
      (dropout): Dropout(p=0.1, inplace=False)
    )
    (encoder): BertEncoder(
      (layer): ModuleList(
        (0): BertLayer(
          (attention): BertAttention(
            (self): BertSelfAttention(
              (query): Linear(in_features=768, out_features=768, bias=True)
              (key): Linear(in_features=768, out_features=768, bias=True)
              (value): Linear(in_features=768, out_features=768, bias=True)
              (dropout): Dropout(p=0.1, inplace=False)
            )
            (output): BertSelfOutput(
              (dense): Linear(in_features=768, out_features=768, bias=True)
              (LayerNorm): LayerNorm((768,), eps=1e-12, elementwise_affine=True)
              (dropout): Dropout(p=0.1, inplace=False)
            )
          )
          (intermediate): BertIntermediate(
            (dense): Linear(in_features=768, out_features=3072, bias=True)
            (intermediate_act_fn): GELUActivation()
          )
          (output): BertOutput(
            (dense): Linear(in_features=3072, out_features=768, bias=True)
            (LayerNorm): LayerNorm((768,), eps=1e-12, elementwise_affine=True)
            (dropout): Dropout(p=0.1, inplace=False)
          )
        )
      )
    )
    (pooler): BertPooler(
      (dense): Linear(in_features=768, out_features=768, bias=True)
      (activation): Tanh()
    )
  )
  (classifier): Linear(in_features=768, out_features=11, bias=True)
  (final): Linear(in_features=768, out_features=768, bias=True)
  (topic_layer): Sequential(
    (0): Linear(in_features=768, out_features=1200, bias=True)
    (1): Tanh()
    (2): Linear(in_features=1200, out_features=60, bias=True)
  )
  (projection): AttLayer(
    (attention): Sequential(
      (0): Linear(in_features=768, out_features=128, bias=True)
      (1): Tanh()
      (2): Linear(in_features=128, out_features=1, bias=True)
      (3): Flatten(start_dim=1, end_dim=-1)
      (4): Softmax(dim=-1)
    )
  )
)
Trainable params: 25,993,528
Freeze params: 0
2024-03-25 17:55:49,758 - trainer - INFO -     epoch          : 1
2024-03-25 17:55:49,758 - trainer - INFO -     loss           : 0.611827
2024-03-25 17:55:49,758 - trainer - INFO -     accuracy       : 0.8176
2024-03-25 17:55:49,758 - trainer - INFO -     macro_f        : 0.816103
…
2024-03-25 18:11:44,290 - trainer - INFO -     val_doc_entropy: 2.8451
2024-03-25 18:11:44,290 - trainer - INFO -     test_loss      : 0.485917
2024-03-25 18:11:44,290 - trainer - INFO -     test_accuracy  : 0.853
2024-03-25 18:11:44,290 - trainer - INFO -     test_macro_f   : 0.853005
2024-03-25 18:11:44,290 - trainer - INFO -     test_precision : 0.888752
2024-03-25 18:11:44,290 - trainer - INFO -     test_recall    : 0.853
2024-03-25 18:11:44,290 - trainer - INFO -     test_doc_entropy: 2.850581
2024-03-25 18:12:24,457 - train - INFO - BiAttentionClassifyModel(
  (embedding): BertModel(
    (embeddings): BertEmbeddings(
      (word_embeddings): Embedding(21128, 768, padding_idx=0)
      (position_embeddings): Embedding(512, 768)
      (token_type_embeddings): Embedding(2, 768)
      (LayerNorm): LayerNorm((768,), eps=1e-12, elementwise_affine=True)
      (dropout): Dropout(p=0.1, inplace=False)
    )
    (encoder): BertEncoder(
      (layer): ModuleList(
        (0): BertLayer(
          (attention): BertAttention(
            (self): BertSelfAttention(
              (query): Linear(in_features=768, out_features=768, bias=True)
              (key): Linear(in_features=768, out_features=768, bias=True)
              (value): Linear(in_features=768, out_features=768, bias=True)
              (dropout): Dropout(p=0.1, inplace=False)
            )
            (output): BertSelfOutput(
              (dense): Linear(in_features=768, out_features=768, bias=True)
              (LayerNorm): LayerNorm((768,), eps=1e-12, elementwise_affine=True)
              (dropout): Dropout(p=0.1, inplace=False)
            )
          )
          (intermediate): BertIntermediate(
            (dense): Linear(in_features=768, out_features=3072, bias=True)
            (intermediate_act_fn): GELUActivation()
          )
          (output): BertOutput(
            (dense): Linear(in_features=3072, out_features=768, bias=True)
            (LayerNorm): LayerNorm((768,), eps=1e-12, elementwise_affine=True)
            (dropout): Dropout(p=0.1, inplace=False)
          )
        )
      )
    )
    (pooler): BertPooler(
      (dense): Linear(in_features=768, out_features=768, bias=True)
      (activation): Tanh()
    )
  )
  (classifier): Linear(in_features=768, out_features=11, bias=True)
  (final): Linear(in_features=768, out_features=768, bias=True)
  (topic_layer): Sequential(
    (0): Linear(in_features=768, out_features=1200, bias=True)
    (1): Tanh()
    (2): Linear(in_features=1200, out_features=60, bias=True)
  )
  (projection): AttLayer(
    (attention): Sequential(
      (0): Linear(in_features=768, out_features=128, bias=True)
      (1): Tanh()
      (2): Linear(in_features=128, out_features=1, bias=True)
      (3): Flatten(start_dim=1, end_dim=-1)
      (4): Softmax(dim=-1)
    )
  )
)
Trainable params: 25,993,528
Freeze params: 0
2024-03-30 10:02:16,294 - train - INFO - BiAttentionClassifyModel(
  (embedding): BertModel(
    (embeddings): BertEmbeddings(
      (word_embeddings): Embedding(21128, 768, padding_idx=0)
      (position_embeddings): Embedding(512, 768)
      (token_type_embeddings): Embedding(2, 768)
      (LayerNorm): LayerNorm((768,), eps=1e-12, elementwise_affine=True)
      (dropout): Dropout(p=0.1, inplace=False)
    )
    (encoder): BertEncoder(
      (layer): ModuleList(
        (0): BertLayer(
          (attention): BertAttention(
            (self): BertSelfAttention(
              (query): Linear(in_features=768, out_features=768, bias=True)
              (key): Linear(in_features=768, out_features=768, bias=True)
              (value): Linear(in_features=768, out_features=768, bias=True)
              (dropout): Dropout(p=0.1, inplace=False)
            )
            (output): BertSelfOutput(
              (dense): Linear(in_features=768, out_features=768, bias=True)
              (LayerNorm): LayerNorm((768,), eps=1e-12, elementwise_affine=True)
              (dropout): Dropout(p=0.1, inplace=False)
            )
          )
          (intermediate): BertIntermediate(
            (dense): Linear(in_features=768, out_features=3072, bias=True)
            (intermediate_act_fn): GELUActivation()
          )
          (output): BertOutput(
            (dense): Linear(in_features=3072, out_features=768, bias=True)
            (LayerNorm): LayerNorm((768,), eps=1e-12, elementwise_affine=True)
            (dropout): Dropout(p=0.1, inplace=False)
          )
        )
      )
    )
    (pooler): BertPooler(
      (dense): Linear(in_features=768, out_features=768, bias=True)
      (activation): Tanh()
    )
  )
  (classifier): Linear(in_features=768, out_features=11, bias=True)
  (final): Linear(in_features=768, out_features=768, bias=True)
  (topic_layer): Sequential(
    (0): Linear(in_features=768, out_features=1200, bias=True)
    (1): Tanh()
    (2): Linear(in_features=1200, out_features=60, bias=True)
  )
  (projection): AttLayer(
    (attention): Sequential(
      (0): Linear(in_features=768, out_features=128, bias=True)
      (1): Tanh()
      (2): Linear(in_features=128, out_features=1, bias=True)
      (3): Flatten(start_dim=1, end_dim=-1)
      (4): Softmax(dim=-1)
    )
  )
)
Trainable params: 25,993,528
Freeze params: 0
2024-03-30 10:10:03,693 - trainer - INFO -     epoch          : 1
2024-03-30 10:10:03,693 - trainer - INFO -     loss           : 0.611827
2024-03-30 10:10:03,693 - trainer - INFO -     accuracy       : 0.8176
2024-03-30 10:10:03,693 - trainer - INFO -     macro_f        : 0.816103
…
2024-03-30 12:03:54,120 - trainer - INFO -     val_doc_entropy: 2.526288
2024-03-30 12:03:54,120 - trainer - INFO -     test_loss      : 0.518962
2024-03-30 12:03:54,120 - trainer - INFO -     test_accuracy  : 0.845545
2024-03-30 12:03:54,120 - trainer - INFO -     test_macro_f   : 0.845582
2024-03-30 12:03:54,120 - trainer - INFO -     test_precision : 0.884689
2024-03-30 12:03:54,120 - trainer - INFO -     test_recall    : 0.845545
2024-03-30 12:03:54,120 - trainer - INFO -     test_doc_entropy: 2.530535
2024-04-08 10:12:08,725 - train - INFO - BiAttentionClassifyModel(
  (embedding): BertModel(
    (embeddings): BertEmbeddings(
      (word_embeddings): Embedding(21128, 768, padding_idx=0)
      (position_embeddings): Embedding(512, 768)
      (token_type_embeddings): Embedding(2, 768)
      (LayerNorm): LayerNorm((768,), eps=1e-12, elementwise_affine=True)
      (dropout): Dropout(p=0.1, inplace=False)
    )
    (encoder): BertEncoder(
      (layer): ModuleList(
        (0): BertLayer(
          (attention): BertAttention(
            (self): BertSelfAttention(
              (query): Linear(in_features=768, out_features=768, bias=True)
              (key): Linear(in_features=768, out_features=768, bias=True)
              (value): Linear(in_features=768, out_features=768, bias=True)
              (dropout): Dropout(p=0.1, inplace=False)
            )
            (output): BertSelfOutput(
              (dense): Linear(in_features=768, out_features=768, bias=True)
              (LayerNorm): LayerNorm((768,), eps=1e-12, elementwise_affine=True)
              (dropout): Dropout(p=0.1, inplace=False)
            )
          )
          (intermediate): BertIntermediate(
            (dense): Linear(in_features=768, out_features=3072, bias=True)
            (intermediate_act_fn): GELUActivation()
          )
          (output): BertOutput(
            (dense): Linear(in_features=3072, out_features=768, bias=True)
            (LayerNorm): LayerNorm((768,), eps=1e-12, elementwise_affine=True)
            (dropout): Dropout(p=0.1, inplace=False)
          )
        )
      )
    )
    (pooler): BertPooler(
      (dense): Linear(in_features=768, out_features=768, bias=True)
      (activation): Tanh()
    )
  )
  (classifier): Linear(in_features=768, out_features=11, bias=True)
  (final): Linear(in_features=768, out_features=768, bias=True)
  (topic_layer): Sequential(
    (0): Linear(in_features=768, out_features=800, bias=True)
    (1): Tanh()
    (2): Linear(in_features=800, out_features=40, bias=True)
  )
  (projection): AttLayer(
    (attention): Sequential(
      (0): Linear(in_features=768, out_features=128, bias=True)
      (1): Tanh()
      (2): Linear(in_features=128, out_features=1, bias=True)
      (3): Flatten(start_dim=1, end_dim=-1)
      (4): Softmax(dim=-1)
    )
  )
)
Trainable params: 25,645,908
Freeze params: 0
2024-04-08 10:19:29,037 - trainer - INFO -     epoch          : 1
2024-04-08 10:19:29,037 - trainer - INFO -     loss           : 0.470166
2024-04-08 10:19:29,037 - trainer - INFO -     accuracy       : 0.857645
2024-04-08 10:19:29,037 - trainer - INFO -     macro_f        : 0.856936
…
2024-04-08 12:07:07,566 - trainer - INFO -     val_doc_entropy: 2.462401
2024-04-08 12:07:07,566 - trainer - INFO -     test_loss      : 0.361737
2024-04-08 12:07:07,566 - trainer - INFO -     test_accuracy  : 0.898364
2024-04-08 12:07:07,566 - trainer - INFO -     test_macro_f   : 0.899066
2024-04-08 12:07:07,566 - trainer - INFO -     test_precision : 0.923702
2024-04-08 12:07:07,566 - trainer - INFO -     test_recall    : 0.898364
2024-04-08 12:07:07,566 - trainer - INFO -     test_doc_entropy: 2.469971
2024-04-27 14:37:17,796 - train - INFO - BiAttentionClassifyModel(
  (embedding): BertModel(
    (embeddings): BertEmbeddings(
      (word_embeddings): Embedding(21128, 1024, padding_idx=0)
      (position_embeddings): Embedding(512, 1024)
      (token_type_embeddings): Embedding(2, 1024)
      (LayerNorm): LayerNorm((1024,), eps=1e-12, elementwise_affine=True)
      (dropout): Dropout(p=0.1, inplace=False)
    )
    (encoder): BertEncoder(
      (layer): ModuleList(
        (0): BertLayer(
          (attention): BertAttention(
            (self): BertSelfAttention(
              (query): Linear(in_features=1024, out_features=1024, bias=True)
              (key): Linear(in_features=1024, out_features=1024, bias=True)
              (value): Linear(in_features=1024, out_features=1024, bias=True)
              (dropout): Dropout(p=0.1, inplace=False)
            )
            (output): BertSelfOutput(
              (dense): Linear(in_features=1024, out_features=1024, bias=True)
              (LayerNorm): LayerNorm((1024,), eps=1e-12, elementwise_affine=True)
              (dropout): Dropout(p=0.1, inplace=False)
            )
          )
          (intermediate): BertIntermediate(
            (dense): Linear(in_features=1024, out_features=4096, bias=True)
            (intermediate_act_fn): GELUActivation()
          )
          (output): BertOutput(
            (dense): Linear(in_features=4096, out_features=1024, bias=True)
            (LayerNorm): LayerNorm((1024,), eps=1e-12, elementwise_affine=True)
            (dropout): Dropout(p=0.1, inplace=False)
          )
        )
      )
    )
    (pooler): BertPooler(
      (dense): Linear(in_features=1024, out_features=1024, bias=True)
      (activation): Tanh()
    )
  )
  (classifier): Linear(in_features=1024, out_features=11, bias=True)
  (final): Linear(in_features=1024, out_features=1024, bias=True)
  (topic_layer): Sequential(
    (0): Linear(in_features=1024, out_features=800, bias=True)
    (1): Tanh()
    (2): Linear(in_features=800, out_features=40, bias=True)
  )
  (projection): AttLayer(
    (attention): Sequential(
      (0): Linear(in_features=1024, out_features=128, bias=True)
      (1): Tanh()
      (2): Linear(in_features=128, out_features=1, bias=True)
      (3): Flatten(start_dim=1, end_dim=-1)
      (4): Softmax(dim=-1)
    )
  )
)
Trainable params: 37,853,524
Freeze params: 0
2024-04-27 14:47:45,920 - trainer - INFO -     epoch          : 1
2024-04-27 14:47:45,920 - trainer - INFO -     loss           : 0.459469
2024-04-27 14:47:45,920 - trainer - INFO -     accuracy       : 0.863173
2024-04-27 14:47:45,920 - trainer - INFO -     macro_f        : 0.862364
…
2024-04-27 17:19:50,853 - trainer - INFO -     val_doc_entropy: 2.638358
2024-04-27 17:19:50,853 - trainer - INFO -     test_loss      : 0.389161
2024-04-27 17:19:50,853 - trainer - INFO -     test_accuracy  : 0.892455
2024-04-27 17:19:50,853 - trainer - INFO -     test_macro_f   : 0.891244
2024-04-27 17:19:50,853 - trainer - INFO -     test_precision : 0.916622
2024-04-27 17:19:50,853 - trainer - INFO -     test_recall    : 0.892455
2024-04-27 17:19:50,853 - trainer - INFO -     test_doc_entropy: 2.645707
2024-05-02 15:45:21,647 - train - INFO - BiAttentionClassifyModel(
  (embedding): BertModel(
    (embeddings): BertEmbeddings(
      (word_embeddings): Embedding(21128, 768, padding_idx=0)
      (position_embeddings): Embedding(512, 768)
      (token_type_embeddings): Embedding(2, 768)
      (LayerNorm): LayerNorm((768,), eps=1e-12, elementwise_affine=True)
      (dropout): Dropout(p=0.1, inplace=False)
    )
    (encoder): BertEncoder(
      (layer): ModuleList(
        (0): BertLayer(
          (attention): BertAttention(
            (self): BertSelfAttention(
              (query): Linear(in_features=768, out_features=768, bias=True)
              (key): Linear(in_features=768, out_features=768, bias=True)
              (value): Linear(in_features=768, out_features=768, bias=True)
              (dropout): Dropout(p=0.1, inplace=False)
            )
            (output): BertSelfOutput(
              (dense): Linear(in_features=768, out_features=768, bias=True)
              (LayerNorm): LayerNorm((768,), eps=1e-12, elementwise_affine=True)
              (dropout): Dropout(p=0.1, inplace=False)
            )
          )
          (intermediate): BertIntermediate(
            (dense): Linear(in_features=768, out_features=3072, bias=True)
            (intermediate_act_fn): GELUActivation()
          )
          (output): BertOutput(
            (dense): Linear(in_features=3072, out_features=768, bias=True)
            (LayerNorm): LayerNorm((768,), eps=1e-12, elementwise_affine=True)
            (dropout): Dropout(p=0.1, inplace=False)
          )
        )
      )
    )
    (pooler): BertPooler(
      (dense): Linear(in_features=768, out_features=768, bias=True)
      (activation): Tanh()
    )
  )
  (classifier): Linear(in_features=768, out_features=11, bias=True)
  (final): Linear(in_features=768, out_features=768, bias=True)
  (topic_layer): Sequential(
    (0): Linear(in_features=768, out_features=1000, bias=True)
    (1): Tanh()
    (2): Linear(in_features=1000, out_features=50, bias=True)
  )
  (rnn): GRUWithAttention(
    (gru): GRU(768, 768)
    (lstm): LSTM(768, 768)
  )
  (W_k): Linear(in_features=768, out_features=50, bias=False)
  (W_q): Linear(in_features=768, out_features=50, bias=False)
  (W_v): Linear(in_features=768, out_features=50, bias=False)
  (droputout1): Dropout(p=0.2, inplace=False)
  (pooling): MaxPool1d(kernel_size=3, stride=1, padding=1, dilation=1, ceil_mode=False)
  (add_norm1): AddNorm(
    (dropout1): Dropout(p=0.2, inplace=False)
    (dropout2): Dropout(p=0.2, inplace=False)
    (ln): LayerNorm((50, 256), eps=1e-05, elementwise_affine=True)
  )
  (projection): AttLayer(
    (attention): Sequential(
      (0): Linear(in_features=768, out_features=64, bias=True)
      (1): Tanh()
      (2): Linear(in_features=64, out_features=1, bias=True)
      (3): Flatten(start_dim=1, end_dim=-1)
      (4): Softmax(dim=-1)
    )
  )
)
Trainable params: 34,177,526
Freeze params: 0
2024-05-02 16:10:09,719 - trainer - INFO -     epoch          : 1
2024-05-02 16:10:09,719 - trainer - INFO -     loss           : 0.474344
2024-05-02 16:10:09,719 - trainer - INFO -     accuracy       : 0.854627
2024-05-02 16:10:09,719 - trainer - INFO -     macro_f        : 0.853558
…
2024-05-02 20:03:53,324 - trainer - INFO -     val_doc_entropy: 2.719803
2024-05-02 20:03:53,324 - trainer - INFO -     test_loss      : 0.349499
2024-05-02 20:03:53,324 - trainer - INFO -     test_accuracy  : 0.892545
2024-05-02 20:03:53,324 - trainer - INFO -     test_macro_f   : 0.892524
2024-05-02 20:03:53,324 - trainer - INFO -     test_precision : 0.91851
2024-05-02 20:03:53,324 - trainer - INFO -     test_recall    : 0.892545
2024-05-02 20:03:53,324 - trainer - INFO -     test_doc_entropy: 2.728673
2024-05-02 20:10:50,614 - train - INFO - BiAttentionClassifyModel(
  (embedding): BertModel(
    (embeddings): BertEmbeddings(
      (word_embeddings): Embedding(21128, 1024, padding_idx=0)
      (position_embeddings): Embedding(512, 1024)
      (token_type_embeddings): Embedding(2, 1024)
      (LayerNorm): LayerNorm((1024,), eps=1e-12, elementwise_affine=True)
      (dropout): Dropout(p=0.1, inplace=False)
    )
    (encoder): BertEncoder(
      (layer): ModuleList(
        (0): BertLayer(
          (attention): BertAttention(
            (self): BertSelfAttention(
              (query): Linear(in_features=1024, out_features=1024, bias=True)
              (key): Linear(in_features=1024, out_features=1024, bias=True)
              (value): Linear(in_features=1024, out_features=1024, bias=True)
              (dropout): Dropout(p=0.1, inplace=False)
            )
            (output): BertSelfOutput(
              (dense): Linear(in_features=1024, out_features=1024, bias=True)
              (LayerNorm): LayerNorm((1024,), eps=1e-12, elementwise_affine=True)
              (dropout): Dropout(p=0.1, inplace=False)
            )
          )
          (intermediate): BertIntermediate(
            (dense): Linear(in_features=1024, out_features=4096, bias=True)
            (intermediate_act_fn): GELUActivation()
          )
          (output): BertOutput(
            (dense): Linear(in_features=4096, out_features=1024, bias=True)
            (LayerNorm): LayerNorm((1024,), eps=1e-12, elementwise_affine=True)
            (dropout): Dropout(p=0.1, inplace=False)
          )
        )
      )
    )
    (pooler): BertPooler(
      (dense): Linear(in_features=1024, out_features=1024, bias=True)
      (activation): Tanh()
    )
  )
  (classifier): Linear(in_features=1024, out_features=11, bias=True)
  (final): Linear(in_features=1024, out_features=1024, bias=True)
  (topic_layer): Sequential(
    (0): Linear(in_features=1024, out_features=1000, bias=True)
    (1): Tanh()
    (2): Linear(in_features=1000, out_features=50, bias=True)
  )
  (rnn): GRUWithAttention(
    (gru): GRU(1024, 1024)
    (lstm): LSTM(1024, 1024)
  )
  (W_k): Linear(in_features=1024, out_features=50, bias=False)
  (W_q): Linear(in_features=1024, out_features=50, bias=False)
  (W_v): Linear(in_features=1024, out_features=50, bias=False)
  (droputout1): Dropout(p=0.2, inplace=False)
  (pooling): MaxPool1d(kernel_size=3, stride=1, padding=1, dilation=1, ceil_mode=False)
  (add_norm1): AddNorm(
    (dropout1): Dropout(p=0.2, inplace=False)
    (dropout2): Dropout(p=0.2, inplace=False)
    (ln): LayerNorm((50, 100), eps=1e-05, elementwise_affine=True)
  )
  (projection): AttLayer(
    (attention): Sequential(
      (0): Linear(in_features=1024, out_features=64, bias=True)
      (1): Tanh()
      (2): Linear(in_features=64, out_features=1, bias=True)
      (3): Flatten(start_dim=1, end_dim=-1)
      (4): Softmax(dim=-1)
    )
  )
)
Trainable params: 52,868,870
Freeze params: 0
2024-05-02 22:11:52,717 - train - INFO - BiAttentionClassifyModel(
  (embedding): BertModel(
    (embeddings): BertEmbeddings(
      (word_embeddings): Embedding(21128, 1024, padding_idx=0)
      (position_embeddings): Embedding(512, 1024)
      (token_type_embeddings): Embedding(2, 1024)
      (LayerNorm): LayerNorm((1024,), eps=1e-12, elementwise_affine=True)
      (dropout): Dropout(p=0.1, inplace=False)
    )
    (encoder): BertEncoder(
      (layer): ModuleList(
        (0): BertLayer(
          (attention): BertAttention(
            (self): BertSelfAttention(
              (query): Linear(in_features=1024, out_features=1024, bias=True)
              (key): Linear(in_features=1024, out_features=1024, bias=True)
              (value): Linear(in_features=1024, out_features=1024, bias=True)
              (dropout): Dropout(p=0.1, inplace=False)
            )
            (output): BertSelfOutput(
              (dense): Linear(in_features=1024, out_features=1024, bias=True)
              (LayerNorm): LayerNorm((1024,), eps=1e-12, elementwise_affine=True)
              (dropout): Dropout(p=0.1, inplace=False)
            )
          )
          (intermediate): BertIntermediate(
            (dense): Linear(in_features=1024, out_features=4096, bias=True)
            (intermediate_act_fn): GELUActivation()
          )
          (output): BertOutput(
            (dense): Linear(in_features=4096, out_features=1024, bias=True)
            (LayerNorm): LayerNorm((1024,), eps=1e-12, elementwise_affine=True)
            (dropout): Dropout(p=0.1, inplace=False)
          )
        )
      )
    )
    (pooler): BertPooler(
      (dense): Linear(in_features=1024, out_features=1024, bias=True)
      (activation): Tanh()
    )
  )
  (classifier): Linear(in_features=1024, out_features=11, bias=True)
  (final): Linear(in_features=1024, out_features=1024, bias=True)
  (topic_layer): Sequential(
    (0): Linear(in_features=1024, out_features=1000, bias=True)
    (1): Tanh()
    (2): Linear(in_features=1000, out_features=50, bias=True)
  )
  (rnn): GRUWithAttention(
    (gru): GRU(1024, 1024)
    (lstm): LSTM(1024, 1024)
  )
  (W_k): Linear(in_features=1024, out_features=50, bias=False)
  (W_q): Linear(in_features=1024, out_features=50, bias=False)
  (W_v): Linear(in_features=1024, out_features=50, bias=False)
  (droputout1): Dropout(p=0.2, inplace=False)
  (pooling): MaxPool1d(kernel_size=3, stride=1, padding=1, dilation=1, ceil_mode=False)
  (add_norm1): AddNorm(
    (dropout1): Dropout(p=0.2, inplace=False)
    (dropout2): Dropout(p=0.2, inplace=False)
    (ln): LayerNorm((50, 100), eps=1e-05, elementwise_affine=True)
  )
  (projection): AttLayer(
    (attention): Sequential(
      (0): Linear(in_features=1024, out_features=64, bias=True)
      (1): Tanh()
      (2): Linear(in_features=64, out_features=1, bias=True)
      (3): Flatten(start_dim=1, end_dim=-1)
      (4): Softmax(dim=-1)
    )
  )
)
Trainable params: 52,868,870
Freeze params: 0
2024-05-02 22:13:08,976 - train - INFO - BiAttentionClassifyModel(
  (embedding): BertModel(
    (embeddings): BertEmbeddings(
      (word_embeddings): Embedding(21128, 1024, padding_idx=0)
      (position_embeddings): Embedding(512, 1024)
      (token_type_embeddings): Embedding(2, 1024)
      (LayerNorm): LayerNorm((1024,), eps=1e-12, elementwise_affine=True)
      (dropout): Dropout(p=0.1, inplace=False)
    )
    (encoder): BertEncoder(
      (layer): ModuleList(
        (0): BertLayer(
          (attention): BertAttention(
            (self): BertSelfAttention(
              (query): Linear(in_features=1024, out_features=1024, bias=True)
              (key): Linear(in_features=1024, out_features=1024, bias=True)
              (value): Linear(in_features=1024, out_features=1024, bias=True)
              (dropout): Dropout(p=0.1, inplace=False)
            )
            (output): BertSelfOutput(
              (dense): Linear(in_features=1024, out_features=1024, bias=True)
              (LayerNorm): LayerNorm((1024,), eps=1e-12, elementwise_affine=True)
              (dropout): Dropout(p=0.1, inplace=False)
            )
          )
          (intermediate): BertIntermediate(
            (dense): Linear(in_features=1024, out_features=4096, bias=True)
            (intermediate_act_fn): GELUActivation()
          )
          (output): BertOutput(
            (dense): Linear(in_features=4096, out_features=1024, bias=True)
            (LayerNorm): LayerNorm((1024,), eps=1e-12, elementwise_affine=True)
            (dropout): Dropout(p=0.1, inplace=False)
          )
        )
      )
    )
    (pooler): BertPooler(
      (dense): Linear(in_features=1024, out_features=1024, bias=True)
      (activation): Tanh()
    )
  )
  (classifier): Linear(in_features=1024, out_features=11, bias=True)
  (final): Linear(in_features=1024, out_features=1024, bias=True)
  (topic_layer): Sequential(
    (0): Linear(in_features=1024, out_features=1000, bias=True)
    (1): Tanh()
    (2): Linear(in_features=1000, out_features=50, bias=True)
  )
  (rnn): GRUWithAttention(
    (gru): GRU(1024, 1024)
    (lstm): LSTM(1024, 1024)
  )
  (W_k): Linear(in_features=1024, out_features=50, bias=False)
  (W_q): Linear(in_features=1024, out_features=50, bias=False)
  (W_v): Linear(in_features=1024, out_features=50, bias=False)
  (droputout1): Dropout(p=0.2, inplace=False)
  (pooling): MaxPool1d(kernel_size=3, stride=1, padding=1, dilation=1, ceil_mode=False)
  (add_norm1): AddNorm(
    (dropout1): Dropout(p=0.2, inplace=False)
    (dropout2): Dropout(p=0.2, inplace=False)
    (ln): LayerNorm((50, 100), eps=1e-05, elementwise_affine=True)
  )
  (projection): AttLayer(
    (attention): Sequential(
      (0): Linear(in_features=1024, out_features=64, bias=True)
      (1): Tanh()
      (2): Linear(in_features=64, out_features=1, bias=True)
      (3): Flatten(start_dim=1, end_dim=-1)
      (4): Softmax(dim=-1)
    )
  )
)
Trainable params: 52,868,870
Freeze params: 0
2024-05-02 22:27:49,445 - trainer - INFO -     epoch          : 1
2024-05-02 22:27:49,445 - trainer - INFO -     loss           : 0.47174
2024-05-02 22:27:49,445 - trainer - INFO -     accuracy       : 0.855909
2024-05-02 22:27:49,445 - trainer - INFO -     macro_f        : 0.854622
…
2024-05-02 22:42:34,642 - trainer - INFO -     val_doc_entropy: 2.961274
2024-05-02 22:42:34,642 - trainer - INFO -     test_loss      : 0.365724
2024-05-02 22:42:34,642 - trainer - INFO -     test_accuracy  : 0.891727
2024-05-02 22:42:34,642 - trainer - INFO -     test_macro_f   : 0.890391
2024-05-02 22:42:34,642 - trainer - INFO -     test_precision : 0.916138
2024-05-02 22:42:34,642 - trainer - INFO -     test_recall    : 0.891727
2024-05-02 22:42:34,642 - trainer - INFO -     test_doc_entropy: 2.973294
2024-05-02 22:43:49,424 - train - INFO - BiAttentionClassifyModel(
  (embedding): BertModel(
    (embeddings): BertEmbeddings(
      (word_embeddings): Embedding(21128, 1024, padding_idx=0)
      (position_embeddings): Embedding(512, 1024)
      (token_type_embeddings): Embedding(2, 1024)
      (LayerNorm): LayerNorm((1024,), eps=1e-12, elementwise_affine=True)
      (dropout): Dropout(p=0.1, inplace=False)
    )
    (encoder): BertEncoder(
      (layer): ModuleList(
        (0): BertLayer(
          (attention): BertAttention(
            (self): BertSelfAttention(
              (query): Linear(in_features=1024, out_features=1024, bias=True)
              (key): Linear(in_features=1024, out_features=1024, bias=True)
              (value): Linear(in_features=1024, out_features=1024, bias=True)
              (dropout): Dropout(p=0.1, inplace=False)
            )
            (output): BertSelfOutput(
              (dense): Linear(in_features=1024, out_features=1024, bias=True)
              (LayerNorm): LayerNorm((1024,), eps=1e-12, elementwise_affine=True)
              (dropout): Dropout(p=0.1, inplace=False)
            )
          )
          (intermediate): BertIntermediate(
            (dense): Linear(in_features=1024, out_features=4096, bias=True)
            (intermediate_act_fn): GELUActivation()
          )
          (output): BertOutput(
            (dense): Linear(in_features=4096, out_features=1024, bias=True)
            (LayerNorm): LayerNorm((1024,), eps=1e-12, elementwise_affine=True)
            (dropout): Dropout(p=0.1, inplace=False)
          )
        )
      )
    )
    (pooler): BertPooler(
      (dense): Linear(in_features=1024, out_features=1024, bias=True)
      (activation): Tanh()
    )
  )
  (classifier): Linear(in_features=1024, out_features=11, bias=True)
  (final): Linear(in_features=1024, out_features=1024, bias=True)
  (topic_layer): Sequential(
    (0): Linear(in_features=1024, out_features=1000, bias=True)
    (1): Tanh()
    (2): Linear(in_features=1000, out_features=50, bias=True)
  )
  (rnn): GRUWithAttention(
    (gru): GRU(1024, 1024)
    (lstm): LSTM(1024, 1024)
  )
  (W_k): Linear(in_features=1024, out_features=50, bias=False)
  (W_q): Linear(in_features=1024, out_features=50, bias=False)
  (W_v): Linear(in_features=1024, out_features=50, bias=False)
  (droputout1): Dropout(p=0.2, inplace=False)
  (pooling): MaxPool1d(kernel_size=3, stride=1, padding=1, dilation=1, ceil_mode=False)
  (add_norm1): AddNorm(
    (dropout1): Dropout(p=0.2, inplace=False)
    (dropout2): Dropout(p=0.2, inplace=False)
    (ln): LayerNorm((50, 100), eps=1e-05, elementwise_affine=True)
  )
  (projection): AttLayer(
    (attention): Sequential(
      (0): Linear(in_features=1024, out_features=64, bias=True)
      (1): Tanh()
      (2): Linear(in_features=64, out_features=1, bias=True)
      (3): Flatten(start_dim=1, end_dim=-1)
      (4): Softmax(dim=-1)
    )
  )
)
Trainable params: 52,868,870
Freeze params: 0
2024-05-02 22:58:38,337 - trainer - INFO -     epoch          : 1
2024-05-02 22:58:39,213 - trainer - INFO -     loss           : 0.470657
2024-05-02 22:58:39,213 - trainer - INFO -     accuracy       : 0.856318
2024-05-02 22:58:39,213 - trainer - INFO -     macro_f        : 0.855176
…
2024-05-02 23:44:13,479 - trainer - INFO -     val_doc_entropy: 2.951253
2024-05-02 23:44:13,479 - trainer - INFO -     test_loss      : 0.36936
2024-05-02 23:44:13,479 - trainer - INFO -     test_accuracy  : 0.888636
2024-05-02 23:44:13,479 - trainer - INFO -     test_macro_f   : 0.889449
2024-05-02 23:44:13,479 - trainer - INFO -     test_precision : 0.919187
2024-05-02 23:44:13,479 - trainer - INFO -     test_recall    : 0.888636
2024-05-02 23:44:13,479 - trainer - INFO -     test_doc_entropy: 2.962103
2024-05-02 23:45:27,362 - train - INFO - BiAttentionClassifyModel(
  (embedding): BertModel(
    (embeddings): BertEmbeddings(
      (word_embeddings): Embedding(21128, 1024, padding_idx=0)
      (position_embeddings): Embedding(512, 1024)
      (token_type_embeddings): Embedding(2, 1024)
      (LayerNorm): LayerNorm((1024,), eps=1e-12, elementwise_affine=True)
      (dropout): Dropout(p=0.1, inplace=False)
    )
    (encoder): BertEncoder(
      (layer): ModuleList(
        (0): BertLayer(
          (attention): BertAttention(
            (self): BertSelfAttention(
              (query): Linear(in_features=1024, out_features=1024, bias=True)
              (key): Linear(in_features=1024, out_features=1024, bias=True)
              (value): Linear(in_features=1024, out_features=1024, bias=True)
              (dropout): Dropout(p=0.1, inplace=False)
            )
            (output): BertSelfOutput(
              (dense): Linear(in_features=1024, out_features=1024, bias=True)
              (LayerNorm): LayerNorm((1024,), eps=1e-12, elementwise_affine=True)
              (dropout): Dropout(p=0.1, inplace=False)
            )
          )
          (intermediate): BertIntermediate(
            (dense): Linear(in_features=1024, out_features=4096, bias=True)
            (intermediate_act_fn): GELUActivation()
          )
          (output): BertOutput(
            (dense): Linear(in_features=4096, out_features=1024, bias=True)
            (LayerNorm): LayerNorm((1024,), eps=1e-12, elementwise_affine=True)
            (dropout): Dropout(p=0.1, inplace=False)
          )
        )
      )
    )
    (pooler): BertPooler(
      (dense): Linear(in_features=1024, out_features=1024, bias=True)
      (activation): Tanh()
    )
  )
  (classifier): Linear(in_features=1024, out_features=11, bias=True)
  (final): Linear(in_features=1024, out_features=1024, bias=True)
  (topic_layer): Sequential(
    (0): Linear(in_features=1024, out_features=1000, bias=True)
    (1): Tanh()
    (2): Linear(in_features=1000, out_features=50, bias=True)
  )
  (rnn): GRUWithAttention(
    (gru): GRU(1024, 1024)
    (lstm): LSTM(1024, 1024)
  )
  (W_k): Linear(in_features=1024, out_features=50, bias=False)
  (W_q): Linear(in_features=1024, out_features=50, bias=False)
  (W_v): Linear(in_features=1024, out_features=50, bias=False)
  (droputout1): Dropout(p=0.2, inplace=False)
  (pooling): MaxPool1d(kernel_size=3, stride=1, padding=1, dilation=1, ceil_mode=False)
  (add_norm1): AddNorm(
    (dropout1): Dropout(p=0.2, inplace=False)
    (dropout2): Dropout(p=0.2, inplace=False)
    (ln): LayerNorm((50, 100), eps=1e-05, elementwise_affine=True)
  )
  (projection): AttLayer(
    (attention): Sequential(
      (0): Linear(in_features=1024, out_features=64, bias=True)
      (1): Tanh()
      (2): Linear(in_features=64, out_features=1, bias=True)
      (3): Flatten(start_dim=1, end_dim=-1)
      (4): Softmax(dim=-1)
    )
  )
)
Trainable params: 52,868,870
Freeze params: 0
2024-05-03 11:47:54,776 - train - INFO - BiAttentionClassifyModel(
  (embedding): BertModel(
    (embeddings): BertEmbeddings(
      (word_embeddings): Embedding(21128, 1024, padding_idx=0)
      (position_embeddings): Embedding(512, 1024)
      (token_type_embeddings): Embedding(2, 1024)
      (LayerNorm): LayerNorm((1024,), eps=1e-12, elementwise_affine=True)
      (dropout): Dropout(p=0.1, inplace=False)
    )
    (encoder): BertEncoder(
      (layer): ModuleList(
        (0): BertLayer(
          (attention): BertAttention(
            (self): BertSelfAttention(
              (query): Linear(in_features=1024, out_features=1024, bias=True)
              (key): Linear(in_features=1024, out_features=1024, bias=True)
              (value): Linear(in_features=1024, out_features=1024, bias=True)
              (dropout): Dropout(p=0.1, inplace=False)
            )
            (output): BertSelfOutput(
              (dense): Linear(in_features=1024, out_features=1024, bias=True)
              (LayerNorm): LayerNorm((1024,), eps=1e-12, elementwise_affine=True)
              (dropout): Dropout(p=0.1, inplace=False)
            )
          )
          (intermediate): BertIntermediate(
            (dense): Linear(in_features=1024, out_features=4096, bias=True)
            (intermediate_act_fn): GELUActivation()
          )
          (output): BertOutput(
            (dense): Linear(in_features=4096, out_features=1024, bias=True)
            (LayerNorm): LayerNorm((1024,), eps=1e-12, elementwise_affine=True)
            (dropout): Dropout(p=0.1, inplace=False)
          )
        )
      )
    )
    (pooler): BertPooler(
      (dense): Linear(in_features=1024, out_features=1024, bias=True)
      (activation): Tanh()
    )
  )
  (classifier): Linear(in_features=1024, out_features=11, bias=True)
  (final): Linear(in_features=1024, out_features=1024, bias=True)
  (topic_layer): Sequential(
    (0): Linear(in_features=1024, out_features=1000, bias=True)
    (1): Tanh()
    (2): Linear(in_features=1000, out_features=50, bias=True)
  )
  (rnn): GRUWithAttention(
    (gru): GRU(1024, 1024)
    (lstm): LSTM(1024, 1024)
  )
  (W_k): Linear(in_features=1024, out_features=50, bias=False)
  (W_q): Linear(in_features=1024, out_features=50, bias=False)
  (W_v): Linear(in_features=1024, out_features=50, bias=False)
  (droputout1): Dropout(p=0.2, inplace=False)
  (pooling): MaxPool1d(kernel_size=3, stride=1, padding=1, dilation=1, ceil_mode=False)
  (add_norm1): AddNorm(
    (dropout1): Dropout(p=0.2, inplace=False)
    (dropout2): Dropout(p=0.2, inplace=False)
    (ln): LayerNorm((50, 100), eps=1e-05, elementwise_affine=True)
  )
  (projection): AttLayer(
    (attention): Sequential(
      (0): Linear(in_features=1024, out_features=64, bias=True)
      (1): Tanh()
      (2): Linear(in_features=64, out_features=1, bias=True)
      (3): Flatten(start_dim=1, end_dim=-1)
      (4): Softmax(dim=-1)
    )
  )
)
Trainable params: 52,868,870
Freeze params: 0
2024-05-03 12:02:38,989 - trainer - INFO -     epoch          : 1
2024-05-03 12:02:38,989 - trainer - INFO -     loss           : 0.47208
2024-05-03 12:02:38,989 - trainer - INFO -     accuracy       : 0.8548
2024-05-03 12:02:38,989 - trainer - INFO -     macro_f        : 0.853968
…
